ml_service/best_mlp_model_weighted_2_8_2025.pt (torch, 874909 bytes, 19 tensors)

model.0.weight f4 [512, 75]
000000 f8 0a 42 3c fd 57 a1 3b 25 80 2a bc 3e a8 a3 ba
       0.0118434355 0.004923819 -0.010406529 -0.0012486053
000010 90 4f 98 bc a0 5b 80 bc 4c 12 9f 3c ef dd 83 bc
       -0.018592626 -0.01566869 0.019417904 -0.016097037
000020 7d fe ae 3b d1 b0 3a 3b 38 6a c4 3c 2d 89 a6 3c
       0.005340396 0.0028486738 0.02397643 0.020329082
000030 98 46 05 bc b5 e4 a4 3d 41 5d 74 bd 5b 28 3f 3d
       -0.008134507 0.08051435 -0.059659246 0.046669345
000040 82 30 24 3b f4 d9 52 bb d5 fa 0d bc f4 0d 67 3c
       0.0025053327 -0.0032173367 -0.00866576 0.014102448
000050 e5 86 9f 3c cf 82 3b bd d5 2f a1 bc ce 35 a6 3b
       0.019473502 -0.045779046 -0.019676128 0.005072332
000060 66 91 87 bc 19 8d f1 bc c0 6f 08 3c f8 57 8e 3c
       -0.016548824 -0.029486226 0.0083274245 0.017375931
000070 32 b2 93 bc ad 38 38 3c c8 c9 60 bc b9 d2 27 bd
       -0.018029306 0.011243981 -0.013719983 -0.040972445
000080 fd 38 5b bc 08 1a a1 bc 02 1b c2 3c 1b 5b 1e bc
       -0.013380286 -0.019665733 0.023694519 -0.009665276
000090 f6 eb a2 bb d7 cb 91 bd e3 fb 38 ba 99 e4 18 bd
       -0.0049719764 -0.071189575 -0.0007056577 -0.037327383
0000a0 9a 46 d2 bb f4 6a e5 3c 0f a1 13 3c 41 b2 ce 3a
       -0.006417108 0.0280051 0.009010567 0.0015769677
0000b0 40 c1 1d bb 3c 0d bd 3b 1d fe 83 3c 35 8d 9d 3d
       -0.0024071485 0.0057694 0.016112382 0.07692949
0000c0 c0 5c 3f bd 46 35 dd 3c e0 cb 1b bc 14 8e bb 3c
       -0.046719313 0.027002942 -0.009509057 0.022894897
0000d0 cc 84 ac ba 2a 0c 8a ba 0f 0a e1 bc b6 5d 56 3c
       -0.0013162135 -0.001053219 -0.027470617 0.013083866
0000e0 ce 35 a6 3b 3e a8 a3 ba f1 38 ba bc 49 6f 3e 3b
       0.005072332 -0.0012486053 -0.02273223 0.002905803
0000f0 7d fe ae 3b 93 af 7c 3b ad 38 38 3c 8d 80 33 3b
       0.005340396 0.0038556799 0.011243981 0.0027389855
000100 aa fa a9 3c 89 3d 9d be 4a 57 a1 be 88 8c c9 3d
       0.020749409 -0.3071101 -0.3151191 0.09841257
000110 33 04 fa bd a8 ed 8a bd df 74 37 be 00 bd bc 3c
       -0.12207832 -0.067836106 -0.17915677 0.023039341
000120 ca 0d c5 bb 54 0e 0e bd 59 76 28 bd 28 da d9 b9
       -0.0060136067 -0.034681633 -0.04112849 -0.00041552004
000130 7e f1 04 bc b2 0b 9c b9 44 af 26 3c 9f cb d2 3a
       -0.008114217 -0.00029763352 0.0101736225 0.0016082412
000140 f0 53 1e 3b 2d 05 10 3c 36 bb 98 bb 49 2a 12 3b
       0.0024158917 0.0087902965 -0.004660989 0.0022303036
000150 cd 47 1b bb b8 b1 e8 ba 7e d0 8d ba fb 21 6c ba
       -0.002369392 -0.001775316 -0.0010819582 -0.0009007749
000160 33 36 99 3b 9f a3 d9 3a 3e 27 c9 3b a9 e5 3d bb
       0.0046756505 0.0016604549 0.0061387112 -0.0028976
000170 e0 c4 83 3b 12 1b e7 3b 45 19 e6 3a a5 9b f4 bb
       0.004021272 0.0070527876 0.0017555138 -0.0074648433
000180 8b 19 99 3b bf a7 b3 3a a6 82 95 b9 63 19 90 ba
       0.0046722344 0.0013706608 -0.00028516835 -0.0010993894
000190 4c f8 a9 bb 5b 5a 9f 3b b6 40 9c bb 5d 43 0c bc
       -0.00518707 0.004863066 -0.0047684563 -0.0085609825
0001a0 cb 02 7c 3b 1f 4a b4 3b aa cd b0 bb 3f 46 78 bb
       0.0038453813 0.005502 -0.005395611 -0.0037883667
0001b0 b7 5f ce ba b7 de 19 3b ab 16 cc 3b 0c 17 b6 3b
       -0.0015745078 0.0023478696 0.006228288 0.0055569466
0001c0 01 96 34 bc 90 45 10 3c 22 bc 87 3a b6 50 80 3b
       -0.011022092 0.0088056475 0.001035575 0.0039158715
0001d0 45 c1 97 3b d3 ba 8f b9 fd 83 22 bb 54 d3 6e bb
       0.004631194 -0.0002741428 -0.002479791 -0.003644188
0001e0 d1 cb 8a bb 6b f6 d1 ba be 85 b3 3b b1 89 a5 bb
       -0.0042357226 -0.0016018873 0.00547859 -0.0050518145
0001f0 4a 94 e4 ba 08 f5 e8 ba 13 ad e5 bb 9c c1 bd b9
       -0.0017439213 -0.001777322 -0.0070091574 -0.0003619314
000200 dd aa 57 bb d0 ca ec bb e7 fd 37 3b a6 82 95 b9
       -0.003290824 -0.0072263256 0.0028074922 -0.00028516835
000210 44 af 26 3c aa 21 b3 bb 08 ff 7f bb 49 2a 12 3b
       0.0101736225 -0.0054666596 -0.0039061923 0.0022303036
000220 79 de a1 3b cb 02 7c 3b 33 c7 61 bb 6b 77 9f 3c
       0.004939851 0.0038453813 -0.0034451007 0.019466123
000230 15 0c 91 bc 0c 5d f0 bb 3f 84 a4 3c a5 89 29 bb
       -0.017705956 -0.007335311 0.020082591 -0.0025869396
000240 aa e9 b5 3c c4 e2 69 bc 6d 57 ae 3a d7 1d 9f 3b
       0.022206146 -0.014275257 0.0013301201 0.004855852
000250 07 09 74 3c 97 fc 34 3c 77 9c 36 3d bb f5 78 3c
       0.01489473 0.01104655 0.04458281 0.015195305
000260 be 4a 76 bb d1 11 a7 3b b5 e8 9a 3b 39 3c b4 bc
       -0.003758117 0.0050985594 0.004727448 -0.022001373
000270 73 e6 13 ba 13 26 85 3b 60 af f7 bc e8 47 9e 3c
       -0.00056419446 0.0040633767 -0.030234993 0.019321397
000280 ed 4a c5 bc 98 56 0d bd 48 21 43 3d c2 b9 09 3a
       -0.024083579 -0.03450641 0.04763916 0.00052538153
000290 fb 7a bf 3b 27 33 9d bb b3 aa 07 3d 20 de 58 3a
       0.005843518 -0.0047973576 0.033121776 0.00082728453
0002a0 ec 2c 82 3c ae 77 d8 bc 4f 35 c8 bc 0c 8e f0 3c
       0.015890561 -0.026424255 -0.024439482 0.029364608
0002b0 73 93 71 bc ba db 20 bc 16 23 12 3c 68 c5 8c 3b
       -0.014744627 -0.009818012 0.008919498 0.0042959936
0002c0 9e b2 22 3b c9 00 04 bd ca 92 3f 3d 7f 35 0a bb
       0.0024825702 -0.03222731 0.04677085 -0.0021089015
0002d0 c2 22 44 ba 06 55 81 3d a1 61 8e bc 94 ff 15 bd
       -0.0007481986 0.06315045 -0.017380537 -0.03662069
0002e0 a0 dc e3 bc 1a ce 4f 3c 37 89 69 bd 1f bb 0c 3d
       -0.027815163 0.012683416 -0.057015624 0.03435814
0002f0 09 e1 07 bd dc 0d 30 3c fd 6f 1c 3c 15 f2 78 bb
       -0.033173595 0.010745492 0.009548184 -0.003798609
000300 77 aa c6 3b d4 ed 73 3b 03 f9 36 3b d2 76 8a bc
       0.0060628015 0.0037220614 0.0027919419 -0.016902361
000310 f2 e9 f3 bb c4 9e 30 3a 61 fc 63 3b ca 34 9e bc
       -0.00744366 0.0006737525 0.003478788 -0.019312281
000320 00 6c 6d 3c 2e 2c 27 3c aa 48 d3 38 50 ab 69 3d
       0.014491081 0.010203404 0.00010074799 0.057048142
000330 e0 ae 29 bc fe 0b 77 3c ba db 20 bc d1 11 a7 3b
       -0.010356635 0.015078543 -0.009818012 0.0050985594
000340 ad f5 37 bb 0d 9d 95 3c 60 af f7 bc 80 1e ce ba
       -0.0028070018 0.018263364 -0.030234993 -0.0015725642
000350 7f 35 0a bb 50 ed c8 3c 82 01 1a bd 2a 9b 22 3e
       -0.0021089015 0.024527222 -0.037599094 0.15879503
000360 6d 39 8f 3e 6c ea 1a be 0b b7 4c 3d e1 1e 17 3d
       0.279735 -0.15128487 0.04997925 0.036894683
000370 f1 6e 50 3e 88 5a 70 bc 5e 3b 71 3c d2 af 5f 3d
       0.20354821 -0.014670022 0.014723627 0.054611035
000380 60 b6 5c 3b 23 ca 15 bd 38 d3 90 bb 60 f0 46 3b
       0.003367804 -0.036569726 -0.0044197105 0.0030355677
000390 df 71 2e 3d e3 53 21 bb a9 d4 b8 bc 62 13 31 bc
       0.042589065 -0.002461665 -0.022562342 -0.010807844
0003a0 3c 66 4a bc cc 9d 07 bc 31 e5 3c bc e8 33 99 3c
       -0.012353476 -0.008277368 -0.011529253 0.018701509
0003b0 42 54 7c bc f5 07 d7 bb 07 68 b3 3d 6a 81 bd 39
       -0.015400948 -0.006562228 0.08760076 0.0003614531
0003c0 1c b6 a9 ba f0 0c f6 3b e1 02 a4 3c a7 e7 85 bc
       -0.001294795 0.0075088665 0.020020904 -0.016345812
0003d0 3c 58 2a bc f3 83 12 3b a1 88 84 bd 70 04 2e bd
       -0.010397013 0.002235648 -0.064713724 -0.0424847
0003e0 f3 3a 58 bb 48 46 28 3d 04 89 15 bd 72 a0 1f 3d
       -0.003299412 0.04108265 -0.03650762 0.038971372
0003f0 e6 a0 a0 bc eb 90 a2 bc 50 f7 37 3d b4 ca 2f bc
       -0.019607972 -0.019844493 0.04491359 -0.010729481

model.0.bias f4 [512]
000000 a4 68 1c b7 a6 ac d7 32 e9 52 10 b7 90 db 16 b7
       -9.322688e-06 2.5107806e-08 -8.602373e-06 -8.991818e-06
000010 cb 7e 05 b2 4e de 61 36 ae 1d ab 35 a1 74 44 b4
       -7.770448e-09 3.365701e-06 1.2749131e-06 -1.8296352e-07
000020 54 19 72 31 99 25 f6 b7 a7 51 58 b6 ee 4c 76 b4
       3.5230032e-09 -2.9342993e-05 -3.2234036e-06 -2.2938522e-07
000030 00 ee db 35 be cc de b2 90 28 0d 33 4f 0e 84 31
       1.6386039e-06 -2.5937307e-08 3.2866012e-08 3.8433323e-09
000040 8d eb e4 b3 49 c8 c9 34 c0 e0 8a 37 c2 8d 9b af
       -1.0659924e-07 3.7584894e-07 1.655554e-05 -2.829506e-10
000050 14 1d a6 36 92 cf fe 35 83 2b a6 b4 3f e0 a8 b4
       4.9505707e-06 1.8984886e-06 -3.0951568e-07 -3.14556e-07
000060 ca ec db b4 fb 7d 28 b4 a1 9b 3f 35 8d da 66 34
       -4.0964215e-07 -1.569205e-07 7.1379515e-07 2.1499928e-07
000070 9a 99 41 b4 2c 25 60 b3 be 0c 5c ae 45 7e 5e 34
       -1.8030406e-07 -5.2187872e-08 -5.0033526e-11 2.0721298e-07
000080 2b d4 84 30 fc cb 01 36 d7 5d 24 b2 62 f7 ce b2
       9.664566e-10 1.9341232e-06 -9.567393e-09 -2.4094053e-08
000090 9e 36 a7 b4 80 44 1b b7 ac 7e d2 b3 58 82 a9 b3
       -3.1145913e-07 -9.254669e-06 -9.8019285e-08 -7.893385e-08
0000a0 10 02 f6 b5 e0 3c 8c 2b da f0 4b 32 b0 bd da b4
       -1.8329029e-06 9.964495e-13 1.18709185e-08 -4.074368e-07
0000b0 d4 03 b5 30 be f9 58 b2 dd 44 22 b2 8b 13 8c b6
       1.3170571e-09 -1.262964e-08 -9.445299e-09 -4.1746002e-06
0000c0 92 bd c8 33 fa 82 41 b3 10 78 99 32 78 73 8c 35
       9.3477084e-08 -4.5055437e-08 1.7866142e-08 1.0464419e-06
0000d0 75 d8 c4 32 7f 53 b2 37 f8 81 c4 32 3a 5b 76 34
       2.2915836e-08 2.1258134e-05 2.2876506e-08 2.2943723e-07
0000e0 84 51 85 b2 cf d0 71 b0 3f bb c3 b6 e5 f9 a5 33
       -1.5520307e-08 -8.7972024e-10 -5.833251e-06 7.728867e-08
0000f0 52 0b ac b5 ce 9b 00 34 f4 36 89 34 a6 b6 04 b4
       -1.2818293e-06 1.197761e-07 2.5558222e-07 -1.2359905e-07
000100 2b fe 37 34 92 e3 89 b4 5b f4 3a b4 62 6c e1 35
       1.7135669e-07 -2.5683818e-07 -1.7411496e-07 1.679535e-06
000110 10 ee 87 2f c2 d9 d9 b1 66 5d 39 b5 e7 cc 10 2e
       2.472551e-10 -6.3402874e-09 -6.9053783e-07 3.29238e-11
000120 b3 4d d2 37 22 ce 18 b3 d7 a7 65 33 a9 08 47 b4
       2.5070132e-05 -3.5577735e-08 5.3470867e-08 -1.853647e-07
000130 ac 19 c9 2c ff 10 1e ae ce 80 5b b2 cb 78 53 b7
       5.7156137e-12 -3.5940136e-11 -1.27767645e-08 -1.2604704e-05
000140 84 72 db b2 34 8c 22 b3 6d c4 07 b5 53 3b 91 ae
       -2.5547031e-08 -3.784608e-08 -5.0577256e-07 -6.604375e-11
000150 01 4a 3d 34 c1 4d f7 b3 e3 fe 0d 33 70 f4 06 36
       1.7628919e-07 -1.1515977e-07 3.306094e-08 2.0109837e-06
000160 32 cf 41 b3 ba e8 e5 b6 c1 a2 ba b5 b7 a7 30 b3
       -4.5124757e-08 -6.8518248e-06 -1.3905448e-06 -4.113073e-08
000170 8d e6 d9 b1 f0 82 5e 37 57 8d 15 af cb 0e 68 32
       -6.341742e-09 1.3262717e-05 -1.3601685e-10 1.3507541e-08
000180 30 a2 5f b4 67 78 1a b3 00 4f dd b3 03 d9 92 b3
       -2.0827497e-07 -3.5965424e-08 -1.03054845e-07 -6.838129e-08
000190 10 2f 3b b3 7e 7f 72 37 d8 b0 1d ad 36 92 b5 32
       -4.3582133e-08 1.4454008e-05 -8.963684e-12 2.1137662e-08
0001a0 dd c9 71 35 3f 6a 03 33 4f 34 3a 34 76 71 ec 34
       9.0073246e-07 3.0597445e-08 1.734163e-07 4.404098e-07
0001b0 a2 f7 06 37 46 d7 71 b1 e8 c7 87 31 7f 85 5b b3
       8.044679e-06 -3.5192484e-09 3.951744e-09 -5.1111325e-08
0001c0 6c c0 62 33 50 c2 3c b3 76 d9 06 32 d2 80 df b3
       5.2794732e-08 -4.3948887e-08 7.8492715e-09 -1.0407679e-07
0001d0 ec 53 da b6 fc b4 65 32 2a 1c cb 31 12 56 ab b0
       -6.506676e-06 1.3370705e-08 5.9112795e-09 -1.246635e-09
0001e0 89 1c a3 b0 a3 98 83 b3 25 7f 5d af cb 14 87 37
       -1.1867921e-09 -6.127927e-08 -2.0145004e-10 1.6102937e-05
0001f0 74 5b 62 2e 76 46 de b5 5f 72 aa 36 6e 95 a1 b4
       5.1467677e-11 -1.6560796e-06 5.0797094e-06 -3.009731e-07
000200 9e a0 01 b7 62 e5 01 35 f1 98 14 b3 ea cf 42 b7
       -7.726396e-06 4.839004e-07 -3.4598035e-08 -1.161171e-05
000210 a7 a4 03 35 e7 54 2c b0 22 ff c8 b1 8f 09 ed 35
       4.9040904e-07 -6.269389e-10 -5.8497713e-09 1.7660658e-06
000220 6c 74 ad 36 21 97 ad ab 99 92 b9 b2 dc 29 6f 34
       5.169355e-06 -1.2334336e-12 -2.16035e-08 2.2273838e-07
000230 d1 94 47 30 79 5e 0f 31 62 0b 59 b7 b2 34 9d 34
       7.260726e-10 2.086294e-09 -1.2936858e-05 2.928187e-07
000240 40 1c d6 2e e3 bb 76 af 4c e3 1f b7 05 dd 9f 30
       9.7366115e-11 -2.244032e-10 -9.53006e-06 1.163159e-09
000250 ff d7 8b b1 26 63 8e 31 f0 50 83 b3 d2 2b 97 30
       -4.0699883e-09 4.144016e-09 -6.114885e-08 1.099915e-09
000260 32 74 c7 af e3 be a3 33 d8 e7 cd 35 25 09 3d 36
       -3.628045e-10 7.625001e-08 1.5341166e-06 2.8168517e-06
000270 bc c3 d7 ab e3 83 14 36 2a 1b e5 36 fa 8c 36 36
       -1.5330996e-12 2.2130487e-06 6.827894e-06 2.7202173e-06
000280 2f e3 74 32 b3 ea 51 b6 5e ff 97 b6 d0 98 98 34
       1.4254325e-08 -3.128004e-06 -4.5298793e-06 2.8423392e-07
000290 6f cc a4 b3 20 28 82 b6 ad 23 e0 35 d1 84 d2 31
       -7.6740314e-08 -3.878973e-06 1.6699684e-06 6.126904e-09
0002a0 d9 b7 9c 37 60 ef 71 2c eb fe 9d 33 68 f8 a7 30
       1.868226e-05 3.438104e-12 7.3572515e-08 1.222145e-09
0002b0 51 1b 08 34 c9 91 be b2 21 81 0e 34 46 44 0a b1
       1.2675925e-07 -2.2185207e-08 1.3271757e-07 -2.0120452e-09
0002c0 81 25 47 b6 c0 74 e8 ae 99 01 97 34 b2 79 09 34
       -2.967514e-06 -1.05708775e-10 2.8127104e-07 1.2803392e-07
0002d0 03 b0 a8 2b 47 f8 4d 31 e3 14 c7 2b 47 c2 94 34
       1.1985971e-12 2.9972556e-09 1.4145598e-12 2.7708504e-07
0002e0 f1 d5 b1 b0 9f 6a aa b0 76 14 f4 31 20 d8 c5 34
       -1.2939251e-09 -1.2399431e-09 7.1036608e-09 3.685136e-07
0002f0 16 5e 43 37 34 44 c7 b1 73 5e 5a b4 a0 5f 64 b3
       1.1644812e-05 -5.799416e-09 -2.0337193e-07 -5.3172357e-08
000300 36 53 1f b2 df e8 e6 34 b1 cc d4 b4 66 87 c0 34
       -9.273938e-09 4.3010274e-07 -3.963701e-07 3.5861302e-07
000310 f9 ec b0 b2 f5 69 47 b4 6b b3 c0 36 85 f2 8b b3
       -2.059686e-08 -1.8571866e-07 5.742933e-06 -6.516806e-08
000320 f0 47 c0 b4 85 5f 1b b4 44 2b a3 32 94 1c 52 35
       -3.5815128e-07 -1.447025e-07 1.8995372e-08 7.8272683e-07
000330 a8 f3 71 30 9d 87 89 31 c6 0b ab b2 d4 eb 97 32
       8.8021546e-10 4.002642e-09 -1.9912374e-08 1.7685956e-08
000340 cf b5 0e b8 52 76 08 b3 c6 86 e1 37 b8 06 24 b3
       -3.402476e-05 -3.177258e-08 2.6884849e-05 -3.8190336e-08
000350 af d5 00 af 21 cf 90 b6 91 f9 69 36 cc a0 cc b5
       -1.1717448e-10 -4.3156474e-06 3.4864972e-06 -1.5245982e-06
000360 0c 2e b2 b0 6c 12 cf 33 aa 36 db ab 88 45 e4 b1
       -1.2964292e-09 9.6425396e-08 -1.5576058e-12 -6.643578e-09
000370 6b 67 b9 2b 9f bc e5 2c d1 1f b6 27 f5 ad 35 b3
       1.3173745e-12 6.5295126e-12 5.0549643e-15 -4.230056e-08
000380 b1 a0 e6 34 91 02 3f 34 31 c6 bb b5 a4 07 8a b6
       4.2957757e-07 1.7789195e-07 -1.3990267e-06 -4.11361e-06
000390 68 9e 5f b2 60 24 6c b6 f1 b6 25 b3 ac ba ec b3
       -1.3016326e-08 -3.5187913e-06 -3.858344e-08 -1.1023562e-07
0003a0 ba 3f 90 33 31 74 80 36 53 0d 8d 35 de c6 a5 b0
       6.717114e-08 3.8282237e-06 1.0509196e-06 -1.2061852e-09
0003b0 4d dd c3 b5 c3 b4 a5 b0 28 1a 0a b5 57 b0 d6 34
       -1.4593039e-06 -1.2056706e-09 -5.144707e-07 3.998891e-07
0003c0 f1 ed 48 b3 4e eb 05 34 3a 8e 0c b1 85 a7 8e b4
       -4.6782535e-08 1.2472194e-07 -2.0453528e-09 -2.6571448e-07
0003d0 81 c6 d7 b6 e4 2a 48 ab 81 99 13 b5 48 cb 50 b1
       -6.430608e-06 -7.1113796e-13 -5.4985145e-07 -3.0383536e-09
0003e0 37 f7 8f b0 d7 71 12 b8 19 45 46 b4 22 d3 29 b7
       -1.0474882e-09 -3.4915134e-05 -1.8465325e-07 -1.0122343e-05
0003f0 b9 6d 5a b7 9e 8e 0e 30 e1 b4 be b3 b0 e9 15 35
       -1.3019359e-05 5.186197e-10 -8.880466e-08 5.5846886e-07

model.1.weight f4 [512]
000000 e6 b6 bf 3e d8 10 5c 3b 94 d1 83 3e c1 7a 9f 3e
       0.37444228 0.0033579376 0.25745833 0.3114834
000010 8b 31 83 39 f0 fc 41 3e 72 e4 b0 3e 99 86 f7 3c
       0.0002502318 0.18944144 0.3454929 0.030215548
000020 9c c4 0b bb 4e db 14 3f e8 77 21 3e 28 5b 3e 3c
       -0.0021326905 0.5814713 0.15768397 0.011618413
000030 57 c7 6c 3d 67 ec 46 3b ae 2f d5 3a c1 b2 5c ba
       0.057807293 0.003035331 0.001626482 -0.00084189704
000040 03 9f 6d 3c 97 9e 88 3c 62 a4 e7 3e 6f 99 69 38
       0.014503243 0.016677184 0.45242602 5.5694425e-05
000050 af c8 65 3e 2d 33 a3 3d b8 59 ef ba 7d 42 f8 3d
       0.22439836 0.079687454 -0.0018260991 0.12122057
000060 33 f3 d7 bb 21 52 03 3c 73 e4 86 3e 33 10 26 bc
       -0.006590271 0.0080151865 0.26346168 -0.010135698
000070 30 57 99 3b 74 b8 24 3b ab 66 fa 39 1b 1f 95 3b
       0.004679583 0.0025134357 0.0004776021 0.004550827
000080 25 4b c7 38 1c 4b 7a 3e e8 12 f4 ba d5 cc 0b 3b
       9.503056e-05 0.24442714 -0.0018621357 0.0021331806
000090 50 c3 dc 3c 28 35 8e 3e 3e b0 72 ba f6 c5 e7 3a
       0.026948601 0.2777493 -0.00092578295 0.0017682898
0000a0 14 2d e3 3e b0 e6 e0 35 38 23 3b ba ad 8d e9 bb
       0.4437033 1.675644e-06 -0.0007138732 -0.007127485
0000b0 e0 6b f2 38 11 fa fa 3a 70 0e 68 ba 02 37 47 3e
       0.000115595525 0.0019148012 -0.0008852249 0.19454578
0000c0 6e ca a2 3b 66 56 57 bc e1 d1 2a 39 f4 c7 26 bd
       0.004967979 -0.013143158 0.0001629065 -0.040718034
0000d0 3a 56 91 3b bc 4a 81 3f 46 f0 eb ba 47 7d df 3b
       0.004435328 1.0100932 -0.0018000684 0.006820354
0000e0 15 df 3f bc 1f aa f7 b9 e1 b1 22 3e 0d f2 da 3b
       -0.011710902 -0.0004723826 0.15888168 0.0066816867
0000f0 d1 dc 0e 3f d5 3f 22 bb 6a 53 1a 3a e9 86 c4 3b
       0.5580569 -0.0024757285 0.00058870635 0.005997528
000100 f1 d8 89 3c f6 c5 4a 3c 7f 21 60 bb 78 c7 27 3d
       0.016827079 0.012376299 -0.0034199653 0.040961713
000110 67 b6 90 38 64 75 a9 bb f0 79 78 3e a6 86 d1 b5
       6.90043e-05 -0.0051714648 0.24265265 -1.5610901e-06
000120 8a 45 51 3f 50 d0 9d 3b cf 37 bd 3b 90 6a e1 bb
       0.81746733 0.0048160926 0.005774475 -0.0068791583
000130 7e 93 0e b7 aa 7a 71 b8 06 49 ea b9 7e 16 94 3e
       -8.4982e-06 -5.7573117e-05 -0.00044686365 0.2892341
000140 30 fd 4b ba e3 5d 36 3b 43 d5 93 3b 0f 93 13 b7
       -0.00077815633 0.0027826957 0.0045115068 -8.7961225e-06
000150 0a 1b 40 3b b1 d7 40 3c 34 0b 04 3c af c1 02 3f
       0.0029312992 0.011770175 0.008059312 0.5107679
000160 fa 24 90 3a 46 c5 03 3f 0c 0e b4 3e 04 1f 18 bd
       0.0010997348 0.5147289 0.35166967 -0.037138954
000170 51 37 9e ba 2a b1 15 3f ce 3c 64 38 4c b5 de 3b
       -0.0012070929 0.58473456 5.4416065e-05 0.0067965146
000180 e0 b8 fd 3c 78 7e c4 ba 23 bf aa bb 1d 5e 9e 3b
       0.030971944 -0.0014991304 -0.0052107736 0.0048329965
000190 ad 27 93 3a e9 4c df 3e 07 49 83 b6 37 e5 27 3b
       0.0011227034 0.43613365 -3.9126057e-06 0.00256188
0001a0 03 9a 00 bd e5 2c f8 3a 22 5c ca 3b 80 da 63 bc
       -0.031396877 0.0018934278 0.006175534 -0.013907075
0001b0 e5 a8 a2 3e 27 ec b9 b9 76 74 82 ba 45 c6 fe bb
       0.3176948 -0.00035461897 -0.0009952921 -0.0077751004
0001c0 5d 77 4c bb 10 12 0e 3b e5 95 b8 b9 99 5a 80 b9
       -0.0031199076 0.0021678247 -0.00035206895 -0.00024481563
0001d0 cb a7 73 3e 7a cd 41 bb 22 04 91 ba c7 75 02 ba
       0.23794477 -0.0029571936 -0.0011063854 -0.00049766566
0001e0 ea c6 1f bb ea 6a ab bb 1e 02 4c 38 30 d9 c4 3e
       -0.0024380037 -0.005231251 4.8639362e-05 0.3844695
0001f0 6c 32 37 b8 ef 08 71 3e ee 7c 9e 3e f6 31 2f bc
       -4.367756e-05 0.23538564 0.3095469 -0.010693064
000200 f6 fd ba 3e ec 9f 98 3c 0b 30 e7 3b 91 42 20 3f
       0.36521882 0.018630944 0.0070552877 0.6260157
000210 76 68 15 3c 4e 19 d8 39 bb 80 03 3a b2 bb 7a 3e
       0.009119144 0.00041217584 0.0005016436 0.24485663
000220 b6 f1 8d 3e dd a3 fb 37 70 2d a4 3b 0a ac d9 39
       0.27723473 2.9997836e-05 0.0050102994 0.00041517644
000230 e5 44 2f ba 5a 5b df 3b e2 12 84 3e a5 b4 48 bc
       -0.00066859863 0.00681631 0.25795656 -0.0122501
000240 1d 4c 45 38 8d e9 c8 b7 ae 1d e3 3e ba e5 48 3a
       4.7039346e-05 -2.3950613e-05 0.4435858 0.00076636265
000250 f7 eb 9b 39 9a c5 0f 34 e3 b0 14 bb 1d d0 ef 39
       0.0002973971 1.33898e-07 -0.002268844 0.0004574069
000260 12 58 69 b8 bb 1c e2 3b 39 32 d2 3e 93 73 81 3e
       -5.563355e-05 0.0069003976 0.41053942 0.2528349
000270 63 7a 81 b6 0c dc 09 3e 3c c5 8d 3e 7a c0 81 3e
       -3.8587473e-06 0.13462847 0.2768954 0.2534216
000280 17 0e 26 3b 79 ae 9c 3e 95 eb f2 3e 1e 6c a8 3b
       0.0025337988 0.30601862 0.4744536 0.0051398417
000290 df e3 61 3b b3 cc 9f 3e 64 f3 a6 3e e5 71 ab ba
       0.0034468097 0.3121086 0.32607567 -0.0013080208
0002a0 3a 89 04 3f 40 9c 09 38 3b 68 ba 3b c2 a6 fd 39
       0.5177189 3.2808864e-05 0.005688695 0.00048380165
0002b0 07 e7 3b 3b 98 a8 45 3b 3a 98 9c bb 23 48 51 3b
       0.0028671639 0.0030160304 -0.004778889 0.0031933866
0002c0 a7 a1 07 3e 81 a6 14 38 81 c4 53 bc a0 87 6b 3c
       0.13245259 3.544102e-05 -0.012925268 0.014375597
0002d0 2a d5 0e b7 33 b0 33 3b ea a1 51 36 d2 7e 95 3b
       -8.513491e-06 0.0027418255 3.1237673e-06 0.0045622373
0002e0 0a 52 82 39 9d 9b da 39 8f 86 5c 3b 89 a0 6b bd
       0.00024856656 0.0004169614 0.003364954 -0.057526145
0002f0 8c 71 c2 3e b9 84 a0 bb e8 51 07 3c 64 41 3a 3e
       0.37977254 -0.0048986343 0.008259274 0.18189007
000300 38 26 a5 3a a7 a3 4a 3e f0 cc a3 3b 4d 82 94 3c
       0.0012599891 0.19788991 0.0049987957 0.018128539
000310 b5 7f 5e 3b c0 76 8c 3b fe 26 87 3e 9e 32 95 3b
       0.003395063 0.004286617 0.26396936 0.004553153
000320 d3 68 c9 bb 8e f6 ad 3b 6d c8 1c 3b 07 fc a5 bc
       -0.006146529 0.0053089326 0.0023923174 -0.020261778
000330 97 c8 b2 3a d3 b1 8a b9 c0 0e a8 3b 17 4d b7 3b
       0.0013640103 -0.000264539 0.0051287115 0.0055939066
000340 67 b7 1f 3f 0d 0e 87 3a 0f e0 bd 3e ae c0 4c 3c
       0.62389225 0.001030387 0.37085006 0.01249711
000350 f0 71 ac b9 20 5f a2 3e c6 62 97 3e a7 a8 0a 3f
       -0.00032891287 0.317132 0.29567546 0.54163593
000360 4a 18 55 b9 cb bd fd 3b fd 28 95 b7 18 31 00 bc
       -0.00020322311 0.0077435724 -1.778127e-05 -0.007824205
000370 56 a4 1e 38 ac c7 ff 37 14 01 0d 36 ea 2a af bb
       3.7823185e-05 3.0491348e-05 2.1011265e-06 -0.005345692
000380 63 b7 20 3c 8d c1 6b ba 9b ba 54 3e 04 75 d9 3e
       0.009809348 -0.000899338 0.2077431 0.42472088
000390 4a 0f 60 ba b9 80 9c 3e 86 17 5c bc b4 06 7b bb
       -0.00085472 0.30566958 -0.013433343 -0.0038303556
0003a0 07 9e 09 bc 00 1a 60 3e f4 4e 8e bc f4 75 bf b9
       -0.008399493 0.21884918 -0.017371632 -0.0003651824
0003b0 af 97 89 3e 5c 35 7e 3a dd 00 4a 3c 1a a5 1b 3c
       0.26873538 0.0009697282 0.012329307 0.0094998125
0003c0 0d 14 0d bc 64 9f c9 bb db 44 9f b9 2a 9d b9 3e
       -0.0086107375 -0.006153034 -0.00030378145 0.3625272
0003d0 c1 9c 46 3f 97 ba 9b 37 7d 96 ca bc 59 ba 59 b9
       0.7758294 1.8564328e-05 -0.024729962 -0.00020764153
0003e0 49 10 89 38 b0 a2 0f 3f d7 4f 7f bc 57 0e 0c 3f
       6.5357024e-05 0.56107616 -0.015583 0.5470938
0003f0 a9 c1 bb 3e 58 98 67 38 1b fe 0c bb 2a db 84 3e
       0.36671188 5.5216573e-05 -0.0021513763 0.2594846

model.1.bias f4 [512]
000000 b8 8f 24 be bd b7 3d 3c 38 38 a3 3b 6d ff e8 bd
       -0.1607045 0.011579451 0.004981067 -0.113768436
000010 15 0d d8 b9 a3 0d bd bd d1 5c 38 be 84 5b e9 bb
       -0.00041208477 -0.092311166 -0.18004157 -0.007121505
000020 f4 ed bf 3b 3b d5 99 be 1c de 31 bc b6 54 53 b9
       0.0058572236 -0.30045494 -0.010856178 -0.00020154085
000030 35 eb 89 bd 10 00 bd bc 73 ad e9 bc c9 c2 7d 3c
       -0.06734315 -0.023071319 -0.02852509 0.015488335
000040 f2 9f 17 bd 10 90 a3 bd 96 c3 2c be 60 5e 72 b9
       -0.03701777 -0.07986462 -0.16871485 -0.00023114076
000050 22 f2 1b be 92 09 93 3c 1d 0e 9c bd 5e dc 45 bd
       -0.15229085 0.0179489 -0.076198794 -0.04830586
000060 fe 51 b4 3c 27 31 71 bb 02 1d ee bd 3e f3 41 3c
       0.022011753 -0.0036802979 -0.116266266 0.011837779
000070 50 22 20 bd f1 96 f1 bc 1f a1 45 3a e9 5a 7a bd
       -0.039095223 -0.02949092 0.00075389625 -0.061121855
000080 3d d2 1f 3c 97 4d fc bc 37 ba e9 bc 07 f2 97 3a
       0.009754715 -0.030798716 -0.028531177 0.0011592516
000090 68 6e 80 3d 1f c9 da bd 63 26 75 3c 19 64 2e 3d
       0.06271058 -0.10682892 0.014962765 0.04257593
0000a0 3d 84 95 be 29 62 b8 b8 9f 1f 93 ba 53 2e 4d bd
       -0.29202452 -8.7920875e-05 -0.0011224634 -0.050093006
0000b0 31 39 3c b9 ef bf b3 3c 23 a6 91 bb d5 c5 cd bc
       -0.00017950383 0.021942107 -0.004444854 -0.025118748
0000c0 74 5c 27 bb ac a5 3c bd 50 fd 56 3c 4e c2 c3 bd
       -0.0025537284 -0.046056435 0.013121918 -0.09558545
0000d0 35 21 93 3d 62 19 28 bf 12 8e af bb 08 df 8e 3b
       0.07184068 -0.6566373 -0.0053575123 0.0043600835
0000e0 4d 61 91 bd 50 83 88 ba ac f9 8e bc 4c d2 0a 3c
       -0.07098637 -0.0010415111 -0.017453037 0.00847299
0000f0 e7 6d b2 be 0a 4d 17 bd 52 44 56 3d 63 8b ae 3b
       -0.34849474 -0.036938705 0.05231125 0.005326675
000100 7b 93 d1 3c a4 76 f7 bc f7 5f 95 3d 3e cb aa bd
       0.02558302 -0.03020794 0.072936945 -0.083395466
000110 8b 24 3e 38 fe c0 58 bb 32 41 06 be 49 59 0b b9
       4.5333563e-05 -0.0033074017 -0.13110808 -0.00013289334
000120 db eb 00 bf a1 96 b8 3b 08 4e 0f bc 06 aa 97 bd
       -0.50359887 0.0056331907 -0.008746631 -0.07405476
000130 20 51 81 b7 ae 10 e2 b9 2f be 4a 3d bc f1 77 3c
       -1.5415775e-05 -0.00043118506 0.04949778 0.015133318
000140 82 9b e7 bc 75 bd df bc f6 46 33 bd 7b 19 bd b9
       -0.028272394 -0.02731202 -0.043768845 -0.00036067874
000150 fb 6b b7 3c 33 b1 14 bc e7 5f a2 bb 4f 3b 8f be
       0.022390356 -0.009075451 -0.00495528 -0.27974936
000160 e1 e2 29 bc 2c 3f bb be 80 3f 22 be c0 c1 93 bd
       -0.010369034 -0.36571634 -0.15844536 -0.07214689
000170 2f 3d 11 bd e7 0f 3f bc 27 5a 9d b8 ae 3b e7 bd
       -0.03545874 -0.011661506 -7.5031356e-05 -0.1129068
000180 f4 83 22 3d 85 f7 1b bc 5c 9d 01 3c bd 36 b4 3c
       0.03967662 -0.0095194625 0.007911053 0.021998757
000190 b6 31 0d bd 0f c8 84 be bd 7f 13 38 dd b6 c4 3c
       -0.034471236 -0.25933883 3.5166497e-05 0.024012977
0001a0 20 2c 2a bd 93 2e 54 3b 41 07 a2 3d 47 66 ce bd
       -0.041545987 0.0032376393 0.0791154 -0.100781016
0001b0 f4 8f 0f be e2 66 5f 39 64 43 e2 3a 53 fe 9d bd
       -0.14019758 0.00021305264 0.0017262516 -0.07714524
0001c0 47 fe 4a bc 28 51 3e bc 9e 7a a2 3d af c4 d7 bc
       -0.012389726 -0.011616029 0.079335436 -0.026338903
0001d0 91 3b b9 3b 12 b9 10 bb 7b 56 a3 bb 08 21 9e 3b
       0.005652853 -0.0022082967 -0.0049846745 0.004825715
0001e0 a2 28 24 bb 86 04 94 bd 8e eb 3a 3a 52 c1 97 be
       -0.0025048633 -0.07227425 0.00071304373 -0.2963968
0001f0 31 20 16 b8 b2 2a 13 be f0 bd e9 bd fb da a4 3c
       -3.5792767e-05 -0.14371756 -0.11413181 0.02012395
000200 9a 40 51 be f1 ad 8b bd 3f 57 26 3c 40 7f e9 be
       -0.204348 -0.06820286 0.010152637 -0.45604897
000210 cb 00 a2 3c 6f cb ea 3c b1 51 00 3d 3c de 9f bd
       0.019775769 0.028661458 0.031327907 -0.0780606
000220 db 9e e4 bd 74 3b c9 b2 c0 07 91 3b 3f 78 53 bd
       -0.11163112 -2.3426516e-08 0.0044259727 -0.051628347
000230 80 69 df 3a 5b 63 5d bb 55 ac d8 bd a0 3a ba 3c
       0.0017044991 -0.0033781144 -0.10579745 0.022733033
000240 f0 a0 22 b7 21 11 09 bb f8 87 40 be 45 43 42 ba
       -9.693424e-06 -0.002091475 -0.18801868 -0.00074105366
000250 49 44 1f 3d 3b 14 1f bd b4 b8 eb bb 37 c1 a7 3a
       0.03888348 -0.038837653 -0.007193649 0.0012798671
000260 1d 44 83 b9 6a 2c 4f bc ad 0c 39 be db 8e 11 be
       -0.00025037015 -0.0126448665 -0.18071242 -0.14214651
000270 e2 1f 90 37 22 74 af bd 35 9c 88 bc a5 d7 09 be
       1.7180984e-05 -0.085670725 -0.016676048 -0.13461168
000280 2e ea 6a 3d 58 a5 c4 bd 75 93 8a be cb 42 a1 3d
       0.057352237 -0.09601849 -0.27065626 0.07874068
000290 8a 8c 0c 3d a9 26 03 be de 7c 13 be 0b 72 78 bb
       0.034313716 -0.12807716 -0.14403102 -0.0037909772
0002a0 5e 6b 7d be 10 fd 0a b9 ea 8a 39 3d b0 dd 4b ba
       -0.24747989 -0.00013254979 0.045298494 -0.00077768695
0002b0 b5 f2 c8 bd 1c 39 1c bb 8c a2 a7 bd 1b 22 22 bd
       -0.09811918 -0.002383775 -0.081853 -0.039583307
0002c0 48 12 3c bd ca 24 e4 38 b5 7f fc bd 35 b0 11 ba
       -0.04591587 0.0001087874 -0.12329046 -0.0005557568
0002d0 c7 60 7a 36 34 61 2c bd 1a dc 97 36 b1 6f cc 3c
       3.7309235e-06 -0.042084888 4.525774e-06 0.024955602
0002e0 88 7e 10 bb 4a f4 d8 b9 b0 c3 99 3c 1d 95 44 3d
       -0.0022048075 -0.0004138074 0.018770069 0.047993768
0002f0 8f 7f 0b be 8c e8 74 bc 65 3c 6f bd 32 56 5b bd
       -0.13622878 -0.014948022 -0.058407206 -0.053549
000300 5d d8 b2 3d f3 1f e6 bd dc 6f 26 bc 56 ec fc 3c
       0.08732674 -0.112365626 -0.010158505 0.030874413
000310 9d 9a 16 bb 5c 81 42 3c cf cb ed bd d9 51 9d bc
       -0.002298034 0.011871662 -0.11611139 -0.019204067
000320 06 0a c8 bd 6e c6 00 bc 36 05 c0 37 a9 8f 58 bd
       -0.09767537 -0.007859809 2.289061e-05 -0.05287138
000330 34 c1 a5 3b 91 f0 17 3a bf 92 39 bd c4 36 63 bd
       0.005058432 0.000579604 -0.045305964 -0.05547215
000340 65 dd b0 3d 89 81 6e bd 3f a9 ea bd 54 4a f9 bc
       0.08635978 -0.058229003 -0.114580624 -0.03043095
000350 42 97 3a 3a 80 11 cd bd bf a2 57 be e9 66 a2 bc
       0.0007117876 -0.100131035 -0.21058176 -0.019824462
000360 fc 63 96 39 12 84 95 3a 22 df 0f 37 d0 95 81 3c
       0.00028684724 0.0011407158 8.575416e-06 0.015818506
000370 91 f0 42 b6 3a 7c 6c b6 00 86 c4 34 10 7b 29 bb
       -2.904828e-06 -3.523905e-06 3.6605343e-07 -0.0025860704
000380 0f cb 83 3d 9f dc 91 bd 0d 79 3e 3c 44 9a 95 be
       0.06435215 -0.07122158 0.01162554 -0.29219258
000390 6f 11 24 bb 01 6a 3d be 9c 23 27 bc ec f8 39 3d
       -0.0025034805 -0.18497469 -0.010201361 0.045403406
0003a0 52 ab e4 bc 44 ca 0a be 8f a8 e0 3d 36 27 63 ba
       -0.027913723 -0.1355372 0.1096965 -0.00086652057
0003b0 ac b7 c4 bd e3 56 0c 3a fe c6 d6 3d 33 b4 70 bd
       -0.09605345 0.00053535233 0.104871735 -0.0587656
0003c0 49 dc 84 3c 86 cc 48 bc 4f cc b6 3a 76 bb 41 be
       0.016218321 -0.012255793 0.0013946387 -0.18919167
0003d0 01 0b 04 bf 09 f7 60 b7 0d b4 c0 3d 1a 9a 93 39
       -0.5157929 -1.3408958e-05 0.09409342 0.0002815284
0003e0 ed c9 96 b9 61 8f 2c 3b d6 6b db 3c 2c 57 93 be
       -0.00028760676 0.0026330578 0.026784819 -0.28777444
0003f0 ab db 35 be 71 4b cb b9 fe 82 0b 3c 50 93 8b bd
       -0.17759578 -0.00038775385 0.008515118 -0.06815207

model.1.running_mean f4 [512]
000000 89 3b dc bb 06 2b d3 bb b8 e7 a1 3c 74 e4 b8 bc
       -0.0067209643 -0.006444338 0.019763812 -0.022569872
000010 40 8e 79 b7 c6 b1 3f 3c 56 d3 30 ba 7f c9 6e bc
       -1.4874677e-05 0.011700099 -0.00067453587 -0.014574408
000020 42 b6 1b bb 29 80 14 3d 1f 61 20 bd 39 1b 0a bd
       -0.0023759757 0.036255036 -0.039155122 -0.033717368
000030 8a 59 9c bc 1b 07 03 3c bc 86 07 bc fc e3 02 bb
       -0.019085664 0.0079973 -0.008271869 -0.0019972315
000040 69 c9 7a bc c7 69 92 b9 9f 05 f5 3b cb 85 9c 38
       -0.015306809 -0.000279261 0.0074774767 7.4635806e-05
000050 82 25 4e bc 25 c3 6d 3b 86 8f 92 bc 7d 03 a6 3b
       -0.012582185 0.0036279645 -0.017890703 0.005066334
000060 80 b6 0d bd 76 c3 25 bb b5 7c 5f bc e9 1f 97 bb
       -0.034597874 -0.0025293506 -0.013640572 -0.0046119583
000070 16 57 6e 3a 64 90 1e ba f0 a2 82 b9 e9 da 9a 3c
       0.00090919563 -0.00060487376 -0.0002491693 0.018903213
000080 65 6d e0 3a d8 21 c8 3a 3e 59 34 bb 00 99 f2 3a
       0.0017122446 0.0015268875 -0.0027519013 0.0018508732
000090 57 8c ae bb 94 b9 53 bc 9f ae 65 bb 8b 33 72 3a
       -0.0053267884 -0.012922663 -0.003504671 0.0009239248
0000a0 61 f3 56 bc b2 a8 89 b7 cc 58 01 39 a2 09 68 3c
       -0.0131195495 -1.6410228e-05 0.00012335478 0.014162453
0000b0 dc ef 48 39 d5 f2 fb ba 46 ed e4 bb 07 26 e5 3c
       0.00019162841 -0.001922215 -0.006986293 0.027972234
0000c0 cc 3f bb 3c ec 72 5c bb 85 eb bf b8 6a 17 2c 3c
       0.02285757 -0.0033637835 -9.151459e-05 0.010503629
0000d0 cb c1 38 3b 17 ca be 3c 00 f6 dd ba 1c 54 c5 3b
       0.0028191681 0.023289723 -0.0016934276 0.0060219895
0000e0 f9 f3 b7 3b ab 1b bb ba fb 65 d1 3c c4 4a 4f 3b
       0.0056138006 -0.0014275213 0.025561323 0.0031630257
0000f0 f0 22 22 3c 9a 66 69 3b 6c 78 e7 3b 19 75 16 3c
       0.009896025 0.0035614134 0.007063916 0.009183192
000100 30 fa be 3b 84 95 25 3a 47 b0 f7 39 64 33 cc 3d
       0.0058281645 0.000631653 0.00047242848 0.099707395
000110 a8 7f c5 b6 6d 80 0a 3b 33 3c 16 bd d6 42 f6 38
       -5.8859187e-06 0.0021133677 -0.036678504 0.00011742643
000120 60 59 a7 3c 61 43 c7 3b c1 0c 97 3b 70 8d fb 3b
       0.02042836 0.0060810302 0.0046096747 0.007676773
000130 02 70 7d 36 67 25 c1 38 5b 6a fe bb 64 56 fb 3a
       3.7765135e-06 9.209924e-05 -0.0077641434 0.0019175527
000140 dd 5c ec 3b a8 8e 88 bb 9e a3 6f bc 2e 3a d4 b9
       0.0072132186 -0.0041673966 -0.014626412 -0.00040479138
000150 6c b0 b4 ba d7 64 80 3b 63 70 5b 3b dc 1c ed 3c
       -0.0013785488 0.003918271 0.0033483736 0.028944425
000160 92 f2 eb 3a af ce 63 3c 71 94 cf 3b 7a 26 62 bd
       0.0018001369 0.013904258 0.0063348343 -0.055212475
000170 3d ef 23 3b 16 64 f9 3c 14 6b 42 b8 41 02 83 bc
       0.0025014423 0.030443233 -4.635293e-05 -0.015992286
000180 cd b8 29 bd c5 2d 7f bb 93 26 4a bb 3d 09 c0 b8
       -0.041436005 -0.0038937193 -0.0030845746 -9.156994e-05
000190 f1 ad 19 3c fa e7 09 bd ae 5a ba 35 a8 60 86 3b
       0.00937985 -0.033668496 1.3884471e-06 0.004100878
0001a0 92 ad 56 bc 94 a6 15 39 c3 55 fd 3c a4 fc 09 bc
       -0.013102906 0.00014271803 0.030924683 -0.008422051
0001b0 33 9b df bc 7e 22 ef b9 3f 4e 2b ba 30 08 40 bc
       -0.027295684 -0.0004561133 -0.0006534792 -0.011720702
0001c0 99 d8 cd 3b 46 92 2a 3a f2 86 e6 3b ac e5 48 bc
       0.006281924 0.0006506782 0.0070351297 -0.012261789
0001d0 58 e5 8a 3c 50 e6 9b 3b 45 9e 45 3b 94 18 6d 3a
       0.016955063 0.00475768 0.003015415 0.0009044495
0001e0 2e 58 f7 b9 e6 7d 6a 3b 0a ad 59 37 7a 51 4c 3d
       -0.0004717721 0.0035780608 1.2974497e-05 0.04988239
0001f0 48 fc a8 b6 cc a4 d0 3c 78 d7 4e bd 21 79 13 3c
       -5.0361596e-06 0.025469206 -0.050498456 0.009001047
000200 ed 02 52 3d 1d 3f c6 3c f4 29 02 3c 4c 31 b5 3c
       0.05127232 0.024200017 0.007944573 0.022118233
000210 66 f5 73 bb dc 49 a5 bb d3 2d 79 bb 2f 1c 9f bc
       -0.0037225126 -0.005044205 -0.0038021698 -0.019422619
000220 4d e6 bc bc 9c b1 d9 b4 95 43 70 3b d7 5a 3d bb
       -0.023059035 -4.0548628e-07 0.0036661376 -0.0028893256
000230 8e d8 b9 ba 6a a8 8a b9 80 5c 8c b9 6c db 40 bd
       -0.0014178918 -0.0002644689 -0.000267718 -0.047084257
000240 dc 80 93 b8 2e 4b 77 ba ba fb 8a bb 57 02 0a 3b
       -7.033508e-05 -0.0009433505 -0.004241434 0.0021058524
000250 41 97 73 bc c6 b4 da bb 8d 3d 0a bb 1e f8 8e bb
       -0.014867605 -0.006674382 -0.0021093816 -0.004363074
000260 62 e6 51 39 75 f0 45 3b 41 fa 3c bd 4f de 8f bc
       0.00020017617 0.0030203138 -0.0461371 -0.01756206
000270 32 d1 8a 37 60 a8 4f bc 4e 6f 0b 3c b0 9e 1e bc
       1.6548296e-05 -0.012674421 0.008510424 -0.009681389
000280 81 40 f3 bc cd 6d b4 bc aa 27 e9 bc b5 8a 17 bc
       -0.029693844 -0.022025013 -0.028461296 -0.009249379
000290 a9 45 63 bb 34 31 d8 bc 13 83 f0 3c 98 89 76 3a
       -0.0034678972 -0.02639065 0.029359376 0.00094046583
0002a0 c9 df d1 bb 05 71 3d 3a ac b2 04 3b ff cd bc bb
       -0.006404851 0.0007226619 0.0020248098 -0.0057618613
0002b0 08 77 04 3c ed b8 2b bb 8a 95 91 3b 69 5d 67 bb
       0.00808502 -0.0026202754 0.0044428753 -0.003530348
0002c0 3f fc 66 ba 69 1b d4 35 d0 00 3a bc 03 7d b1 3b
       -0.00088113913 1.5803208e-06 -0.011352733 0.005416514
0002d0 1b 69 a3 b6 9d 89 02 3c 0c f7 aa 34 36 3a 52 3a
       -4.8700144e-06 0.00796738 3.1844718e-07 0.00080195384
0002e0 0c f1 c1 ba 49 db 1c 39 a4 d6 4f 3c 5b 61 76 bc
       -0.0014796569 0.0001495901 0.012685452 -0.01503786
0002f0 e9 eb 9c 3c 29 6f 0c 3b 26 c9 3b 3c 23 1e ac ba
       0.01915546 0.0021428561 0.011461532 -0.001313154
000300 d3 c1 1f bc 85 90 ae bb 0a 07 6d ba c4 56 84 3a
       -0.009750801 -0.0053272867 -0.00090418814 0.0010096659
000310 51 8f 00 3c 57 91 8c bb 15 39 66 bc 30 1d 80 bb
       0.007846669 -0.004289787 -0.014051695 -0.0039097294
000320 b4 7d 8c bc 0e 87 60 bb c0 47 d7 3b 0b c6 89 3b
       -0.017149784 -0.0034260186 0.0065698326 0.0042045168
000330 8e 1f 81 3a b9 c1 89 b9 49 ff 59 3c 82 1b 4b bc
       0.0009851323 -0.0002627501 0.013305494 -0.012396695
000340 96 f1 88 3c 7e b4 21 bb b0 27 2a bd 75 1c be 3c
       0.01671676 -0.0024674232 -0.041541755 0.023206929
000350 27 5c c2 b7 68 62 07 3d 0d 83 c1 3c 0a 50 a8 3c
       -2.3169514e-05 0.033052832 0.02362206 0.020545978
000360 f3 81 99 b7 76 2c fa 3a f9 89 a4 30 1b 39 f6 bb
       -1.8299534e-05 0.0019086737 1.1971785e-09 -0.0075141317
000370 d4 7c 38 35 97 e9 90 b3 30 05 86 35 94 71 b9 bb
       6.872699e-07 -6.748012e-08 9.985288e-07 -0.0056592915
000380 ec 7a b3 3c 37 8b 63 3c d7 32 f8 bb 95 75 28 3d
       0.0219092 0.013888172 -0.00757442 0.04112776
000390 ec b1 fa 37 c9 56 b3 39 93 b8 a7 bb 4f 7c 7b bb
       2.9885174e-05 0.000342062 -0.0051184385 -0.0038373654
0003a0 12 f5 80 bc 76 da 75 bc 4d b8 05 bb ee 1e e0 39
       -0.015741859 -0.015005698 -0.0020404041 0.00042747654
0003b0 d7 1f f3 b6 a9 af fb 39 62 8d fd 3b 9b c7 92 bc
       -7.245671e-06 0.00048005328 0.0077378014 -0.017917445
0003c0 48 58 e5 bb 98 e3 41 3c d0 f8 a7 3a 60 a8 6e bc
       -0.0069990493 0.011834048 0.0012815241 -0.014566511
0003d0 bd fc 38 3d 5a b2 f2 39 1e 24 78 3c 79 e1 04 3a
       0.045162905 0.0004629072 0.01514533 0.00050689984
0003e0 93 61 bf b7 b6 51 e1 3c 1e 6d a4 bc ae d0 c6 3c
       -2.281441e-05 0.027504783 -0.020071562 0.024269428
0003f0 1d 20 92 bc ff 2a eb b9 0f dc bc 3b 74 87 63 bc
       -0.017837578 -0.00044854727 0.0057635377 -0.013887275

model.1.running_var f4 [512]
000000 04 95 0d 3f 6d 7c 68 3b 5c 0c bc 3e 61 25 ed 3e
       0.55305505 0.0035474554 0.3672818 0.4631758
000010 86 b0 7e 37 86 b2 5b 3e 1f a4 fa 3e cd 62 88 3c
       1.518068e-05 0.2145482 0.4895334 0.016648674
000020 68 7b 7a 3a 5b cf b8 3d 65 64 70 3e a4 a6 3d 3d
       0.0009555132 0.09023925 0.23475797 0.0463015
000030 0c af b3 3d 32 f4 d1 3b 06 a1 46 3c 06 df 70 3b
       0.08773622 0.006407284 0.012123352 0.0036754026
000040 e8 08 da 3c d4 f1 c8 3c c7 1d 0f 3f 73 29 37 37
       0.026615575 0.024529375 0.5590481 1.0917301e-05
000050 28 84 ad 3e 88 58 dd 3d 0f 0d 90 3c f3 ea 3a 3e
       0.3388989 0.108079016 0.017584352 0.18253689
000060 6f 75 56 3c 42 f9 3f 3b ff c9 d5 3e 2b d0 cc 3b
       0.013089522 0.0029292856 0.41755673 0.0062504015
000070 b0 7c ca 3b 0a f9 f3 3b 59 eb 78 38 cf 5e 2a 3d
       0.0061794147 0.0074454593 5.9346992e-05 0.041594323
000080 c1 9f 84 3a af 63 9e 3e 3b bd 0d 3c fb b4 5a 3a
       0.0010118411 0.30935428 0.008651073 0.0008343008
000090 de cd 82 3d 8d 8c c4 3e 0a 0f b3 3c 6e e7 33 3c
       0.06386922 0.38388482 0.021857757 0.01098047
0000a0 fd 3b 03 3f 00 44 1e 33 58 c3 77 38 38 5b 56 3c
       0.5126341 3.6849087e-08 5.9071317e-05 0.013083272
0000b0 80 16 45 36 c0 97 6f 3b 66 54 26 3c b7 85 50 3e
       2.9368384e-06 0.0036558956 0.010151958 0.20363508
0000c0 17 ff 08 3c 69 f2 a9 3c e3 b6 05 3b 48 58 5d 3d
       0.008361599 0.020745473 0.0020403198 0.05403927
0000d0 b6 b8 d6 3b 50 16 f3 3d 69 51 13 3b 71 02 b5 3a
       0.006552781 0.1186949 0.0022478944 0.0013809932
0000e0 98 94 7d 3c f8 0d d5 3a 52 39 33 3e 26 db 21 3b
       0.015477322 0.0016254773 0.17502335 0.0024697273
0000f0 b4 6f e3 3e fb 24 cd 3b d7 0d b8 3c d3 45 25 3b
       0.4442116 0.006260512 0.022467537 0.002521862
000100 11 0d 5c 3d b6 af fd 3b 4d d9 cd 3b d4 a6 a2 3d
       0.0537234 0.0077418936 0.006282008 0.07941976
000110 0e ec e2 30 01 8b d3 3c c3 a2 b9 3e 86 ca 40 37
       1.6510755e-09 0.025823118 0.3625699 1.14912455e-05
000120 c7 c7 c4 3d 5b ff d3 3a f9 e2 f4 3b c6 8e f8 3c
       0.09608417 0.0016174124 0.0074733463 0.030341517
000130 eb 75 0f 31 78 2b 20 3a 49 c0 97 3c 5b 96 be 3e
       2.0876267e-09 0.0006109993 0.018524306 0.37224087
000140 16 e5 75 3b 59 f2 8e 3b 80 89 fd 3c 5e 04 b7 38
       0.003752058 0.004362386 0.030949354 8.7269334e-05
000150 26 98 6d 3b 31 38 ff 3b 72 5f e1 3c 92 86 10 3f
       0.0036254018 0.007788681 0.027511332 0.5645534
000160 b1 b1 cc 3a b4 82 ea 3e 67 4c d5 3e 7d 5c 9e 3d
       0.0015616921 0.45802844 0.41659853 0.077324845
000170 a7 39 ac 3b 5a e6 c1 3c 69 20 8e 36 5d 05 4b 3c
       0.005255896 0.02366941 4.235703e-06 0.012391415
000180 29 0a d8 3c c9 82 f4 3b 9f 74 80 3c eb 11 c3 3b
       0.026372032 0.00746188 0.01568061 0.0059530637
000190 ab 91 52 3c 2c 46 09 3f 3d 01 21 31 2c 74 c7 3b
       0.012852113 0.536227 2.3429287e-09 0.006086847
0001a0 91 e2 81 3c 39 02 d0 39 9d 10 76 3d 58 aa 9c 3c
       0.015855106 0.00039674508 0.060074437 0.019124195
0001b0 18 99 c5 3e 7e fd 3d 38 14 fa 16 39 e5 2b 0d 3d
       0.38593364 4.5297194e-05 0.00014398276 0.03446569
0001c0 20 49 63 3b bf c2 83 3c e9 11 14 3d 44 35 64 3b
       0.0034681037 0.016084073 0.036149893 0.0034821788
0001d0 18 ce 7f 3e 2b 4a 86 3b f8 1f e6 3a 96 ba c2 3a
       0.24980962 0.004098197 0.0017557135 0.0014856632
0001e0 b3 01 af 3a d5 db b0 3b 83 dc 00 36 bb b3 9d 3d
       0.0013351947 0.0053973 1.920184e-06 0.077002965
0001f0 91 57 8b 32 e1 88 76 3d 16 cd ab 3e 3f 71 ff 3b
       1.622155e-08 0.06018913 0.33554906 0.0077954824
000200 17 f7 b6 3e d9 a6 6a 3d 97 bf b0 3b 44 97 c2 3d
       0.3573539 0.057288025 0.005393933 0.09501508
000210 ec ab 87 3b e5 63 97 3c 9a 97 10 3c 97 57 b2 3e
       0.0041403677 0.01848025 0.008825207 0.3483245
000220 16 c8 a5 3e 53 d8 50 2d ac ff bc 39 78 9f 30 3c
       0.32379216 1.1871465e-11 0.00036048645 0.010780208
000230 6e 41 a9 3a d2 33 0a 3c e2 5d b5 3e 28 78 1c 3d
       0.0012913176 0.0084352065 0.3542319 0.038200527
000240 e8 fe 1d 36 3a 30 d7 38 ae a2 dd 3e 6a ef be 3b
       2.3543198e-06 0.00010260982 0.43288177 0.00582688
000250 3d e5 bc 3c aa 0c b6 3b c0 bd cc 3b ef 37 17 3c
       0.023058528 0.005555709 0.006248206 0.009229644
000260 7d bf de 35 c3 c5 96 3b 5b 8c ed 3e 5e 5d ae 3e
       1.6596019e-06 0.0046012118 0.46396145 0.3405561
000270 ec 3b 3a 35 19 d8 59 3e c7 73 b0 3e 3b 13 c3 3e
       6.93776e-07 0.21273841 0.3446333 0.3810061
000280 b0 0f 56 3c 51 31 ae 3e d6 76 f4 3e 17 73 a8 3c
       0.013065264 0.34022 0.47746915 0.020562692
000290 a8 78 31 3c ab 6f ef 3e a3 fb 98 3e bc fe 91 39
       0.010831989 0.46764883 0.29879484 0.00027846347
0002a0 4f d6 03 3f 93 12 64 39 25 fa 1b 3c 0b e3 b5 3a
       0.51498884 0.00021750694 0.009520088 0.0013876868
0002b0 cf 80 41 3c d3 6a 3f 3b 4c f0 e1 3b 66 ed 55 3b
       0.0118104955 0.002920796 0.0068951007 0.0032642721
0002c0 56 b1 20 3e 52 0f 95 35 a6 79 a4 3c f5 43 de 3c
       0.15692648 1.1105824e-06 0.020077538 0.027132014
0002d0 b8 44 b9 32 a5 84 66 3c a5 32 56 2d 73 39 8a 3b
       2.1568084e-08 0.014069711 1.2175737e-11 0.0042182743
0002e0 78 9c bb 39 e9 9d 06 39 37 b7 c0 3c cb 5f 6a 3d
       0.00035783998 0.00012838062 0.023524864 0.05722026
0002f0 68 92 e0 3e a4 d6 97 3b 97 f4 7a 3c a8 38 81 3e
       0.438617 0.0046337415 0.015317104 0.25238538
000300 d4 de 2b 3c ce 53 96 3e 30 23 1f 3b 96 b6 6d 3c
       0.010490138 0.29360813 0.0024282448 0.014508864
000310 34 d5 5f 3b 6a c6 1f 3b 92 bb a4 3e d7 d3 d8 3b
       0.0034154179 0.0024379739 0.32174355 0.00661705
000320 48 89 09 3d ac 97 c7 3a 80 e6 c5 3c 67 a3 39 3c
       0.033578187 0.0015227697 0.024157763 0.011330462
000330 f4 41 23 3c 01 53 70 36 7a 89 e3 3c b7 cd 29 3d
       0.009964455 3.5811101e-06 0.027775515 0.04145595
000340 c6 c3 b6 3c 78 89 56 3b ad be ea 3e 17 a6 eb 3c
       0.022310149 0.0032735746 0.458486 0.028765721
000350 75 43 13 3b a5 9f c0 3e 3b aa 7e 3e 0d 2c b3 3c
       0.0022470627 0.376218 0.24869625 0.021871591
000360 7a b4 13 36 c1 ac 46 3c 18 30 63 2c 56 69 e9 3b
       2.2009758e-06 0.012126149 3.2285338e-12 0.0071231527
000370 f1 6b 95 2f d2 2c 1c 2e 46 7f 64 30 03 7d 7a 3b
       2.717964e-10 3.5510102e-11 8.3126783e-10 0.0038221485
000380 2c cd 29 3d 3c b2 fe 3c df 2c 89 3e 16 7d 8e 3d
       0.041455433 0.031090848 0.26792046 0.06957452
000390 f0 e8 f5 38 0c a1 be 3e 9d a4 b0 3c 80 c1 e3 3b
       0.000117258984 0.37232244 0.021562869 0.006950557
0003a0 f4 28 a6 3c 5a cb ac 3e 93 37 42 3c 9c 0a 13 39
       0.0202832 0.33748895 0.01185407 0.00014022965
0003b0 37 9a cb 3e 87 b2 da 39 f4 08 e5 3c 1e f6 df 3c
       0.39766094 0.00041713213 0.02795837 0.027339038
0003c0 df 39 0c 3b d4 15 33 3c 45 59 0d 38 85 f8 d4 3e
       0.0021396799 0.010930497 3.370016e-05 0.41595855
0003d0 68 f7 c3 3d 5f dc ae 39 a2 cf 56 3d a9 c3 5e 38
       0.09568673 0.00033352055 0.052444108 5.3111147e-05
0003e0 ad cb 16 34 b8 f0 a2 3c 29 50 ed 3c 10 78 07 3f
       1.4043935e-07 0.019890174 0.028968887 0.52917576
0003f0 1d ae 0c 3f fb 03 bc 38 b4 1c c8 3b 78 60 95 3e
       0.54953176 8.96528e-05 0.0061069373 0.29175162
