ml_service/best_mlp_model_2output_2_8_2025.pt (torch, 872961 bytes, 20 tensors)

model.0.weight f4 [512, 74]
000000 08 a7 9b bd f2 98 b8 3d 14 af 81 bb f5 9b 01 bd
       -0.07600218 0.09013547 -0.0039576385 -0.031642873
000010 40 4b 26 bd 56 0f c7 3c 71 de b8 3c c2 4b c4 3d
       -0.040599108 0.024299305 0.022567006 0.09584762
000020 43 a8 95 3d c1 82 2d bd 4d 1f be bc d0 7b 01 bd
       0.07307484 -0.042361025 -0.023208285 -0.031612217
000030 ff 49 29 3c a0 6a 01 3c 70 45 45 3d 59 31 fc 3c
       0.010332583 0.007898957 0.048161924 0.03078525
000040 91 01 5d bd 86 cc be bd e0 2f 1c 3c c1 ea 46 bd
       -0.053956572 -0.093163535 0.009532899 -0.048563723
000050 0b 20 f1 3c e1 4f cd ba 2b 2d 08 bd 55 cf 41 bd
       0.029434225 -0.0015664065 -0.0332462 -0.047316868
000060 28 bf 3d bd 42 99 a0 3c 79 60 86 bd 4f 56 a8 b9
       -0.04632488 0.019604329 -0.065613694 -0.00032107762
000070 8a e2 cb 3c ea c8 89 bc 4a bc e5 3d ae 2c b7 3d
       0.024888296 -0.016819436 0.11217554 0.08944069
000080 34 e5 b8 3c e7 b1 dc 3d 96 94 ac 3c 36 d9 a9 bc
       0.02257023 0.1077612 0.021066945 -0.020733457
000090 9a af b4 bd 61 fe 53 bd 90 df 9a bc c0 bd 2a bb
       -0.08822556 -0.051756267 -0.018905431 -0.0026053041
0000a0 98 dd 3c 3b 12 ca 52 3d 56 0d 69 3d 1d f4 f8 3d
       0.0028818604 0.05146224 0.056897484 0.12155936
0000b0 fa 52 fc 3c 9b 1f 15 bb f0 5e 5c 3d d4 b3 13 bd
       0.030801285 -0.0022754434 0.053801477 -0.03606017
0000c0 6d d3 7d 3c ac 85 34 3d 6d 25 32 bd 36 e7 39 3d
       0.015492302 0.044072792 -0.043492723 0.045386516
0000d0 59 80 00 bd bf 5e 66 3b 67 95 82 bd 8d 3e 33 bd
       -0.031372402 0.0035151688 -0.063761525 -0.043760825
0000e0 a7 ef 15 bd 5d a8 a9 bc 75 9a 20 bb a1 5d 00 bd
       -0.036605503 -0.020710165 -0.0024506126 -0.03133929
0000f0 1d 87 9e 3d fa 03 68 3d a5 35 03 bd 63 37 c1 bc
       0.077406146 0.056644417 -0.03203358 -0.02358598
000100 81 49 69 bb ae 0b c6 be 59 64 cd bd cc df 91 3d
       -0.003559679 -0.38680786 -0.100289054 0.07122764
000110 77 04 a0 ba c5 d3 18 be 5f bd 1f bd 28 fe 3e 3e
       -0.0012208362 -0.14924534 -0.038998958 0.1865164
000120 b7 16 52 be 5f 4b 5a 3e 9e 65 cf bd e3 41 21 3c
       -0.20516478 0.21317814 -0.10126804 0.009842369
000130 fe 0a fd 3d f1 cb e9 3b d4 a5 4c 3c fa 91 0a bd
       0.12355612 0.0071349074 0.012490708 -0.03383062
000140 02 a1 18 3b 0f f1 81 3d 9e ab ad bd a8 f6 2e 3d
       0.0023289328 0.063448064 -0.08479999 0.0427157
000150 44 cc bf bc c2 1f ca 3c d3 65 91 bb 1a 7d 96 bd
       -0.023412831 0.024673346 -0.004437187 -0.0734808
000160 46 d1 a3 3d 40 8f 87 bd 6a 93 66 bd bd a5 09 be
       0.079989 -0.0661912 -0.05629293 -0.1344213
000170 32 30 92 3d e3 f4 25 3c 63 73 c3 3c c8 a0 f9 bd
       0.07138099 0.010129186 0.023858732 -0.1218887
000180 40 e4 01 bc 5c bb bc bc 36 af 85 3d 2f d2 d3 3d
       -0.007927954 -0.023038559 0.065275595 0.10342824
000190 83 0b 6b 3d 7c da 08 3d 4c 29 04 bd 3b 63 9a bd
       0.057384025 0.033411488 -0.032265946 -0.07538458
0001a0 c6 87 4b b9 e3 7a 4c 3d 9c c4 a0 bc 61 f2 fa 3d
       -0.00019410168 0.04992188 -0.019625 0.12253261
0001b0 da 01 fb 3c 90 c3 c0 3d bf d4 35 3d 73 25 36 bc
       0.030640531 0.094123006 0.044392344 -0.011117327
0001c0 97 2a 53 bd ad f3 a2 bd 21 e4 99 3d 51 ab 72 bc
       -0.05155429 -0.07956634 0.07514215 -0.014811353
0001d0 24 03 83 bc 52 18 43 3d 02 d8 28 3e 4d 66 2f bc
       -0.015992709 0.047630616 0.1648865 -0.010705543
0001e0 ec 02 10 bd 6f 2f ad bd 19 e3 cb 3d b6 f8 7f 3b
       -0.035159037 -0.08456313 0.09955425 0.0039058155
0001f0 d5 62 f1 bd 29 0f 28 bd eb 1a 04 3d f8 21 4e bd
       -0.11786429 -0.041030083 0.032252233 -0.050325364
000200 21 04 c7 3d 94 8d 6c 3b 92 d5 52 bc 1c b3 25 bd
       0.097175844 0.003609513 -0.012868302 -0.040454015
000210 1b aa 13 bd f4 d5 04 3e 2e b7 af bd 66 1a fb 3c
       -0.036050897 0.12972242 -0.08579861 0.030652236
000220 88 87 75 bd 54 7c 88 bc a6 af 89 bc 0f f6 04 bf
       -0.059943706 -0.016660847 -0.016807389 -0.51937956
000230 5c 4e 39 bd 5a a4 9a 3d 6c 6a e8 3d 9e 6b bf bd
       -0.045240745 0.07550879 0.11348423 -0.09346698
000240 69 6c ea 3d a6 1b c9 3d 26 f4 f4 bd ed d0 72 3e
       0.11446459 0.09819727 -0.1196063 0.23712511
000250 9f cb 01 3e ff 42 2f 3d e2 69 e6 3c 83 40 7d bd
       0.12675332 0.0427885 0.02812666 -0.0618291
000260 93 34 e0 3d 0e ca 3f bc d9 81 e8 3d 8e b0 b5 3d
       0.10947528 -0.011705888 0.113528915 0.08871566
000270 12 1d 00 3d f4 14 5b bb 35 b0 11 3e 73 a3 83 bc
       0.031277724 -0.0033429237 0.14227374 -0.01606915
000280 e6 c9 ec 3c 64 96 50 3c bd 95 a5 3c 23 f0 03 be
       0.028904866 0.012731168 0.020213002 -0.12884574
000290 ca a6 41 bd 7c 11 f8 3c 30 9b 7a bc 56 43 59 bc
       -0.047278203 0.030281775 -0.015295789 -0.013260683
0002a0 c7 6e b7 bd 22 d8 03 bd 29 08 aa 3c 3a ef d1 bc
       -0.08956676 -0.032188542 0.020755844 -0.025626767
0002b0 15 a1 8a 3d 4c a1 96 3d 0e 42 14 3c c1 51 84 3d
       0.06769005 0.07354984 0.009048952 0.06460906
0002c0 40 48 2c bd d1 c9 12 bd a3 ff 8a 3d 23 cd 78 3d
       -0.04206109 -0.035837 0.0678704 0.06074251
0002d0 a2 c8 25 3d 57 79 02 bd a0 4c 9f 3d 8c 43 1d 3c
       0.04047454 -0.031854 0.07778287 0.009598624
0002e0 dc dd 83 bd 5f e3 bf bd 4c 53 84 bd 00 69 2d bd
       -0.06438801 -0.093695395 -0.064612 -0.042336464
0002f0 1d 78 88 3c a4 61 01 3e a5 83 0a bd 0f 60 b4 bc
       0.016658837 0.12634903 -0.033816952 -0.02201846
000300 82 fc 21 bd 5d 1d 26 bd 23 9f 15 3c e5 80 00 bd
       -0.03954745 -0.040555347 0.009132179 -0.031372923
000310 e5 a7 02 3d 91 65 28 bc c1 55 e8 3c 93 5c 99 bd
       0.031898398 -0.010278122 0.028361203 -0.0748836
000320 db 60 85 bd 4b 64 51 bd 5a 04 42 3c 43 60 74 ba
       -0.06512614 -0.051121037 0.011841858 -0.00093222054
000330 f3 51 3c 3c 6c 8a 85 bd cd cf 32 bd c7 c2 9c 3d
       0.011494148 -0.065205425 -0.043655206 0.07654338
000340 ab b7 04 bb a1 4e 72 bc 22 66 39 bc 88 6f d7 3d
       -0.0020251076 -0.014789254 -0.011315854 0.1051932
000350 68 f5 92 bd fd de 0c bf 3b 6c 61 bd 84 69 3e 3e
       -0.07175714 -0.55027753 -0.055034857 0.18594939
000360 c3 88 78 3d cc 55 d5 bd 82 94 14 be 86 10 a1 3d
       0.0606773 -0.10416755 -0.14509776 0.0786448
000370 eb de cf bd b8 21 3a 3e 86 80 46 bc 27 22 ab 3c
       -0.1014994 0.18176925 -0.012115603 0.020890309
000380 bb 19 1b 3c f8 da 69 3c ff 93 21 3d 34 03 81 bb
       0.009466584 0.014273398 0.03944778 -0.0039371494
000390 b6 e2 89 bc d7 9f 05 3d 06 5b 1e bd 1e cd 98 bc
       -0.016831737 0.03262314 -0.038661025 -0.018652495
0003a0 e7 4e 8a ba 59 8f 08 bd 24 f1 8d bc 31 66 d7 bc
       -0.0010552079 -0.033339832 -0.017326899 -0.026293846
0003b0 b3 75 e6 3c a0 7a f2 bc ca 0a 95 3c 6c 52 f7 bc
       0.028132295 -0.029599488 0.018193621 -0.030190669
0003c0 61 62 ab 3b 3e 83 3d bc 82 32 63 bb dc b6 f1 bc
       0.0052302335 -0.011566935 -0.0034667556 -0.02950614
0003d0 e3 85 b8 bc 6d 42 bb bc 7b 8e 33 39 76 46 36 bc
       -0.02252478 -0.022858823 0.00017123848 -0.011125198
0003e0 58 80 bf 3c bf 20 ec 3c 8b f8 57 3c b2 6a 77 bc
       0.023376629 0.028824208 0.013181816 -0.015101122
0003f0 75 57 f5 3c bb 1f 41 3c 51 ff 45 3c 0b d7 d9 bb
       0.02994893 0.01178735 0.012084798 -0.0066479496

model.0.bias f4 [512]
000000 55 79 8c b7 3a 90 1d b6 5b 9a c5 35 23 f0 c7 35
       -1.67458e-05 -2.3478774e-06 1.4722567e-06 1.4896544e-06
000010 88 cd 26 37 63 c9 6e 37 19 a8 ea b6 47 4a 41 b8
       9.942225e-06 1.42327945e-05 -6.9933126e-06 -4.6083962e-05
000020 b3 71 b4 b6 b0 dd 8b 36 6b 81 67 b7 5e a9 71 b6
       -5.3776544e-06 4.1683306e-06 -1.3798805e-05 -3.6010383e-06
000030 2e a2 c1 b3 e5 a9 b4 37 2e 25 00 b7 7f 1a c2 37
       -9.016763e-08 2.1536785e-05 -7.638051e-06 2.313894e-05
000040 ba 61 59 36 41 69 63 34 16 9c 70 34 23 e4 63 38
       3.2392404e-06 2.1179314e-07 2.2408526e-07 5.4333486e-05
000050 97 12 8b b5 0b 5f 37 b7 c8 e5 07 b7 ae f6 7a b7
       -1.0361717e-06 -1.0929779e-05 -8.100127e-06 -1.4958596e-05
000060 e1 bf f5 36 12 8d 99 b7 d8 6a a9 38 52 c9 c5 36
       7.3239066e-06 -1.8304712e-05 8.078449e-05 5.8944943e-06
000070 3a e1 a1 37 45 f7 8f b7 c0 5f db 36 55 31 1a b7
       1.9297575e-05 -1.7162072e-05 6.5378554e-06 -9.190601e-06
000080 56 75 b4 b6 52 c3 ef b6 b8 13 ce 37 45 e9 a4 b7
       -5.3780777e-06 -7.1454933e-06 2.4566296e-05 -1.9658948e-05
000090 6e 72 ec b6 49 a8 03 38 f2 00 ad b7 9e 36 f6 b5
       -7.0466695e-06 3.138956e-05 -2.0623647e-05 -1.8344324e-06
0000a0 ee 44 3f b7 dc 3f 80 b6 1e c0 26 b7 94 a7 b4 b6
       -1.1400536e-05 -3.8221315e-06 -9.939102e-06 -5.3839267e-06
0000b0 14 de ef 36 99 93 85 b6 c0 d8 3d 36 5e 5f 1f b7
       7.1486083e-06 -3.9808915e-06 2.828936e-06 -9.499343e-06
0000c0 b7 8e 88 b7 74 e8 74 b7 19 ed 38 36 ca 22 97 b6
       -1.627892e-05 -1.45976555e-05 2.7556146e-06 -4.5042007e-06
0000d0 6d e5 d3 36 d4 aa 5f b7 66 1c 6c b6 45 a4 a2 b7
       6.3149987e-06 -1.333161e-05 -3.518327e-06 -1.9388399e-05
0000e0 24 f4 d7 36 63 b2 78 36 fe fe 83 33 c7 c2 a8 36
       6.435921e-06 3.7058714e-06 6.146546e-08 5.0294652e-06
0000f0 64 79 d4 b3 e8 a7 22 38 2d 9a 40 b6 c6 69 56 b7
       -9.8941e-08 3.8780185e-05 -2.8699972e-06 -1.2780021e-05
000100 e4 df 6b 35 3d 68 12 38 a3 fe 8e b7 3d 0c 87 b5
       8.7870126e-07 3.4906192e-05 -1.7046294e-05 -1.0061846e-06
000110 ca e0 28 b7 7e 9b cb 36 17 08 30 b8 fd e2 90 b7
       -1.0065918e-05 6.067973e-06 -4.1969204e-05 -1.7271837e-05
000120 be 7f 30 b2 2f 74 03 b7 cd ce ca 37 fe 0a 16 37
       -1.02735935e-08 -7.83526e-06 2.4176576e-05 8.943256e-06
000130 bc 9b 9d 35 75 11 18 36 db a1 eb b7 ba ab 6c 37
       1.1742736e-06 2.2659926e-06 -2.8089553e-05 1.4106679e-05
000140 ff 8b cc 36 af d0 aa 36 57 2e aa b7 17 65 f0 b4
       6.0959715e-06 5.090689e-06 -2.0287158e-05 -4.4777036e-07
000150 51 82 e9 36 b9 35 11 b8 87 34 30 b8 04 ea b3 35
       6.959112e-06 -3.4620727e-05 -4.201059e-05 1.3404647e-06
000160 ad ec 35 37 14 e3 71 36 14 10 33 36 0a 02 fe 37
       1.0843546e-05 3.6043975e-06 2.6682437e-06 3.0280109e-05
000170 85 4d 10 b7 48 8c 18 36 52 be 15 38 36 7d b5 37
       -8.601118e-06 2.273142e-06 3.5701618e-05 2.1635187e-05
000180 59 77 fe b7 54 e8 e7 b7 72 0a ca 37 fd ba c0 35
       -3.0334735e-05 -2.7645532e-05 2.408514e-05 1.4359535e-06
000190 0f b4 d3 37 7d 21 94 37 02 3a 48 36 23 af 44 37
       2.5237006e-05 1.7658569e-05 2.9836087e-06 1.1723288e-05
0001a0 4d 87 0b 36 d2 0b 0c b4 de a2 40 33 09 53 b7 b6
       2.079137e-06 -1.3042816e-07 4.485161e-08 -5.4634916e-06
0001b0 44 eb 0f b4 85 d9 4e 37 10 b6 41 35 39 4e 47 b8
       -1.3403502e-07 1.2329202e-05 7.216304e-07 -4.7518148e-05
0001c0 49 80 a3 b5 dc e1 b4 b7 ea 5d 1d 36 f0 c0 e0 b3
       -1.2181782e-06 -2.1562846e-05 2.3449488e-06 -1.0465908e-07
0001d0 2b bb fc 36 bf b0 7c 36 82 7e ef b7 e2 36 b8 b7
       7.5319745e-06 3.7653806e-06 -2.854993e-05 -2.1960066e-05
0001e0 fd d0 cb 36 92 fd af 35 cf 11 4e b7 04 65 f9 b7
       6.074201e-06 1.3112315e-06 -1.2282703e-05 -2.9730152e-05
0001f0 84 45 78 b5 7d e6 e1 b4 d6 6a 1b 37 c6 f3 91 b7
       -9.248836e-07 -4.2077218e-07 9.263595e-06 -1.7398863e-05
000200 d0 b7 9d 37 a8 73 dc 35 09 7e c7 36 2c 54 1e 37
       1.8801453e-05 1.6424938e-06 5.9453346e-06 9.437132e-06
000210 3a b1 8b 37 d8 6f d6 36 fe 33 b1 b7 db ce 8f 35
       1.6652619e-05 6.3907173e-06 -2.1124255e-05 1.0714533e-06
000220 b5 3b 5e 36 79 c8 c8 37 99 db 2b 36 98 47 c4 37
       3.3115332e-06 2.393521e-05 2.5608808e-06 2.339836e-05
000230 f2 02 ad 37 32 2a 82 b7 c0 17 c0 37 9e 5b a8 34
       2.0624579e-05 -1.5516856e-05 2.2899243e-05 3.13591e-07
000240 33 90 15 b5 99 3a 71 b4 fb 59 10 b7 2c 66 48 b7
       -5.5716663e-07 -2.2466192e-07 -8.604019e-06 -1.1944718e-05
000250 a7 5f 81 b8 34 0d cb 36 f0 39 06 37 79 6e 15 35
       -6.169016e-05 6.0514085e-06 8.000512e-06 5.5667584e-07
000260 12 aa 8c b7 9a dc a0 34 05 b6 0a b7 53 4b 2f 34
       -1.6768496e-05 2.996283e-07 -8.267821e-06 1.6325548e-07
000270 15 29 28 b5 29 ab 3a b6 a4 a5 d9 36 dd cd dc 37
       -6.264466e-07 -2.7815788e-06 6.486387e-06 2.6321906e-05
000280 12 a0 01 b8 34 14 af b4 7b 78 94 b5 46 12 34 b8
       -3.0905074e-05 -3.261099e-07 -1.1061924e-06 -4.2932363e-05
000290 4d d0 6a b5 a3 27 0c 37 64 2c 1a 38 a4 c1 13 38
       -8.747491e-07 8.353879e-06 3.6757803e-05 3.5227873e-05
0002a0 5e 0f 2a b5 88 de 7a b7 ae 5c f4 b6 b9 da fc b8
       -6.33523e-07 -1.4952973e-05 -7.282556e-06 -0.00012057037
0002b0 44 35 04 b7 45 f8 02 32 6f 63 32 b8 10 3f 6b 35
       -7.880215e-06 7.623446e-09 -4.2531112e-05 8.763609e-07
0002c0 69 32 11 37 04 7c c6 36 67 ed 20 37 30 89 f2 b6
       8.6544105e-06 5.915297e-06 9.592018e-06 -7.2281327e-06
0002d0 47 58 bc 36 f2 17 c0 33 dd f8 9b 36 85 b0 da 37
       5.6131134e-06 8.945052e-08 4.6483315e-06 2.6069823e-05
0002e0 a4 c7 2f b7 29 81 11 38 d8 32 38 36 14 f1 6c 37
       -1.0477295e-05 3.4690984e-05 2.7447732e-06 1.41228265e-05
0002f0 ff 6c 1e b6 cc 50 b6 34 5e 9b 50 35 98 e6 41 37
       -2.3607279e-06 3.395893e-07 7.771213e-07 1.1557386e-05
000300 c4 2a d3 36 d3 1b 04 37 57 16 09 35 35 77 55 b8
       6.2932686e-06 7.874291e-06 5.1068986e-07 -5.0894178e-05
000310 11 af bb b7 63 54 a1 37 8d 4c 0c 33 a4 b8 31 b7
       -2.2373659e-05 1.9231991e-05 3.2665913e-08 -1.0593012e-05
000320 5e 53 30 37 5a 30 65 b7 cb dd f4 b6 61 4b 81 b7
       1.0509828e-05 -1.3660721e-05 -7.2975868e-06 -1.54131e-05
000330 1e f1 29 37 e4 15 f6 37 5f 71 76 36 ff ce 52 37
       1.0129324e-05 2.9335679e-05 3.6722847e-06 1.256517e-05
000340 4f 2d ad 37 f0 c1 31 37 e2 78 9d b7 c4 67 84 b5
       2.0644306e-05 1.0595177e-05 -1.8772149e-05 -9.864966e-07
000350 5d 06 0c b7 04 08 8e b6 35 40 ec 35 39 10 48 36
       -8.346132e-06 -4.232863e-06 1.7602057e-06 2.9811765e-06
000360 cb 1d 23 37 b3 53 5c 37 be 9f ec 35 86 10 6b b7
       9.722494e-06 1.313251e-05 1.7629861e-06 -1.4010939e-05
000370 9a 34 c5 b6 b1 6c b1 b7 9e 45 d4 36 04 3c af 36
       -5.877181e-06 -2.1150658e-05 6.326197e-06 5.222393e-06
000380 b3 4e ae 35 5b d5 50 b7 4b 14 cb 35 47 eb 01 b7
       1.2986915e-06 -1.2447442e-05 1.5130585e-06 -7.743779e-06
000390 2f f9 51 b7 f8 e6 3c 36 01 30 b7 b7 e1 4b 1b 37
       -1.2515388e-05 2.8148625e-06 -2.1837654e-05 9.256387e-06
0003a0 36 62 ab b6 6a 5b 3a 36 aa a5 9c 33 90 b9 c7 36
       -5.1076304e-06 2.776937e-06 7.29445e-08 5.9522645e-06
0003b0 1a 5e 45 38 42 d3 83 b7 fd bf dc b5 21 67 66 b8
       4.70561e-05 -1.5714792e-05 -1.6447153e-06 -5.493232e-05
0003c0 1b 7c e2 b6 7f 46 08 36 5d 99 45 b5 e3 68 42 b7
       -6.7497726e-06 2.0306613e-06 -7.361139e-07 -1.1587722e-05
0003d0 d8 00 44 b6 c5 d1 9e 37 d1 ca ac b7 fc b7 85 34
       -2.9206767e-06 1.893275e-05 -2.0598442e-05 2.4907047e-07
0003e0 e1 0e 3f 36 89 01 a8 b7 46 5c 06 b7 13 7d a5 35
       2.8469879e-06 -2.0027876e-05 -8.0085065e-06 1.2329859e-06
0003f0 70 e2 8a b7 06 e3 b6 b7 7d 74 2a b7 f3 01 3c 34
       -1.6556325e-05 -2.1801807e-05 -1.0159912e-05 1.7509574e-07

model.1.weight f4 [512]
000000 dc 95 1c 3f 54 dd 72 3f 7a 9c 39 3f bb 95 9b 3e
       0.6116617 0.9486897 0.7250439 0.30387673
000010 2b 1c 48 3f 21 41 56 3f 90 32 43 3f 78 69 2d 3f
       0.7816798 0.8369313 0.7624903 0.6773906
000020 95 02 9b 3e 3b 84 40 3f 2e c0 03 3f f8 f9 07 3f
       0.30275407 0.7520177 0.5146512 0.531158
000030 59 02 aa 3b cb 3e 1e 3f f5 97 b1 3e 30 a1 3c 3f
       0.005188268 0.61814564 0.34686247 0.7368345
000040 b1 38 22 3f 5a c6 34 3f 38 0f 17 3d f8 71 54 3f
       0.63367754 0.7061516 0.036879748 0.829864
000050 fb 36 30 3f e7 95 3b 3f 8d 0e 05 3f f8 cb 27 3f
       0.68833894 0.7327561 0.5197533 0.65545607
000060 1c 14 55 3f 21 40 0a 3f fe 7e 80 3f 1a 57 39 3f
       0.8323381 0.540041 1.0038755 0.7239853
000070 00 d3 57 3f 03 b8 51 3f 69 14 04 3f d4 c9 6a 3f
       0.84306335 0.81921405 0.51593643 0.91714215
000080 a1 8e cb 3e c2 99 3c 3f f6 ae 24 3f ac b3 3c 3f
       0.39757255 0.73672116 0.6432947 0.7371166
000090 10 51 12 3f 28 98 08 3f 28 72 24 3f 1a 10 38 3f
       0.5715494 0.5335717 0.6423669 0.7189957
0000a0 99 73 3a 3f c7 9b 41 3f 0f e0 a7 3e 59 37 43 3f
       0.7283264 0.7562832 0.3278813 0.7625633
0000b0 88 47 4c 3f 35 95 ea 3e 64 fb a5 3e 63 c2 24 3f
       0.7979665 0.4581696 0.32418358 0.6435911
0000c0 7c 5c 3a 3f f7 e3 08 3f 0c 7d 2e 3f 0f f5 39 3f
       0.7279737 0.53472847 0.68159556 0.72639555
0000d0 27 ac 14 3f 6c 8d 1f 3f 2a d7 80 3e 92 71 39 3f
       0.58075184 0.6232517 0.25164157 0.7243892
0000e0 9d 1e df 3e 66 2c 11 3f 57 e7 18 3f 3e f9 2e 3f
       0.43578044 0.5670837 0.59727997 0.68349063
0000f0 a0 ac 13 bb 45 9d 13 3f be f5 41 3f b6 81 43 3f
       -0.0022533312 0.5766185 0.757656 0.763698
000100 66 30 e2 3d 78 b2 13 3f 65 3b 3c 3f f6 44 73 3e
       0.110443875 0.57694197 0.7352813 0.23756775
000110 4d 54 01 3f a2 75 2f 3f 1b fb 3f 3f 5b d0 73 3f
       0.5051926 0.6853887 0.7499253 0.952398
000120 e2 ac 27 3e cb f2 46 3f 27 53 39 3f a8 78 bc 3e
       0.16374543 0.7771422 0.72392505 0.36810803
000130 43 af 09 3f a9 33 ba 3e 9a 44 1b 3f 09 c7 44 3f
       0.53783053 0.3636754 0.6065155 0.76866204
000140 86 b2 b0 3e 67 7f 01 3f ff 58 35 3f 25 c3 85 3d
       0.34511203 0.50585026 0.7083892 0.065313615
000150 6f cc e3 3e 9c ee 36 3f 3a 6e 62 3f 19 a2 2e 3f
       0.44491908 0.7145784 0.8844944 0.6821609
000160 c1 33 29 3f 05 a4 3a 3f 2d 4c 19 3f cc a9 70 3f
       0.66094595 0.72906524 0.5988186 0.9400909
000170 04 fb 33 3f a8 81 f2 3e b5 44 4f 3f de 7d 16 3f
       0.70304894 0.47364545 0.80964214 0.5878581
000180 04 e0 63 3f c9 e6 37 3f e0 4e 31 3f d5 9e 0a 3f
       0.89013696 0.71836525 0.6926098 0.5414861
000190 9b 34 47 3f 59 b2 33 3f ca 59 24 3f b0 50 3a 3f
       0.77814645 0.7019401 0.6419951 0.7277937
0001a0 00 ec fd 3e c8 1a 27 3c 6d eb bb 3d 0c e9 da 3e
       0.49594116 0.010199256 0.09175763 0.42755926
0001b0 bb fa 18 3c 11 5f 23 3f 3b 72 e5 3e cc be 62 3f
       0.009337123 0.63816935 0.44813713 0.8857238
0001c0 3f 8d 26 3e 5f 4d 25 3f eb e9 59 3f 90 50 45 3e
       0.16264819 0.64571184 0.85122555 0.19269013
0001d0 f0 db 3a 3f a9 80 2a 3f 2c d7 41 3f ab 4a 47 3f
       0.7299185 0.6660257 0.7571895 0.7784831
0001e0 67 be 42 3e 9d d5 16 3f a6 5c 43 3f 99 af 13 3f
       0.19017945 0.589197 0.76313245 0.57689816
0001f0 0d e7 0e 3d 42 6b ea 3c 1e 7f 38 3f ad 35 53 3f
       0.034888316 0.028615598 0.72068965 0.8250378
000200 1b 81 28 3f 0c 4b 2d 3f d5 3b 6d 3f 26 fd b8 3e
       0.65822 0.6769264 0.9266942 0.36130637
000210 98 22 30 3f b1 2d 24 3f c8 b7 45 3f bd aa 41 3f
       0.68802786 0.6413222 0.7723355 0.7565115
000220 bd e3 3d 3f b3 ad 70 3f 8c 40 3f 3f 39 20 39 3f
       0.74175626 0.94015044 0.74707866 0.7231479
000230 65 f9 1e 3f d9 12 5a 3f 66 d1 cf 3e b9 a0 71 3e
       0.62099296 0.8518501 0.40589446 0.23596467
000240 ac 92 e3 3d b6 93 e0 3c d4 8f 15 3f 6d bf 3d 3f
       0.1111196 0.027414184 0.5842259 0.7412022
000250 73 29 5b 3f 05 3d 4b 3f 64 f9 a3 3e 65 56 d3 3d
       0.8561012 0.79389983 0.32026207 0.10319213
000260 c0 7a 4b 3f f8 96 36 3d 9d 06 4e 3f 80 ef ff bb
       0.79484177 0.04457757 0.8047884 -0.007810533
000270 84 60 ab bc 98 c8 2b 3f 5f ae 50 3f 37 e9 54 3f
       -0.020920046 0.67102957 0.8151607 0.8316836
000280 3f 99 16 3f 12 26 20 3e d2 dc 57 3f 6a 36 26 3f
       0.58827585 0.15639523 0.8432132 0.6492678
000290 de fa 83 3e 62 31 05 3f 37 81 0c 3f 18 6b 2a 3f
       0.25777334 0.5202848 0.54884666 0.6656966
0002a0 6b 02 47 3d 42 90 3e 3f 6d 23 b9 3e 38 13 6e 3f
       0.04858629 0.7443887 0.3615984 0.92998075
0002b0 60 fe 3c 3f 48 3e 10 3e 15 64 41 3f 6a c3 44 3f
       0.73825645 0.14086258 0.7554334 0.7686068
0002c0 ee 07 01 3f e4 da 55 3f 68 ac d0 3e 11 67 56 3f
       0.50402725 0.83537126 0.40756536 0.83751017
0002d0 37 12 3b 3f 12 1b 91 bb bd a9 21 3f 88 9f 32 3f
       0.7307467 -0.004428276 0.63149625 0.69774675
0002e0 0e ef 1a 3f 0b e7 3d 3f ed 0a 6b 3e 41 d7 0d 3f
       0.6052102 0.7418067 0.22953387 0.55406576
0002f0 ba bf 17 3e 82 fb 14 3f 43 a1 05 3f 5d 54 df 3e
       0.14819232 0.5819627 0.5219919 0.43619052
000300 a7 a9 20 3f c6 6f 2c 3f f9 bf 4e 3d 92 2a 1f 3f
       0.6275887 0.6735805 0.05047605 0.6217433
000310 d0 0a 13 3f f4 c1 19 3f e2 5f a2 3d 9a 67 50 3f
       0.57438374 0.60061574 0.079284444 0.81408083
000320 ec fd 3a 3f df b7 27 3f 07 b5 55 3f 9c a8 0d 3f
       0.73043704 0.6551494 0.8347935 0.553354
000330 8d 3b 3e 3f 5b 10 25 3f 7d 33 24 3f bc 1b 35 3f
       0.7430962 0.6447808 0.64141065 0.70745444
000340 39 b3 51 3f 6a 7b 49 3f 98 36 42 3f d9 4f f1 3e
       0.819141 0.7870394 0.75864553 0.4713123
000350 66 2d 5a 3f 4d 07 f5 3e 76 83 0a 3f 8e 4a 6a 3e
       0.8522552 0.47857133 0.54106843 0.22880003
000360 ca 18 f3 3e 11 e6 1b 3f 22 d1 04 3e 18 86 38 3f
       0.4747985 0.6089793 0.12970403 0.7207961
000370 cf a6 d8 3e d4 95 3c 3f 6e 85 73 3e bb 13 59 3f
       0.42314765 0.7366612 0.23781368 0.8479573
000380 d4 3a ce 3d c4 57 28 3f 2e 43 39 3f 19 c5 61 3f
       0.10069814 0.6575892 0.72368133 0.8819137
000390 50 6d 0a 3f fd 33 32 3f a2 76 45 3f 2b 94 0f 3f
       0.5407305 0.6961058 0.77134144 0.5608546
0003a0 d2 45 1b 3f 52 5e 26 3f 38 c0 15 3f d9 33 31 3f
       0.6065341 0.6498767 0.5849643 0.6921974
0003b0 71 f8 4b 3f ed 88 53 3f 5c 1e 93 3e cc c0 50 3f
       0.79675967 0.8263081 0.287341 0.81544185
0003c0 33 6d 44 3f 28 b7 45 3f 57 17 7b 3d 1d 72 56 3f
       0.76729125 0.772326 0.061301555 0.83767873
0003d0 e0 de 24 3e 5d 80 31 3f c6 ce 32 3f a7 c9 b7 bb
       0.16100645 0.6933649 0.6984676 -0.0056087556
0003e0 fa 77 4a 3f 85 19 68 3f de e2 47 3f e0 f5 87 3e
       0.7908932 0.9066394 0.78080547 0.26554775
0003f0 48 03 1d 3f 0e 6a 22 3f 81 06 4c 3f fc f3 af 3e
       0.6133313 0.63443077 0.79697424 0.34365833

model.1.bias f4 [512]
000000 b7 8e bb bd ee c2 d9 bd 7a 0b 9e bd be c5 04 be
       -0.0915808 -0.10632883 -0.07717033 -0.12966058
000010 8a 5a 8a be 82 c0 22 be 4f 13 97 be 0b 40 1c be
       -0.270222 -0.15893748 -0.2950692 -0.15258805
000020 f0 c4 ce bd b9 86 ba bd eb ca 1e be 0f d1 d3 bd
       -0.100961566 -0.091077276 -0.15507095 -0.10342609
000030 b1 cd 67 bd 55 fe f8 bd 0f a8 c1 bd 5a 6b fb 3d
       -0.056592647 -0.12157885 -0.09455883 0.12276335
000040 7d 0d de bd 44 a1 80 be dd cf e7 bd 64 c0 5d be
       -0.108424164 -0.25123036 -0.11318944 -0.21655422
000050 f7 04 bb bc 57 1f 0b be 80 87 28 be 2f 95 c1 bc
       -0.022829516 -0.13586174 -0.16457939 -0.023630707
000060 8b 13 b6 be 4d bd 4d bd 29 dc ed bd 3e c9 ab bd
       -0.35561785 -0.05022936 -0.11614258 -0.08387993
000070 6d de 1d 3d 8e 56 da bd a5 b9 bb bd d5 6c 09 be
       0.0385422 -0.1066104 -0.09166268 -0.13420422
000080 71 f2 21 be cf 6a 28 be 41 a0 30 3d 8a 97 26 be
       -0.1581514 -0.16446994 0.04312158 -0.16268745
000090 91 aa 90 bd 0f 0a e3 bd 34 a6 53 be b1 be 56 be
       -0.07063783 -0.11085903 -0.2066887 -0.2097118
0000a0 3b c4 de bd e1 1e 6e be 63 a6 10 3d 4a 83 86 be
       -0.10877272 -0.23253967 0.03531493 -0.2627204
0000b0 d5 79 1b be 38 88 55 be 49 1d 14 be 6b c4 f9 bd
       -0.15183194 -0.20852745 -0.14464296 -0.12195667
0000c0 ac 26 23 be 2b 27 2d 3d a6 3c ba bc b8 16 1a be
       -0.15932721 0.04227368 -0.022733998 -0.15047729
0000d0 bc f2 81 be 3a 7a ec bd d8 84 db bd d4 5a 88 be
       -0.25380504 -0.1154675 -0.10718697 -0.26631796
0000e0 b3 76 7e bd 11 c1 0e be 70 12 14 be 0e 04 8d bc
       -0.06212492 -0.13940836 -0.14460158 -0.017213847
0000f0 eb 23 10 bd bc e3 63 be 40 22 00 be 9d b9 3e be
       -0.035190504 -0.22254843 -0.12513065 -0.18625493
000100 1b 84 80 bd 44 76 d2 bd b7 2a 3b be 5a 21 a4 bd
       -0.06275197 -0.10276464 -0.18278013 -0.08014174
000110 46 b7 36 3c d0 59 3e be 63 e6 2c be 40 9d 7c be
       0.011152094 -0.18588948 -0.1688476 -0.24669361
000120 b1 ba a9 bc c1 10 0f be 04 b6 2d be a1 eb 11 be
       -0.020718904 -0.13971235 -0.16963965 -0.14250042
000130 92 be dc bd c8 d3 23 be 3b 34 ea bd ff 86 fe bd
       -0.10778536 -0.15998757 -0.114357434 -0.12428092
000140 98 1b 03 be 2b 0d 43 be f3 7f d2 bd 14 06 cb bd
       -0.12803495 -0.19047992 -0.102783106 -0.09913269
000150 2f fa 13 be 8a cc 74 be 92 81 db bc 6f f6 38 be
       -0.14450906 -0.2390615 -0.026795182 -0.18062757
000160 9f c8 52 be be 08 2b be d7 a7 9a bd c6 c0 85 bd
       -0.20584343 -0.16702554 -0.07551544 -0.06530909
000170 fd 54 14 be 1f 33 1f be 5d 4e c8 bd 47 bc 40 be
       -0.14485545 -0.15546845 -0.097805716 -0.18821822
000180 d6 2b 1c be 36 9b 86 be b6 47 1b bd c1 66 b2 bd
       -0.15251097 -0.26290292 -0.037910186 -0.08711005
000190 0d 7f 12 be 72 c9 4b be d8 d4 75 bd e5 b9 8f bd
       -0.14306279 -0.19901064 -0.060017437 -0.070178784
0001a0 0c fa 98 3b 6d 86 07 bd 2f 8c fb bd a8 3f 00 be
       0.00466848 -0.033087183 -0.12282597 -0.12524283
0001b0 ff 16 c9 bc 47 02 2f be 82 98 81 be d2 90 22 be
       -0.024547098 -0.17090712 -0.25311667 -0.15875557
0001c0 0a 85 41 bb 63 72 e7 bd 47 2b 52 3d 94 03 37 be
       -0.002952876 -0.113011144 0.051310804 -0.17872459
0001d0 4e 4b 8f bd 28 2f 97 be 05 d2 2e be c5 7d 3f be
       -0.06996785 -0.29528165 -0.17072304 -0.18700321
0001e0 1b 74 01 be 54 19 31 be 70 05 ff bc 28 c8 ef 3c
       -0.12641947 -0.17294818 -0.031130522 0.029270247
0001f0 fd 76 0d be f5 5c 11 be e6 79 e7 bd b9 1e 53 be
       -0.13814922 -0.14195617 -0.11302547 -0.20617189
000200 20 2c 31 be 63 2f 09 be f2 1f 7f be 73 2b 44 be
       -0.17301989 -0.13396983 -0.2491453 -0.191572
000210 8e 87 8f bc f2 13 30 be 90 9f 19 be c1 68 76 be
       -0.017520692 -0.17195109 -0.15002275 -0.24063398
000220 49 ae 6e 3d 81 9d f4 bd 3a d3 0d be 85 ce 62 be
       0.05827168 -0.11944104 -0.13850108 -0.22149093
000230 c1 f2 0a be a1 3a c6 bd e3 af 5b bd c1 fe 80 bd
       -0.13569166 -0.09679151 -0.053634536 -0.062985905
000240 9b 80 96 bd d9 7c c6 bc 74 5b 9b be a2 a4 75 bd
       -0.07348748 -0.024229454 -0.3034321 -0.05997146
000250 59 77 49 bd 06 0f 22 be 57 72 5b be b1 66 a4 bd
       -0.049186084 -0.15826043 -0.21430336 -0.08027399
000260 2d 75 26 be b9 05 70 bd cc 3b 0d be 81 52 0c bd
       -0.16255637 -0.058599208 -0.13792342 -0.03425837
000270 bd ee b6 bd d7 90 28 be dd 2a ee bd 1e 6b 90 bc
       -0.089322545 -0.16461502 -0.11629269 -0.017629202
000280 31 bf 81 bd ce 8c cd bd 53 cd 29 be 49 ec 49 be
       -0.06335295 -0.10036622 -0.16582231 -0.19719042
000290 68 ff fc bd d0 4f 6e be 19 0c 04 be ce eb 09 be
       -0.123534024 -0.23272634 -0.1289524 -0.13468859
0002a0 58 1e 1d bd 93 28 c3 bd e8 ec ce 3c b3 e0 25 be
       -0.038359016 -0.09529223 0.02525945 -0.16198997
0002b0 ac b7 5d 3b 9c bf 86 be 94 60 9c be bb e9 26 be
       0.00338314 -0.2631806 -0.30542433 -0.16300099
0002c0 85 ac 0b be dc 64 aa bd 19 30 fe bd 9c b6 68 be
       -0.1364003 -0.08320019 -0.12411518 -0.2272591
0002d0 31 19 ea bd d3 7e ab bd f8 38 27 be a6 20 97 be
       -0.11430586 -0.08373799 -0.16330326 -0.29517096
0002e0 d0 b7 70 be 55 1e e8 bd 42 62 48 be a2 30 3c be
       -0.23507619 -0.113339104 -0.19568732 -0.18377927
0002f0 ee a4 95 bd f1 11 51 be e4 ac 73 bd 88 a1 d5 3c
       -0.073068485 -0.20417 -0.059491053 0.026078
000300 b5 90 9b be 15 c7 4e be 21 1a f4 bd 30 65 78 be
       -0.3038384 -0.20193131 -0.11919046 -0.2425735
000310 66 a1 5a 3d 60 bc 0b be db 76 89 bd 6c 89 a9 be
       0.053376578 -0.13646078 -0.06712123 -0.33112657
000320 a6 b1 42 bd 77 3c 20 3c ff 50 1a bd 6c 09 ef bd
       -0.0475327 0.009780041 -0.0376749 -0.11671719
000330 ae d1 2a be e3 f4 57 be 9f e1 fc 3c 55 4f 1d be
       -0.16681549 -0.2108951 0.030869303 -0.15362294
000340 52 e0 cc bd 63 a0 2e be 79 88 a8 bd 60 7a 45 be
       -0.10003723 -0.1705337 -0.08229155 -0.19284964
000350 7b bb 83 bd 5f 13 c7 bd 3f 07 54 be 19 5e 01 be
       -0.064322434 -0.097204916 -0.20705889 -0.12633552
000360 71 9e 0c be 67 04 ef bd dc 3c f5 bd 9f 31 2e be
       -0.13732316 -0.116707616 -0.11974499 -0.17011116
000370 de a5 02 bd a1 95 de bd e7 2f 69 be c5 b3 f0 bd
       -0.031896465 -0.10868383 -0.2277218 -0.11753038
000380 2c a0 06 be 16 88 88 bd fa ab 15 be ff 97 16 be
       -0.13147038 -0.06666581 -0.14616385 -0.1470642
000390 c0 f9 74 bd 72 1d 55 be b7 41 32 be 1c 19 55 be
       -0.059808493 -0.20812014 -0.1740788 -0.2081036
0003a0 6a 69 1d be 30 44 5d bd ed 28 5b be df a9 55 be
       -0.15372244 -0.054020107 -0.2140233 -0.20865582
0003b0 8c 1d 1a be 49 c9 a8 bd 10 94 88 bd 53 da 2d be
       -0.15050334 -0.08241517 -0.06668866 -0.16977815
0003c0 a7 25 38 be 6a 7a 40 be e5 c2 98 bd b9 7f 04 be
       -0.17983113 -0.18796697 -0.07459048 -0.12939347
0003d0 2f 9e 54 bd 38 c0 03 be fe e1 87 be c0 c9 21 bd
       -0.051908668 -0.12866294 -0.26539606 -0.039499044
0003e0 f1 84 25 be fd 5f e4 bd c8 73 55 be 9e 36 9c bd
       -0.16163994 -0.11151121 -0.20844948 -0.07627605
0003f0 f1 b6 0f bd a5 82 6b bd 65 d2 1a be 55 29 50 be
       -0.035086576 -0.05749764 -0.15119322 -0.20328267

model.1.running_mean f4 [512]
000000 0b f8 c3 bb 8c 1a e2 3d bc 37 ac 3d 3c 13 30 3d
       -0.0059804968 0.1104022 0.08409068 0.042987093
000010 b5 ca e3 bc 12 a2 a5 3c 35 f6 14 3d 5e cb 18 3d
       -0.02780662 0.020218883 0.036367614 0.03730332
000020 34 c9 9a bc f4 cb 0a bd 48 a8 87 3b 50 85 e0 bc
       -0.01889477 -0.03388591 0.0041399337 -0.027407318
000030 45 47 fd bb b0 98 cf 3a 82 cf 8a bc cd 99 b6 3d
       -0.0077294433 0.0015838351 -0.01694465 0.08916054
000040 96 f7 a8 3b 4d 8f e4 3d 93 75 ce 3b 35 ed a3 ba
       0.0051564677 0.11160145 0.006300637 -0.0012506606
000050 ab 65 89 3b ed eb 87 bc 7f 83 c6 bc 0f cc a6 3c
       0.004193028 -0.01659199 -0.024232624 0.020360975
000060 b8 10 3e bd d5 27 6b bb 3a f7 49 3d a9 9e 94 bc
       -0.046402663 -0.0035881896 0.04930804 -0.018142061
000070 15 f5 08 3d 9f 9a 38 bb 0c cb 15 3d a2 98 5e 3d
       0.033436853 -0.0028168333 0.036570594 0.05434478
000080 a5 47 c1 3c 0c 26 6d 3d fe 2a 52 3b ef 64 8d bb
       0.023593733 0.057897612 0.0032069082 -0.0043150107
000090 0d da 7a 3c 32 bb 14 3d 70 0c b8 bd b7 18 3d bb
       0.015310776 0.036311336 -0.08986747 -0.0028853843
0000a0 a2 1d bd 3d 1e 85 4a 3d cb 2e 9c bc 21 da 5a bd
       0.09234168 0.049443357 -0.019065281 -0.05343068
0000b0 e6 3f 80 3d d3 93 e6 3c 0e 52 24 bd 3d 40 5b bd
       0.06262188 0.02814666 -0.040117316 -0.05352806
0000c0 cb 1f fd bd ac 70 32 bc 2b 50 fc 3c 53 3a 9b bc
       -0.1235958 -0.010891121 0.030799946 -0.01894871
0000d0 db f8 22 3d df a5 27 bd 44 e5 00 3c e1 0b 04 bd
       0.03978811 -0.04092967 0.007867161 -0.03223789
0000e0 16 fb 70 3d 93 ee 36 bd 53 2e 39 3d b4 05 d8 bb
       0.058833204 -0.044661116 0.045210194 -0.0065924767
0000f0 bb 33 00 bd 99 14 78 bb 0d bf bf 3c 53 d1 d9 b8
       -0.031299334 -0.0037854074 0.02340653 -0.00010386356
000100 99 8f 08 ba 2a 44 23 3d bb 4a 18 bd ea e5 d6 3c
       -0.0005209386 0.03985993 -0.037180644 0.026232678
000110 94 a9 ba bc 92 e1 77 bc e6 69 36 bc cf 0f 9f 3c
       -0.02278594 -0.015129464 -0.011133647 0.019416718
000120 05 54 ec bc 20 ce 20 bd 0a 11 2c bd d9 f5 61 3d
       -0.028848657 -0.039259076 -0.042008437 0.0551661
000130 cf 95 b4 bb b6 fb 4c bd 65 9d 1d bd 6e 09 34 bd
       -0.0055110226 -0.050044738 -0.03848018 -0.043954305
000140 0f ef be ba 71 26 0b 3d f7 e6 b4 3d bc 1f a6 bc
       -0.0014567095 0.033972207 0.088331155 -0.020278804
000150 79 5f 30 3d b7 2c 03 bc d0 99 b3 bd 0b 65 8b 3c
       0.0430598 -0.008006266 -0.08769572 0.017015954
000160 a9 e0 55 bb f2 ec 39 bb 07 f8 82 3b a6 d1 16 bd
       -0.0032635129 -0.002836999 0.0039968523 -0.03682103
000170 58 8d aa 3c a3 fa b2 3d 97 17 65 bc 57 a2 1f 3c
       0.020819351 0.087392114 -0.013982675 0.009743295
000180 36 e4 01 3d ae 45 46 3d 0b d6 9f bc 13 9b a4 bc
       0.03171178 0.048406295 -0.019511243 -0.020093476
000190 7e aa 8e 3d ca 87 a2 3d 95 05 a6 bc e6 9d 07 bd
       0.069661126 0.07936056 -0.020266334 -0.033109568
0001a0 c3 31 5c 3d 37 dd 64 ba 2d 8e 4d bc 53 17 fb ba
       0.053758394 -0.00087304733 -0.012546104 -0.0019156731
0001b0 ba 96 10 bb 15 c9 d7 3c 91 09 0e 3d d2 c5 fc 3d
       -0.0022062496 0.026341 0.034677092 0.12342419
0001c0 9e 20 be 3b aa 78 93 3d b3 f9 21 3d d1 d5 de b9
       0.005802228 0.07200749 0.039544772 -0.00042502445
0001d0 56 3d 5f 3d cb 99 57 3d 84 25 75 3c d7 0f 8f bd
       0.054501854 0.052636903 0.014962558 -0.06985443
0001e0 c4 09 9a 3c 59 ae 8a bc 0a 04 36 3c be c3 83 3c
       0.018803485 -0.016928839 0.011109361 0.016084548
0001f0 f6 43 8a bb 8d ad 55 3c 16 86 70 bc 98 37 53 3d
       -0.0042195274 0.013041866 -0.014680406 0.05156669
000200 c5 57 f2 3a 1c 48 80 bc 43 20 91 3d 84 81 89 3d
       0.0018489292 -0.015659384 0.070862316 0.06714156
000210 32 7e 08 bd dd d1 4b 3d 03 c3 e2 3c c3 5d 1a 3d
       -0.033323474 0.049760688 0.02768088 0.037687074
000220 11 fe 75 3c 57 33 0b bc 0d de 77 3d a5 3b fb bb
       0.015014187 -0.008496127 0.0605145 -0.0076670223
000230 35 62 ab 3b 9c 91 25 3b ea 4b d1 3c aa ff c3 bc
       0.005230213 0.0025263792 0.025548894 -0.023925621
000240 01 a6 eb bb 31 aa 3e bc 68 fc f2 3c ed 3d 3b bd
       -0.00719142 -0.0116372565 0.029661372 -0.045713354
000250 ed 91 8f 3d 0b ce bb 3c fc 07 97 bc 16 26 ad bc
       0.07010255 0.022925397 -0.018436424 -0.021136325
000260 df 85 ec 3d 8b 10 b4 bb db 14 d2 3d 89 93 78 3b
       0.115489714 -0.005495136 0.10257884 0.0037929735
000270 78 a8 6e bb 95 6d e6 3d 3c 98 94 bc bc 2a 5d bd
       -0.0036416333 0.1125137 -0.018138997 -0.053995833
000280 ba 37 86 3d bb 27 77 3c 27 8a 06 bd 5e 49 11 3d
       0.06553598 0.015085156 -0.032846596 0.03547036
000290 96 dc 3d 3c 94 d6 05 3d dc ca 53 3d de 43 a6 bd
       0.011588236 0.03267534 0.051707134 -0.081184134
0002a0 74 1d c2 bb 93 bc 48 bd e3 f0 a9 3b ca fa c3 3c
       -0.0059239212 -0.049007963 0.0051861866 0.023923296
0002b0 66 fe bd 3d 57 05 ed b9 dd 4b 44 3d 23 b0 83 3d
       0.09277038 -0.0004520814 0.04792391 0.0643008
0002c0 81 51 25 3d 23 7f 63 3b e1 eb 9b 3d 80 c5 f2 3c
       0.04036093 0.003471323 0.0761335 0.029635191
0002d0 d1 ce 00 bd 89 be 5b 3c 16 ff 0d 3d 07 08 b1 3b
       -0.031447235 0.013412126 0.034667097 0.0054025683
0002e0 49 58 58 bc 62 12 a1 bc c6 1f 76 bc bb 6b 05 bb
       -0.013204643 -0.019662086 -0.015022224 -0.0020358402
0002f0 69 5c 82 bc f0 66 dc bb 57 86 18 bd 9f 74 16 bd
       -0.015913205 -0.0067261383 -0.03723749 -0.036732312
000300 2f 8f 0f bd b9 f8 9d 3c f4 d2 a2 3b 26 f9 4e bb
       -0.03504866 0.01928364 0.004968995 -0.003158161
000310 ef 40 60 3d 6a 48 f2 bb 92 02 40 bb 9c 78 e2 3d
       0.054749426 -0.0073938863 -0.0029298407 0.11058161
000320 88 ff 6a 3d a0 b3 ee bc 9f 15 5e 3b ba 7e d6 bc
       0.0573726 -0.029138386 0.00338874 -0.026183475
000330 76 01 95 3c 60 c3 ff bc de aa 96 bc 07 c5 9a 3d
       0.018189173 -0.031221092 -0.018392023 0.07557111
000340 24 13 71 bd 3e 4a 49 bd ce 82 09 3d 6f ba 8e 3b
       -0.058856145 -0.04914307 0.03357201 0.0043557207
000350 38 45 49 bd 8e 40 89 bc 01 1c 98 3d 02 24 13 bd
       -0.049138278 -0.016754415 0.07427216 -0.03592301
000360 3e 6b fb bc 3a 28 20 bd 11 5d 6e bc 8f d3 cd 3d
       -0.030690785 -0.039100863 -0.014548556 0.10050117
000370 b0 78 34 3c e2 13 95 3d 29 cc f6 bc e8 f1 1e 3d
       0.011015102 0.07279183 -0.030126648 0.03880492
000380 6c 54 09 3b 02 22 44 bd c4 c8 9a bc 62 05 9b bc
       0.002095486 -0.047883995 -0.01889456 -0.018923465
000390 49 23 cc 3c 86 53 0e bd c1 8b 54 3d 83 72 89 3d
       0.024919169 -0.034747623 0.051891092 0.067112945
0003a0 9f 6f f8 bc 3a de 27 bd 03 f9 3f 3d 73 eb 07 3d
       -0.030326663 -0.040983416 0.046868335 0.033183526
0003b0 a3 3d 65 3d 9f f1 d5 bc be 79 09 3b b8 bb 22 bd
       0.055966984 -0.02611619 0.0020977105 -0.039729804
0003c0 22 2e d4 3c 1d d7 4e bd ad b4 74 3a 02 17 6c bd
       0.025900904 -0.050498117 0.0009334784 -0.05763913
0003d0 c7 44 3d bc c5 c7 43 bd 9d f5 24 bd 9e 99 86 ba
       -0.011552042 -0.047797937 -0.040273298 -0.001026917
0003e0 67 b7 98 bd 27 85 cb bc ba be b8 3d 62 c3 7b 3a
       -0.07456856 -0.024843765 0.09020753 0.00096040044
0003f0 46 4e ce 3a 8c e4 94 bc 25 f7 28 bd c4 f5 85 3b
       0.001573988 -0.018175386 -0.04125132 0.0040881354

model.1.running_var f4 [512]
000000 ec 61 63 3e ec 9f 8b 3e b9 5d c4 3e 52 27 31 3e
       0.22205323 0.27270448 0.38352755 0.17300156
000010 7b 47 19 3f 2f 99 4a 3e a8 b4 e2 3e 79 87 2c 3e
       0.59874696 0.19784997 0.44278455 0.16848554
000020 39 74 57 3e 48 ee fc 3e 42 92 c6 3e 26 ca e7 3e
       0.21040429 0.49400544 0.3878346 0.45271415
000030 4b a9 28 3c b1 5b c0 3e 8c 09 71 3e 21 2a 92 3e
       0.010294269 0.37569955 0.23538798 0.28547767
000040 a2 f4 e6 3e 25 7e d1 3e 15 a1 3b 3d c9 30 d9 3e
       0.45108515 0.40916553 0.045807917 0.42420033
000050 57 0f 29 3f e5 7e 13 3f 33 85 c3 3e 4e 37 0a 3f
       0.6603903 0.576155 0.3818756 0.5399064
000060 c1 48 05 3f 51 bf b3 3e e8 0e 3a 3f 73 eb da 3e
       0.5206414 0.351069 0.72678995 0.42757758
000070 96 02 16 3f 30 e2 f1 3e dd b2 bd 3e 55 0a 21 3f
       0.58597696 0.4724288 0.37050524 0.6290639
000080 04 72 93 3e 8b 83 ac 3e 43 17 d0 3e 0e d2 69 3e
       0.28797925 0.3369411 0.40642747 0.22834036
000090 62 24 04 3f 13 6d b6 3e 24 fa d0 3e 0e c2 e0 3e
       0.51618016 0.35630092 0.40815842 0.43898052
0000a0 a5 79 03 3f b3 d5 b8 3e a4 5a 8f 3e ca 3d fe 3e
       0.5135749 0.3610054 0.2799884 0.49656516
0000b0 d1 10 b9 3e bc 06 94 3e fe 6d 64 3e e0 0b c8 3e
       0.36145642 0.28911388 0.22307584 0.3907156
0000c0 02 0d 03 3f 5a 8f 8e 3e c6 b2 c1 3e 1b 33 c3 3e
       0.51191723 0.27843744 0.37831706 0.38124928
0000d0 45 3b a3 3e 0b 85 c0 3e 3e c2 1f 3e bb 74 03 3f
       0.31881157 0.37601504 0.15601441 0.5134999
0000e0 46 55 95 3e bc 54 ae 3e 76 78 5d 3e c7 b7 b9 3e
       0.2916662 0.34049022 0.21627983 0.36273023
0000f0 45 5c 5e 3c a1 71 00 3f 7e 3b 2b 3f 21 c9 94 3e
       0.013571803 0.50173384 0.6688765 0.290597
000100 42 db ce 3d 2e dd 77 3e 9d e4 1c 3f a0 29 3d 3e
       0.10100414 0.24205467 0.61286336 0.1847291
000110 8d a3 b2 3e 30 c5 b5 3e 34 f7 f5 3e 9d 69 49 3f
       0.34890404 0.35502005 0.48040164 0.7867678
000120 3f ea 09 3e ee 1a 0a 3f c0 7b 05 3f da 44 88 3e
       0.13468264 0.5394734 0.5214195 0.2661503
000130 d1 ce ef 3e 8a 10 26 3e 6e d7 db 3d 60 91 c1 3e
       0.46837476 0.16217247 0.10734449 0.37806225
000140 bd 69 57 3e 15 66 88 3e 1c b2 6d 3e 05 3e 80 3d
       0.2103643 0.26640382 0.23212475 0.06261829
000150 fe 8e 80 3e 5b 94 85 3e 90 82 f6 3e bd 89 00 3f
       0.25109094 0.2608975 0.48146486 0.5021017
000160 fb c6 06 3f cb f3 f4 3e df a4 8f 3e 90 a6 2d 3f
       0.5264737 0.4784225 0.28055474 0.6783228
000170 63 79 c7 3e 4f a9 87 3e 37 5b 0c 3f 33 68 69 3e
       0.38959798 0.2649636 0.5482668 0.22793655
000180 be 8f 79 3e 16 b0 f1 3e 8b 98 ea 3e c1 72 ab 3e
       0.2437124 0.47204655 0.45819506 0.33485988
000190 91 01 d4 3e d4 3e 18 3f 1c 2c c8 3e 41 e5 0c 3f
       0.41407445 0.5947087 0.39096153 0.55037314
0001a0 b9 a6 8d 3e fc 3e 3a 3c 5d 4e ba 3d 9c 44 b2 3e
       0.27666262 0.011367556 0.09096978 0.3481797
0001b0 05 9b 8d 3c 32 ec c8 3e e3 cf 8c 3e ef e2 29 3f
       0.017285833 0.39242703 0.27502355 0.663619
0001c0 36 5e 98 3d d2 37 a7 3e ec 3a 1f 3f 34 58 14 3e
       0.07439844 0.32659775 0.6219928 0.14486772
0001d0 75 03 03 3f 01 cf b2 3e d6 17 02 3f 1b 72 e6 3e
       0.5117715 0.34923556 0.5081762 0.4500893
0001e0 74 a4 f1 3d f7 4e fe 3e da 0c dc 3e 1b 8e cc 3e
       0.11798945 0.4966962 0.42978555 0.39952168
0001f0 1a bc 49 3d d8 71 3f 3d 4d 43 de 3e 37 bb 0f 3f
       0.049251653 0.04673943 0.4341072 0.5614504
000200 78 8a 05 3f ab 52 c8 3e 21 45 18 3f 7f 34 99 3e
       0.5216441 0.3912557 0.5948048 0.29922864
000210 32 f8 cc 3e 09 93 af 3e 4b 6b c3 3e 93 35 ee 3e
       0.40033108 0.34291866 0.38167796 0.4652525
000220 80 c0 f2 3e 75 e8 1c 3f 95 c2 d9 3e a1 b0 94 3e
       0.4741249 0.612922 0.42531267 0.29041007
000230 f1 06 81 3e 3f eb f8 3e 9f 98 8b 3e 9c b0 29 3e
       0.25200608 0.4861698 0.27264878 0.16571277
000240 9e 2f a5 3d c7 ab 32 3d e4 a0 53 3e 7b 92 00 3f
       0.08065723 0.04362085 0.20666844 0.5022351
000250 9c 24 85 3e e6 34 1f 3f 11 cb 1f 3e 01 08 bb 3d
       0.26004493 0.6219009 0.15604807 0.09132386
000260 0a f3 95 3e 26 ed 3f 3d d9 e8 1a 3f 09 2c c0 3b
       0.29286987 0.04685702 0.6051155 0.0058646244
000270 ee 8d 7a 3c 21 65 95 3e 21 79 0d 3f 9e 16 0e 3f
       0.015292628 0.29178718 0.55262953 0.5550326
000280 75 3b d6 3e c4 dc f1 3d b6 b3 12 3f 93 a1 d1 3e
       0.41842237 0.11809686 0.5730547 0.40943584
000290 b1 a0 1b 3e 2d 26 9d 3e 20 a6 87 3e 5a fc cd 3e
       0.15198018 0.30693188 0.2649393 0.4023159
0002a0 67 63 24 3d 11 50 fd 3e dc 1a 81 3e 14 de 11 3e
       0.04013386 0.49475148 0.25215805 0.14244872
0002b0 95 bc 39 3f 9c 4e 3f 3e 17 6c 2c 3f 3f 03 1f 3f
       0.7255338 0.18682331 0.6735243 0.6211433
0002c0 df d5 81 3e 9d b6 ff 3e d6 ce 73 3e 51 18 04 3f
       0.25358483 0.4994401 0.2380937 0.51599604
0002d0 9e 6e e8 3e a3 8b d2 3c 83 bc 2b 3f 35 c8 28 3f
       0.45396894 0.02570135 0.6708452 0.6593049
0002e0 80 4f 8f 3e 00 48 ed 3e 84 35 39 3e 32 4f ba 3e
       0.2799034 0.46343994 0.18086821 0.36388546
0002f0 32 eb de 3d 7d 7f 64 3e 0b 0d 89 3e 23 83 b4 3e
       0.10884704 0.22314258 0.26767763 0.352563
000300 85 84 d4 3e b3 84 8c 3e ec 85 7f 3d 52 4b 4b 3e
       0.41507354 0.2744499 0.062383577 0.19852951
000310 8e 4c b3 3e 95 44 a5 3e 1d 1f b2 3d 33 1c ba 3e
       0.35019344 0.32278886 0.08697341 0.3634964
000320 3a a9 e5 3e a0 c5 b3 3e 71 a5 16 3f 1d d6 a2 3e
       0.44855672 0.35111713 0.58846194 0.3180398
000330 b2 71 8a 3e 9a 32 1e 3f 11 d1 89 3e ea c3 e5 3e
       0.27039868 0.6179596 0.26917318 0.44876033
000340 16 d3 01 3f 3f 4e c9 3e c7 6b 84 3e ea 17 ad 3e
       0.50712717 0.3931751 0.25863478 0.33807307
000350 d5 67 f7 3e ae 00 99 3e a2 df d3 3e 4b 8a 0a 3e
       0.48321405 0.2988333 0.41381556 0.13529317
000360 6b ea b6 3e 8e 58 94 3e 63 18 bf 3d f4 97 01 3f
       0.35725722 0.28973812 0.09330823 0.5062249
000370 7f 2d 91 3e 89 41 ef 3e a7 58 12 3e 56 08 09 3f
       0.28355023 0.46729687 0.1429163 0.53528345
000380 6e ac 6d 3d a6 c9 ec 3e bd 75 c2 3e 62 c9 fe 3e
       0.05802577 0.46247596 0.37980452 0.49763018
000390 49 07 e3 3e 55 c6 fd 3e 51 57 0f 3f 1e ec a6 3e
       0.44341496 0.49565378 0.5599261 0.32602018
0003a0 74 0c f3 3e 84 ea 8a 3e b7 84 e2 3e da be c4 3e
       0.47470438 0.27132046 0.44241878 0.38426858
0003b0 f2 53 bc 3e 30 53 fe 3e 04 67 35 3e 99 53 23 3f
       0.36782795 0.49672842 0.17715079 0.63799435
0003c0 54 e3 7a 3e f6 50 03 3f ba 46 69 3d 3c 7a 16 3f
       0.24500781 0.5129541 0.056952216 0.58780265
0003d0 62 d7 bf 3d f0 5d b5 3e 85 01 db 3e 7d c6 e4 3b
       0.09367253 0.3542323 0.42774597 0.0069816695
0003e0 e4 31 f1 3e 72 bd 1c 3f cc c4 b5 3e 50 bd 57 3e
       0.47108376 0.6122657 0.35501707 0.2106831
0003f0 30 37 5a 3e cf 5c a2 3e 3d 3e 05 3f bf 61 92 3e
       0.21310115 0.31711432 0.52048093 0.285902

model.4.weight f4 [256, 512]
000000 b6 d4 08 3d 08 d5 a2 3b 76 a0 19 3e 27 e0 9c ba
       0.033405982 0.004969243 0.15002617 -0.0011968658
000010 69 a4 09 3e 3f 70 bf 3c 5d 94 83 3d 7b aa 25 bd
       0.13441624 0.023368953 0.064247824 -0.040445786
000020 0f 02 bd 3d c2 e6 91 3d 24 80 22 3c ca 60 ef bb
       0.09228908 0.07124092 0.009918246 -0.0073052393
000030 e6 7e 35 bc 6a 37 e7 3d e8 13 dd bc 12 4e 2c 3e
       -0.011077618 0.11289866 -0.026987031 0.16826656
000040 8c de 6b 3d dc d9 f4 3b 50 40 ac 3c 0d 99 87 3d
       0.057585284 0.00747226 0.02102676 0.06620989
000050 9b d2 6c 3c 8e b3 c2 3c fa 83 be 3d 9c 87 8f 3d
       0.014454509 0.023767259 0.09302516 0.07008287
000060 f3 eb f9 3d 42 7e 29 3e a2 8c 4f 3e a8 c2 52 3c
       0.12203207 0.1655207 0.20268491 0.0128637925
000070 18 6d 1c 3d 20 49 c7 ba 07 4d cc 3c 97 c0 42 3e
       0.038189977 -0.0015204288 0.024939073 0.1901878
000080 22 64 80 3d 88 5b d7 3d 8e 9f 8f bd ca a2 a7 3c
       0.06269099 0.10515505 -0.070128545 0.020463366
000090 98 59 95 3d 2a 0a 32 3d a5 4a 60 3d d3 6b a7 bd
       0.07292479 0.043466724 0.054758687 -0.08174863
0000a0 a4 a5 02 3d 71 96 93 3d 6f bd 0d bd 29 af 29 3e
       0.03189625 0.07206429 -0.034604486 0.16570725
0000b0 3c e3 84 bd a2 f2 7c 3d e3 dc b3 3b e3 e2 c2 3d
       -0.06488654 0.06175483 0.0054889782 0.095159315
0000c0 67 15 fc bc 32 c0 c1 3d 4c 3c d6 3d 7b 99 e0 3d
       -0.030771924 0.094604865 0.104607195 0.10966774
0000d0 ec 57 a8 3d 99 99 68 bc ef d1 c8 3c 65 1f bc 3d
       0.08219895 -0.014196777 0.024514167 0.091856755
0000e0 22 6a bd 3d 8a ad 55 3d 62 65 c3 3c 55 df 2c 3d
       0.09248759 0.052167453 0.023852054 0.042205174
0000f0 c4 50 85 bb 75 d0 a1 3d b3 4d ef 3d 36 57 0a 3d
       -0.004068466 0.07901088 0.11684742 0.033774577
000100 f4 7d 24 3d 4c e0 aa bd 14 b8 d8 3d 53 05 1b 3c
       0.04015918 -0.083435625 0.10581985 0.009461719
000110 b6 4a f8 bc d7 d9 93 bb 43 14 d5 3d 37 1d 28 3e
       -0.030309062 -0.0045120525 0.10404255 0.16417395
000120 c9 e1 e8 bc 45 12 6f 3d c1 91 e3 3d d3 33 61 bd
       -0.028427975 0.058367033 0.11111785 -0.054981064
000130 5d 44 e8 bc 8f 74 09 bd e0 3f 32 bd f9 b4 a8 3d
       -0.02835291 -0.033558425 -0.043517947 0.08237643
000140 a7 e0 9a 3c 7f 7c 10 3d d3 bb 0e 3e 3c a9 8b bb
       0.01890595 0.03527498 0.13938837 -0.0042621177
000150 c7 8e 46 bc 32 a3 16 bd 73 24 19 3e b3 b2 cf 3d
       -0.012119002 -0.03677673 0.1495531 0.10141506
000160 85 90 d8 3d f2 3c 98 3c 73 e5 e6 3c 7e df eb 3d
       0.1057444 0.018583748 0.028185582 0.11517237
000170 c7 c0 5d 3d e5 12 36 bc 83 ae 9f 3d 43 87 85 3b
       0.054138925 -0.011112903 0.07796957 0.0040749623
000180 40 b3 00 be ff bc 22 bd 03 38 56 3c 27 69 f6 3d
       -0.12568378 -0.039731022 0.013074878 0.12031775
000190 5f 72 63 bc dd 16 3d ba 2e 95 15 3e 9f 64 39 3d
       -0.013882249 -0.0007213185 0.14607689 0.045261975
0001a0 9e 84 97 3d c4 26 58 bc aa 05 f8 3c 96 d7 72 bc
       0.073983416 -0.013192836 0.030276138 -0.0148219075
0001b0 a5 26 57 3c 07 03 85 3d 74 06 a1 3d 90 6e fd 3d
       0.013131772 0.06494718 0.07862559 0.12374604
0001c0 16 42 4d bd ed d7 21 3d 1f 07 54 3d 9f d3 bd 3a
       -0.050111853 0.039512563 0.051764604 0.0014482624
0001d0 8b 25 bd bd ba 96 3d 3d 1a 93 12 3e e0 d5 db 3d
       -0.092356764 0.046286322 0.14313927 0.10734153
0001e0 01 29 bb bc 70 74 a6 3d 56 33 64 3d 67 ab a1 3d
       -0.0228467 0.081276774 0.05571302 0.078940205
0001f0 bd 55 f4 bb 6d 38 03 3d 52 fc e9 3d cb bb ef 3d
       -0.00745651 0.032036234 0.114250794 0.117057405
000200 5f 40 ff 3d 75 a4 17 bd f2 10 1b 3e e9 c1 16 bd
       0.1246345 -0.037022073 0.15143183 -0.03680602
000210 39 ec 07 3e 0a 6b 75 3d 31 2f 1b 3d 7f 00 dd 3d
       0.13273706 0.059916534 0.037886802 0.1079111
000220 ad 45 72 3c 60 96 c6 3c e4 c1 32 3d c2 86 94 3d
       0.01478712 0.024241626 0.04364194 0.072522655
000230 11 d1 43 3d 8b f0 a6 3d d4 a7 40 3d 76 07 a8 bd
       0.047806803 0.08151349 0.047035053 -0.08204548
000240 93 55 58 3d 49 63 27 3d 8c 2d 74 3d dd e4 7b 3d
       0.052815985 0.04086617 0.05961375 0.061497558
000250 29 4d 5a 3d 97 e6 18 3e ad 93 47 3c b4 5d 5f 3b
       0.053296242 0.14931713 0.012181205 0.003408295
000260 2a ba 88 3d b9 99 0c 3d 7b ff 2c 3d 78 a8 05 ba
       0.06676133 0.03432629 0.042235833 -0.0005098651
000270 fa 98 37 bc 26 83 88 bc 26 f1 f4 3d 2e 45 a4 3d
       -0.011205906 -0.016664099 0.11960058 0.080210075
000280 be 38 bb 3d f0 0b 31 bc aa 06 94 3d f4 ee d5 3d
       0.09141682 -0.010806069 0.072278336 0.10445967
000290 97 69 b5 3c b4 12 a8 3c 43 d6 7e bd bb c0 82 3c
       0.022145076 0.02051673 -0.062216055 0.015961042
0002a0 90 ac ba 3a fb eb 04 3d e6 bc de 3d 09 a7 9b 3d
       0.0014242101 0.03245161 0.10875873 0.07600219
0002b0 2e 3c 62 bd a7 aa 0e 3d 0a d9 78 3b 49 09 b9 3d
       -0.055233173 0.034830716 0.0037971162 0.09034974
0002c0 b2 b8 86 3d 5f ba 64 3d b5 9f 8b 3c a7 11 b5 3b
       0.065781966 0.0558418 0.017043928 0.005525786
0002d0 fb 9b 76 3c 28 dd a4 3c f0 9b df 3c e2 80 02 3e
       0.015051837 0.020124987 0.027296036 0.12744477
0002e0 09 9e 59 bc cd 50 76 3d ec ea 4f 3c 68 8d e6 3d
       -0.013282307 0.06013565 0.012690287 0.1125744
0002f0 a2 21 e8 3c 50 d4 13 bd 79 80 93 bd 69 1c f6 bd
       0.02833635 -0.03609115 -0.072022386 -0.120171376
000300 f7 4f 77 3d 3c c4 01 3d 06 f7 2d bc e9 0f b4 b7
       0.060378995 0.031681284 -0.010617977 -2.146508e-05
000310 5b bd c2 3d 68 2a 7e 3d 2b b9 a2 3c d7 6c 8b 3c
       0.09508773 0.06205216 0.019863686 0.017019672
000320 97 9a 1e 3d be 7e 1f 3d 63 3a 43 3e 2f 62 6f bd
       0.038721647 0.03893923 0.19065242 -0.058443245
000330 7e 41 28 3d ed 2e 97 3d 4d 63 d0 bd 5b 0f 15 3e
       0.041078083 0.07381997 -0.1017519 0.14556639
000340 ce b9 e1 3d ce e9 e0 bc 01 34 23 bc d7 2f ad 3d
       0.110217676 -0.027455237 -0.009961129 0.0845639
000350 98 1a 2a 3c 1a 18 11 3d 94 7e 8d 3c b7 94 12 3d
       0.010382317 0.035423376 0.017272271 0.035786357
000360 03 87 a0 3c 84 c2 1c 3e 9d a2 5b 3c 14 80 87 3d
       0.019595629 0.15308577 0.013405469 0.06616226
000370 f7 1c 9a 3d f1 84 1e 3d 46 4e 96 3c 29 95 f3 3d
       0.07525056 0.038701 0.01834787 0.118936844
000380 fb cd 3b 3d 20 b4 68 3c a2 90 09 3d bc fb 10 3e
       0.045850735 0.014203101 0.0335852 0.14158529
000390 44 29 4b 3c 65 0d 6e bb 44 6d cb 3d ce 2f 23 3d
       0.012399975 -0.0036323902 0.0993295 0.039840512
0003a0 24 62 71 bb 06 9f 3f 3d ea d7 a0 3d f8 85 7b bc
       -0.0036832178 0.046782516 0.07853682 -0.015351765
0003b0 2c e7 ad 3d c8 2a 12 3e 21 9b 21 bd f5 f9 73 3d
       0.08491358 0.14274132 -0.039454583 0.05956455
0003c0 14 51 94 bd 13 4d 18 3e f0 1a f8 3c 96 98 da 3d
       -0.07242027 0.14873151 0.030286282 0.10673635
0003d0 16 95 84 bc 82 2d 4e 3e 00 2e 92 3d ff 8b 4c bc
       -0.016184371 0.20134547 0.0713768 -0.01248455
0003e0 64 8d ed 3d fa e1 02 bd c3 c9 2a 3e a9 a7 45 bd
       0.11599234 -0.03195379 0.16678528 -0.048255596
0003f0 b2 bb 27 3d ae bc a9 3c b9 da 17 3e 0c 5b be 3d
       0.040950485 0.020719852 0.1482953 0.092947096
