ml_service/best_mlp_model_2output_1.pt (torch, 862469 bytes, 20 tensors)

model.0.weight f4 [512, 69]
000000 a6 2b 9d bd 60 11 64 bd ab ac c4 ba 7e ee 30 bd
       -0.07674341 -0.055680633 -0.0015005072 -0.043196194
000010 7f f7 db bc 5e b9 45 3d 68 f7 07 3c f3 fe ae bb
       -0.026851414 0.048272483 0.008298732 -0.005340451
000020 3f 38 74 3c 1f 85 93 bd 1f a0 98 3d 0c 4c 36 bc
       0.014905988 -0.07203125 0.07452416 -0.011126529
000030 32 5e a3 bd 2e cd 96 3d 40 ae 2d 3d 70 c4 29 3d
       -0.07976951 0.07363354 0.042402506 0.041447103
000040 0d 3f 88 3d f0 72 81 bd fb ea fd bc 80 2c 09 3d
       0.06652651 -0.06320751 -0.030995836 0.033489704
000050 18 02 38 bd e8 bf cc 3d a0 ce 81 3d 0f 7b 93 bd
       -0.04492387 0.09997541 0.06338239 -0.07201206
000060 16 7c 28 3d ab d6 e2 3d f7 6f 65 bd 56 45 d0 b9
       0.041133963 0.11076101 -0.05601498 -0.0003972451
000070 e6 4d 7c 3c bd 81 2d bd a5 59 5f bd 2e d4 1e 3d
       0.015399432 -0.042360056 -0.05452885 0.03877657
000080 26 3c 80 bd 40 e1 8d bc b7 b5 9b 3b 59 0f 78 3d
       -0.062614724 -0.017319322 0.0047518867 0.06056151
000090 b5 e5 44 bc 4f 6c 99 3d ad f4 10 3d ad 14 ee 3b
       -0.012017657 0.07491361 0.03538959 0.0072656483
0000a0 d6 a1 3a 3d ec fc 21 bd 45 6f 94 bd 31 bd 09 bd
       0.045564495 -0.039547846 -0.072477855 -0.033627693
0000b0 8c db e2 3d fd 2c 26 3c 35 e8 43 bd ac 3d c2 3d
       0.110770315 0.010142562 -0.04782887 0.09484419
0000c0 58 b2 be bc fd b2 4c bc 1e 7a eb 3d d5 a2 75 bd
       -0.0232784 -0.012493846 0.114979014 -0.05996974
0000d0 88 33 aa 3d bc 29 ee 3b cd bd 26 bd ac fa 08 3e
       0.0831061 0.0072681587 -0.040708352 0.13376874
0000e0 44 22 9c bd 75 02 f5 bc 7d 3b bd ba d9 c9 91 bd
       -0.07623723 -0.029908398 -0.0014437285 -0.071185775
0000f0 dc d4 7c 3b de 4e 24 3d 7e c4 03 bd 03 df a6 bd
       0.0038579023 0.040114276 -0.03216981 -0.08148005
000100 a6 da 12 3d 53 6a 20 3f 87 cb e5 3d 60 47 39 be
       0.03585305 0.6266224 0.112204604 -0.18093634
000110 1c 01 77 3c 20 4e 9f bd b1 4c 7c 3d e6 3e 29 3d
       0.015075948 -0.07778573 0.061596576 0.04131975
000120 69 3f 5d bc 26 e8 b7 3d 45 59 e2 bd 35 49 5a 3d
       -0.013503888 0.08979826 -0.11052183 0.053292472
000130 8e 63 98 bd bd 22 90 bb fc 1e e5 bb 45 a3 c6 bc
       -0.074408635 -0.0043986724 -0.006992219 -0.024247775
000140 42 69 d9 bc 64 ca 90 bd 81 fe 55 bc 58 36 c2 3c
       -0.026539449 -0.07069853 -0.013061167 0.023707554
000150 32 22 25 3d 5f 64 84 ba df 6e 0b b9 15 e6 88 bd
       0.040315814 -0.0010100714 -0.00013297376 -0.0668451
000160 04 fc 31 bd 93 06 01 bd b5 5f 66 bd a8 43 9a 3b
       -0.04345323 -0.03150041 -0.056243617 0.0047077723
000170 8c 8f 1b ba 0a 1a b7 3c eb 6a 1c bc 2e 18 d2 3b
       -0.0005934171 0.022351284 -0.009546976 0.006411574
000180 69 c1 09 3c f8 76 a5 3c ba 34 87 bd c3 c7 f2 3d
       0.008407929 0.02019833 -0.06601854 0.11854508
000190 7f e2 47 3c 4a 77 b7 bb 09 66 94 3d 3a a0 04 3d
       0.012199997 -0.005598937 0.07246024 0.032379366
0001a0 c5 7d 27 3c 17 59 92 bc 81 40 b8 3c 0a 7b 05 3d
       0.010222857 -0.017864747 0.022491695 0.032588042
0001b0 45 9e 59 bc 5b bc 50 bc b2 ad fe 3c 16 1c 9d bc
       -0.013282363 -0.01274022 0.031088684 -0.019178431
0001c0 cf e5 03 3d 61 5f 82 3d 59 ed ca 3c 9d 41 96 3c
       0.032201584 0.06365848 0.02477138 0.018341834
0001d0 30 44 c7 3c fb ab 4c 39 7d eb 83 bc b3 43 22 3d
       0.024324507 0.00019519024 -0.0161035 0.039615344
0001e0 43 2b 0e 3d 99 6f 89 3c c7 6d b2 bc c0 ae 36 3d
       0.034709226 0.016776847 -0.021780862 0.04460025
0001f0 35 46 ac bd a0 7c 25 bb db 56 6c bc c8 04 54 bd
       -0.084118284 -0.0025251284 -0.014425005 -0.051762372
000200 d5 11 23 3e 9a 37 9d bb 19 75 f2 bc ba 65 87 bd
       0.15924771 -0.004797888 -0.029596852 -0.066112
000210 f8 da 7e bd fc 27 3b 3d 66 42 84 be c8 94 ba 3c
       -0.062220544 0.04569243 -0.25831908 0.022776023
000220 dd a5 66 be f8 75 cc 3d 20 9f 64 3d 9a 58 86 3d
       -0.2252421 0.09983438 0.055815816 0.06559868
000230 d3 81 a8 bc 57 a7 41 bd 65 4a 83 bd 81 d6 75 bb
       -0.020569718 -0.04727873 -0.06410674 -0.0037511887
000240 cd 6f 95 bd 0a d1 91 bb 6d db d5 bb a6 14 87 bd
       -0.07296715 -0.004449968 -0.0065264017 -0.06595735
000250 3a 7a 8d 3c 04 3c 3b bb 9f 09 e3 bd 5a 2f 00 be
       0.017270196 -0.0028569708 -0.110858195 -0.12518063
000260 58 5c 05 3e f6 f4 97 3c 52 92 19 3d d5 ed b9 bc
       0.13023508 0.018549424 0.037493058 -0.022696415
000270 07 54 42 bd ca c1 82 bc 42 5e 7f bd 0a 01 4f bd
       -0.047443416 -0.015961546 -0.06234575 -0.0505381
000280 74 e2 9b 3d 12 00 e0 3d 7c 8b 0f 3d 5d 71 3e 3d
       0.07611552 0.109375134 0.035045132 0.04649483
000290 4c af 64 bc 7e 5a 33 bd 22 15 ec 3b 8f ec 30 bd
       -0.01395781 -0.043787472 0.0072046677 -0.04319435
0002a0 59 0b 35 3d 88 75 07 bd 95 85 89 3d 4a 93 64 3c
       0.044200275 -0.03307107 0.06714932 0.013951132
0002b0 eb ca 2c bd 98 f0 ab 3d fc 1b 37 bd 1d 95 b7 3b
       -0.042185705 0.08395499 -0.044704422 0.0056024925
0002c0 1b 1d b7 bc fe 5c 26 bd a2 b6 4b 3d 30 12 4a 3d
       -0.022352746 -0.040616028 0.04973472 0.04933375
0002d0 4c 0f 2d be 5e ad b4 3d a6 ca 5f 3d fb 38 30 bd
       -0.16900367 0.0882213 0.05463662 -0.04302309
0002e0 1f 84 df bd da 42 fa 3d 36 c2 0b 3d ec 74 5f 3d
       -0.10913872 0.12219782 0.03412076 0.054554865
0002f0 7c 9d 2c 3d cc 96 21 3d 5b 82 94 bd 97 98 8d 3c
       0.042142376 0.03945045 -0.07251426 0.017284675
000300 c9 f3 c6 3d 19 49 c2 3d 02 c7 e0 3d cb 54 29 bd
       0.09714467 0.094865985 0.10975458 -0.04134063
000310 65 2d 44 bd 85 9d d1 bb 96 c7 49 bc cd f5 a1 3c
       -0.047894854 -0.0063969516 -0.012315651 0.019770527
000320 f8 01 26 bd da 20 8f bc ca 5a 9c bd ff 3a 08 3f
       -0.04052922 -0.01747172 -0.07634504 0.5321502
000330 95 d6 4b 3e 51 3c 2c be 43 2a cd bc 6b 35 e7 bc
       0.19906075 -0.16819884 -0.025044566 -0.028223714
000340 10 59 a3 bc 15 6b 01 3d 82 a4 cd bb bf c3 b5 3c
       -0.01993993 0.031596262 -0.0062757144 0.022188066
000350 10 d8 d2 3c d6 f7 c1 3c 86 de eb bb 03 bf c7 3c
       0.025737792 0.023677748 -0.0071981577 0.024383074
000360 b2 48 28 bc 54 88 ac bb 13 61 58 bd e5 42 1b bd
       -0.010271238 -0.005265275 -0.052826952 -0.037905592
000370 41 79 d2 bc d7 1e 65 ba ae 2f 66 bc b2 cd 54 3d
       -0.025692584 -0.0008740252 -0.014049454 0.05195398
000380 29 6a 65 3c a4 20 30 3d ce f0 16 bd 81 2d 17 bd
       0.014002361 0.04299988 -0.036850743 -0.03690863
000390 b0 6f af bc 28 ef d6 bc 09 ba 01 bd 78 26 6d bd
       -0.021415561 -0.026237085 -0.031671558 -0.057898015
0003a0 e9 6d 99 bc 5c 07 0b 3e 2c b4 27 bc fa a4 aa 3c
       -0.018729167 0.13577026 -0.010235827 0.02083062
0003b0 a0 ba 87 3d 5a ab 20 3d 62 8b ba 3c 88 3b d4 bc
       0.06627393 0.039225914 0.022771541 -0.025907293
0003c0 e9 7e 53 bc 29 a0 34 bb 85 e7 60 bb ac ef 69 3d
       -0.012908676 -0.0027561283 -0.0034317684 0.057113335
0003d0 89 c8 c1 3c da 31 da bc e1 eb a5 3c 00 62 b5 bb
       0.023655193 -0.0266351 0.020254077 -0.005535364
0003e0 d6 0f f4 3c ac 2d 4a 3d 22 03 aa 3c 46 a0 83 3d
       0.029792707 0.049359962 0.020753447 0.06427054
0003f0 75 b0 a4 bc d2 8b 95 3d 90 c2 1a bd f7 69 28 bd
       -0.020103673 0.07302059 -0.037783206 -0.04111668

model.0.bias f4 [512]
000000 cd 6f 4a b8 5c f9 0b b7 d1 d6 33 38 04 ba 52 37
       -4.8264676e-05 -8.343104e-06 4.287699e-05 1.25602855e-05
000010 4b 2d 34 37 a4 9c 08 36 b7 b7 50 b7 47 66 b1 37
       1.0739382e-05 2.0356756e-06 -1.2440541e-05 2.114767e-05
000020 53 80 1c b7 72 5b 8c b7 a3 ef e0 36 38 b5 d7 b7
       -9.328202e-06 -1.6731883e-05 6.7036176e-06 -2.5714384e-05
000030 ba 1a 88 38 c1 9a 2a 35 c8 9d 3a b6 4a 11 3b b7
       6.4899636e-05 6.355513e-07 -2.7808e-06 -1.1150094e-05
000040 9a ae 11 b8 6e a7 75 b6 79 32 40 38 19 a9 6c 33
       -3.4733304e-05 -3.6605302e-06 4.5823374e-05 5.5101825e-08
000050 66 3a 1d 38 a1 dd 67 37 16 58 43 b7 d0 fd 42 b7
       3.7486105e-05 1.3820275e-05 -1.1643415e-05 -1.1622396e-05
000060 a3 32 b3 b7 ca b2 f1 36 5a e6 01 31 2c 4b 56 37
       -2.1362042e-05 7.2031735e-06 1.890291e-09 1.2772896e-05
000070 52 99 17 35 06 48 9c 36 65 29 8e b7 23 f8 27 b8
       5.6474994e-07 4.657547e-06 -1.6946995e-05 -4.0046998e-05
000080 fc fe fe 35 8e 0b 90 36 a7 37 06 b7 fb f2 85 35
       1.8998685e-06 4.2928796e-06 -7.99998e-06 9.979989e-07
000090 53 54 fb 37 9e 3b 27 b7 20 5d 31 b7 bd 30 0c 2b
       2.9960798e-05 -9.967856e-06 -1.05717045e-05 4.980563e-13
0000a0 d7 19 87 b7 3c a8 a7 b6 fc e9 0f 37 69 3d 51 b7
       -1.6105287e-05 -4.996573e-06 8.577943e-06 -1.2471669e-05
0000b0 14 38 fc 36 04 10 e7 37 cf 63 94 b6 9c 57 ef b5
       7.5167136e-06 2.7544804e-05 -4.422363e-06 -1.7832385e-06
0000c0 84 ca 59 37 9a e0 66 36 ed 19 92 b7 59 1c 8f 37
       1.298136e-05 3.4403406e-06 -1.7416629e-05 1.7060129e-05
0000d0 22 91 cc 36 27 53 1a b6 c8 3d 9e 33 ce 8a cf b6
       6.0965695e-06 -2.299619e-06 7.368686e-08 -6.1852397e-06
0000e0 86 32 32 b8 10 9a 6e 33 81 92 de b2 e5 d9 19 b5
       -4.248556e-05 5.5553812e-08 -2.5910824e-08 -5.731402e-07
0000f0 15 cd 89 37 25 29 63 37 4e 50 d7 b7 06 c1 a0 36
       1.6427171e-05 1.3539834e-05 -2.5667392e-05 4.7908425e-06
000100 64 0e 66 34 95 68 1c b7 40 62 6d 33 81 33 88 b5
       2.1425654e-07 -9.3226745e-06 5.527022e-08 -1.0147779e-06
000110 0d 3d 9f 37 98 13 41 b8 38 62 e3 b6 b5 97 e3 b4
       1.8982706e-05 -4.6033034e-05 -6.7765613e-06 -4.2392426e-07
000120 45 c3 f5 b6 3c f8 8c b8 e6 6d 88 37 20 6a 0f 38
       -7.3243014e-06 -6.7219575e-05 1.6263639e-05 3.4192693e-05
000130 96 c0 12 b8 56 70 39 b7 4e ec 16 b8 43 7c 06 b8
       -3.4988472e-05 -1.10530145e-05 -3.5982863e-05 -3.2063817e-05
000140 04 89 63 37 76 24 80 37 d6 5f 17 37 e1 88 bb 34
       1.3562156e-05 1.5275768e-05 9.022615e-06 3.4931057e-07
000150 5d 95 f1 b5 16 f4 7b b8 d5 1a 74 36 09 df c1 b7
       -1.799937e-06 -6.0070386e-05 3.6374452e-06 -2.3111252e-05
000160 8d 27 01 37 ca ee 7a 36 c3 b4 31 33 c5 33 ee b6
       7.698208e-06 3.7391897e-06 4.1375426e-08 -7.0989795e-06
000170 aa 9e 18 36 88 d2 ba b6 ba 44 e7 36 a5 c9 1d 37
       2.274212e-06 -5.567741e-06 6.8923373e-06 9.404878e-06
000180 cc 03 61 37 aa 77 7b 34 08 db 13 36 f9 66 2a b4
       1.3411929e-05 2.341973e-07 2.20322e-06 -1.5869945e-07
000190 97 0e 85 37 31 65 6f b7 43 5b f2 b7 50 25 ed 36
       1.586163e-05 -1.4269071e-05 -2.8891145e-05 7.067494e-06
0001a0 8f 63 32 b8 3f a0 a0 36 62 32 df 37 00 71 29 b7
       -4.253123e-05 4.7870267e-06 2.6607133e-05 -1.0099495e-05
0001b0 03 e1 c0 b7 0f 98 72 b8 70 98 24 38 6e b2 85 b5
       -2.2992963e-05 -5.783891e-05 3.9242615e-05 -9.961202e-07
0001c0 a7 ac 64 38 e9 f6 93 36 e9 ee d0 37 9e 43 4b b8
       5.452023e-05 4.4096855e-06 2.4906783e-05 -4.8461945e-05
0001d0 7c 32 af 37 83 91 d3 b5 5e c5 4b b7 c7 61 48 37
       2.0885134e-05 -1.5763075e-06 -1.2145696e-05 1.19436945e-05
0001e0 e9 26 08 b7 24 cd 0b b3 b3 28 19 b8 90 c4 81 36
       -8.115291e-06 -3.2550034e-08 -3.6515947e-05 3.8673825e-06
0001f0 da 07 ec b2 6b 3b d1 35 41 58 0f 38 fa da 29 b8
       -2.7477586e-08 1.5589006e-06 3.417605e-05 -4.0496678e-05
000200 f6 88 8c b8 58 e4 71 b6 a2 59 9b 2b 37 99 95 b5
       -6.701231e-05 -3.6044712e-06 1.103829e-12 -1.1145956e-06
000210 a2 89 c0 33 22 f2 76 b7 70 64 ef b6 cf 3e f4 b4
       8.965732e-08 -1.4719119e-05 -7.1344475e-06 -4.549424e-07
000220 88 0a 65 b7 54 73 b5 37 91 50 e7 b7 06 56 05 b8
       -1.3651916e-05 2.1630585e-05 -2.7574863e-05 -3.1789787e-05
000230 5d 63 0f b7 0a 83 c3 b4 6c 7c 48 36 01 fc 96 b6
       -8.546599e-06 -3.6416924e-07 2.9874745e-06 -4.4996855e-06
000240 4e d9 05 38 77 05 53 37 6b da 95 b7 93 20 3b b7
       3.191205e-05 1.2577852e-05 -1.7863893e-05 -1.1153653e-05
000250 b4 8a 90 37 3c 62 cb 37 42 f3 8f b6 d8 37 73 36
       1.7230726e-05 2.424523e-05 -4.290051e-06 3.6242327e-06
000260 b8 86 d3 37 d8 58 d7 b7 1f f8 15 b7 18 f9 44 b8
       2.5215893e-05 -2.5671368e-05 -8.938862e-06 -4.6962028e-05
000270 22 f1 b6 37 ec e0 a0 b6 ac 5c d9 37 c5 f5 4e b8
       2.1808377e-05 -4.794556e-06 2.591157e-05 -4.9343118e-05
000280 5e 5d 75 35 fa e7 c0 35 a2 38 cd 33 0b d7 e5 b7
       9.140548e-07 1.4372629e-06 9.556358e-08 -2.7399064e-05
000290 b1 92 69 b8 75 08 95 b7 81 12 89 b6 b7 b4 f8 b7
       -5.5688146e-05 -1.7766122e-05 -4.0850723e-06 -2.9648056e-05
0002a0 3b 14 e7 b3 09 43 63 b6 d6 1d 93 37 68 9d 93 33
       -1.07604556e-07 -3.3864656e-06 1.7537659e-05 6.873853e-08
0002b0 76 7a 0f b7 d3 12 84 36 80 d3 62 38 b1 9a 8e 37
       -8.551977e-06 3.936098e-06 5.4079574e-05 1.6999753e-05
0002c0 53 09 48 b8 8f 61 a9 35 c6 78 f3 b4 bb a4 1e 31
       -4.76924e-05 1.2619874e-06 -4.535015e-07 2.3085664e-09
0002d0 05 9e 0a 37 be f5 da 36 dd 1a 56 37 3c 9f 27 37
       8.262233e-06 6.5255144e-06 1.2761649e-05 9.99105e-06
0002e0 32 dd 7e 37 b7 6d cf b6 c9 7d e3 b6 cd 40 f4 37
       1.5191081e-05 -6.181853e-06 -6.7797705e-06 2.9117242e-05
0002f0 0a 65 8d b8 c9 84 e4 b6 e2 fd 2d 37 ff f7 bd 37
       -6.742224e-05 -6.8103877e-06 1.0370715e-05 2.2646038e-05
000300 9f 48 b0 b3 4c 28 c8 37 99 49 96 b6 c4 93 12 38
       -8.2088484e-08 2.3860623e-05 -4.4789163e-06 3.494673e-05
000310 cb 06 c8 37 16 5f 1d b6 7b 23 05 b6 5a c5 38 b7
       2.3845021e-05 -2.345017e-06 -1.9839197e-06 -1.1013204e-05
000320 06 90 af 37 f9 19 dd 37 89 cf dd b6 54 ac c9 36
       2.0928692e-05 2.6357347e-05 -6.6104735e-06 6.0103284e-06
000330 23 d3 72 b7 76 e5 5c 38 90 cf 73 b8 7d 0a 62 32
       -1.4473483e-05 5.266579e-05 -5.8129022e-05 1.3157316e-08
000340 b9 01 24 37 7e 13 16 35 86 2d e6 b6 9b 84 a4 37
       9.775563e-06 5.590772e-07 -6.859834e-06 1.9612073e-05
000350 d2 d2 2c b8 92 e1 a7 b1 d8 03 e2 b6 78 12 08 37
       -4.1204337e-05 -4.885984e-09 -6.7357723e-06 8.110532e-06
000360 ee 9b 8a b4 52 88 93 37 13 e1 01 b7 8f f2 92 b7
       -2.5817957e-07 1.7587245e-05 -7.741403e-06 -1.7517506e-05
000370 74 50 b4 34 61 77 f4 37 a3 71 68 b7 e1 92 40 b8
       3.358615e-07 2.9142657e-05 -1.3854736e-05 -4.591316e-05
000380 44 ca 1a b7 c7 d6 01 b7 01 9a c7 36 85 2e 3f b7
       -9.226209e-06 -7.739006e-06 5.9485906e-06 -1.1395318e-05
000390 d8 45 0a 36 83 b5 8b b8 81 62 74 35 76 11 e5 36
       2.0604257e-06 -6.661846e-05 9.1040425e-07 6.8267645e-06
0003a0 e2 5f 8d b5 03 d6 ef b3 74 21 1b b6 7e a8 22 b6
       -1.0533224e-06 -1.1168233e-07 -2.3116272e-06 -2.4237956e-06
0003b0 ba 20 15 37 a9 dc fc 37 19 19 83 b7 42 56 27 37
       8.888712e-06 3.0143494e-05 -1.5628104e-05 9.974059e-06
0003c0 3e 34 b5 b7 b6 a7 6b 38 78 66 fb b6 4b 37 ee 35
       -2.1601209e-05 5.618456e-05 -7.492312e-06 1.7748474e-06
0003d0 65 d2 0e b7 d5 d2 7c 37 1f c9 9b b6 48 a0 20 38
       -8.512846e-06 1.5069459e-05 -4.6427735e-06 3.8296246e-05
0003e0 69 aa 68 b6 55 a0 6a b7 6f 03 71 37 46 81 d7 b6
       -3.4669886e-06 -1.3984817e-05 1.4365519e-05 -6.4225487e-06
0003f0 85 8e 7b 36 b0 62 f8 35 6d 0b ba 37 71 d1 9d b7
       3.7484872e-06 1.8506162e-06 2.2178248e-05 -1.8813387e-05

model.1.weight f4 [512]
000000 54 68 59 3f 6d 21 a0 3e 5b c5 58 3f 55 5f ee 3e
       0.8492482 0.31275502 0.8467614 0.46557108
000010 43 b0 34 3f a8 0b af 3e 68 08 53 3e b8 37 7b 3f
       0.70581454 0.3418858 0.20608675 0.98131895
000020 ca 98 3e 3e cc 95 aa 3f 18 b4 f9 3e e9 e7 29 3f
       0.18612972 1.3326964 0.48770213 0.6636949
000030 97 ae 44 3f d6 df 3f 3e 3a af d4 3d ec 87 23 3f
       0.768289 0.1873773 0.10384984 0.63879275
000040 b1 9c f3 3e 50 7b ee 3e a7 e5 9c 3f be 56 46 3e
       0.47580484 0.46578455 1.2257584 0.19369027
000050 5c 98 2d 3f 23 a3 f6 3e f4 31 2a 3f df d5 2a 3f
       0.67810607 0.48171338 0.6648247 0.6673259
000060 1b 9c 06 3f 9b 59 09 3f bd b3 9d b8 df 9a b7 3e
       0.5258195 0.5365235 -7.519822e-05 0.35860345
000070 48 39 2f 3f 5d ad 06 3f e7 db 1b 3f b2 c6 03 3f
       0.6844678 0.5260828 0.6088242 0.5147506
000080 f4 27 7c 3e 10 ae e3 3e 9a f4 c3 3e 08 84 a2 3e
       0.24624616 0.44468737 0.38272554 0.31741357
000090 7e 0c 2e 3f db 86 d7 3e 46 a4 4e 3f 9e ab 5a 37
       0.6798781 0.42095074 0.8071941 1.303377e-05
0000a0 4b 9a 2f 3f eb 68 a0 3d e5 f8 aa 3f ef d3 07 3f
       0.6859481 0.078325115 1.3357207 0.5305776
0000b0 b1 11 b3 3e 2b 87 1b 3f 61 7e 8d 3e 7c 34 96 3e
       0.34974435 0.60753125 0.27635482 0.29336917
0000c0 26 13 4f 3f 67 e5 29 3f 7a 01 1f 3f d8 0b 24 3f
       0.80888593 0.66365665 0.6211163 0.6408057
0000d0 81 bc fd 3e d5 25 aa 3f fc fa 22 3c ab 4f a6 3e
       0.4955788 1.3292795 0.009947535 0.32482657
0000e0 5a de 3f 3f 78 21 a1 ba 4e e8 e4 3e b2 80 ab 3c
       0.74948657 -0.00122933 0.44708484 0.02093539
0000f0 52 b0 e7 3e 0a 0d 15 3f 74 1d 17 3f 2d 1d 13 3f
       0.4525171 0.5822302 0.59029317 0.57466394
000100 04 f7 d0 bb de d6 ac 3e 56 fb 17 3c 4c f2 19 3f
       -0.006377103 0.3375768 0.009276232 0.6013534
000110 e3 ab 1e 3f e6 fa 23 3f 96 78 56 3f 92 20 58 3d
       0.6198103 0.64054716 0.8377775 0.052765436
000120 4f 76 5c 3e 65 22 30 3f 7c 7e 0f 3f 75 e9 1e 3f
       0.21529506 0.6880248 0.56052375 0.6207498
000130 f5 47 13 3f 13 6d 83 3e f1 98 4f 3f f3 74 49 3f
       0.5753167 0.25669155 0.81092745 0.78694075
000140 63 7a fd 3e a1 9e 18 3f f3 f9 26 3f 69 36 1f bc
       0.49507436 0.5961705 0.6522514 -0.009717562
000150 19 e1 09 3d d0 ef 50 3f 00 cc 0a 3f 0b 79 27 3f
       0.033661935 0.81615925 0.5421753 0.6541907
000160 1e 81 e3 3e f7 c6 0d 3f 76 41 2a 3f 47 84 06 3f
       0.44434446 0.5538172 0.66506135 0.5254559
000170 87 66 3e 3f d7 20 01 3f 85 7a 53 3f 0d ba 29 3f
       0.74375194 0.50440735 0.82608825 0.66299516
000180 2c 76 fd 3e 02 08 06 3f 5e 5c c9 3e cd 73 24 3c
       0.4950422 0.5235597 0.39328283 0.010037375
000190 16 a2 0b 3f cf b3 1b 3f 6a 95 1e 3f 9c 26 2e 3f
       0.545442 0.6082124 0.6194674 0.68027663
0001a0 58 db 8f 3f a1 28 37 3f 88 6b d5 3e 6b 2e 0c 3f
       1.1238813 0.7154637 0.41683602 0.5475833
0001b0 8e e0 1a 3f 96 d4 20 3f 11 94 7b 3f 1d ff 04 3f
       0.60498893 0.6282438 0.98272806 0.5195177
0001c0 18 ef 35 3f 6c 32 16 3f 88 bb 5c 3f 42 e1 22 3f
       0.71067953 0.5867069 0.8622365 0.63624966
0001d0 cf bb 23 3f aa f6 97 3e 17 47 31 3f f8 25 76 3e
       0.6395845 0.29680377 0.692491 0.24037921
0001e0 14 98 f8 3e d1 3c 21 3b ee 87 35 3f 75 5c 16 3e
       0.48553526 0.00246029 0.7091054 0.14683707
0001f0 60 59 59 3b 5f 38 e2 3e 28 9e 11 3f 93 bd 1b 3f
       0.0033164844 0.44183633 0.5688195 0.6083614
000200 71 02 2e 3f bd 91 0a 3f 53 cb 98 37 e7 dd 16 3f
       0.67972475 0.5412863 1.8214492e-05 0.58932346
000210 ad 7b eb 3e 66 6b 4d 3f ac 97 21 3f dd 8b f3 3c
       0.45992795 0.80242 0.6312206 0.029729778
000220 49 8d 2c 3f e4 de 17 3f 47 2d 63 3f 4e 0b 8a 3f
       0.67403084 0.5932448 0.8874096 1.07847
000230 92 af ce 3e 62 38 a0 bb 96 6d e7 3e 30 1a f3 3e
       0.40368325 -0.004889534 0.45200795 0.47480917
000240 1b ec 23 3f 59 33 15 3f 04 df 64 3f be a2 d9 3e
       0.64032143 0.58281475 0.89402795 0.42506975
000250 23 5c b7 3e 1c e4 9c 3f af 42 17 3f ac 87 8e 3e
       0.35812482 1.2257113 0.59086126 0.27837884
000260 86 9a 15 3f 21 29 6d 3f 45 30 0d 3f e5 3e 94 3f
       0.5843891 0.9264088 0.5515178 1.1581694
000270 81 31 14 3f ad b8 8b 3f e4 0c 42 3f 65 61 43 3f
       0.57888037 1.0915734 0.7580092 0.7632049
000280 88 8e 1d 3e 71 4b 9e 3d c5 ad 1d 3f c5 7b 01 3f
       0.15386403 0.07729233 0.61593276 0.5057948
000290 16 f7 07 3f e5 b1 dd 3e dd a6 3c 3f df bf 12 3f
       0.531114 0.43299785 0.73692113 0.5732402
0002a0 27 51 b8 3b 37 6a 33 3f 74 f4 1b 3f 5e 04 48 3e
       0.0056249085 0.70083946 0.6091988 0.19532916
0002b0 0c 27 22 3f ed ba 21 3f 6a 6d 12 3f a0 78 7b 3f
       0.6334083 0.6317585 0.571982 0.98230934
0002c0 bd 32 5a 3f 1c d1 02 3d d0 bd 58 3b 6b 52 f9 38
       0.8523367 0.031937703 0.0033072121 0.00011888597
0002d0 25 d5 e2 3e af 3e 9e 3e 96 01 35 3f 06 d1 29 3f
       0.4430324 0.309072 0.70705545 0.6633457
0002e0 7b d4 fb 3e d4 a9 3b 3f fb 40 17 3f 86 56 47 3f
       0.49185547 0.7330601 0.5908353 0.778664
0002f0 4e b4 5d 3f c4 02 0c 3f c5 c4 2f 3f 6a bf 0e 3f
       0.8660325 0.5469172 0.6865962 0.55760825
000300 01 ee 20 3f e4 57 84 3f ac 01 12 3f 77 21 52 3f
       0.62863165 1.0339322 0.570338 0.82082313
000310 d4 d6 25 3f 54 04 7d 3f 33 be 5c 3e 15 69 1d 3f
       0.64780927 0.9883473 0.2155693 0.6148847
000320 2a 31 59 3f 64 55 8b 3f a6 b4 1c 3f 8a 7f 5c 3f
       0.84840643 1.0885434 0.6121315 0.8613211
000330 c0 79 43 3f c6 86 47 3f d9 fa 2f 3f 3d 24 aa 3a
       0.7635765 0.7794002 0.6874214 0.001298077
000340 7e 48 00 3f e2 75 b1 3d b2 e8 3e 3f d8 a7 f9 3e
       0.50110614 0.086650625 0.74573815 0.48760867
000350 c4 5a 20 3f 98 53 c1 39 c1 0f 50 3e ca c4 02 3f
       0.626385 0.0003687411 0.2031851 0.51081526
000360 80 19 0c 3f 1e 8f 1e 3f 73 99 00 3f 8a 5b 48 3f
       0.5472641 0.6193713 0.50234145 0.7826468
000370 76 4d 75 3c 4b 51 19 3f 61 26 33 3f 74 1b 74 3f
       0.014972081 0.5988967 0.69980437 0.9535439
000380 c0 64 2b 3f cb 19 be 3e cd 5b 16 3f 5b 4a 38 3f
       0.6695061 0.37129053 0.58733827 0.7198846
000390 88 20 14 3e a1 42 77 3f 9d fa 59 3e e2 13 36 3f
       0.14465535 0.9658604 0.21287008 0.7112409
0003a0 7e e8 13 3e 67 95 02 3b e7 e6 1e 3f 26 1e d6 3e
       0.14444157 0.0019925477 0.6207108 0.41819876
0003b0 6b d2 0a 3f f7 49 5a 3f b5 21 50 3f a4 a1 0f 3f
       0.5422732 0.8526911 0.8130143 0.5610602
0003c0 8b 9c fc 3e 47 cc 38 3f 24 3d 33 3f ab 3f 28 3e
       0.49338183 0.721867 0.7001517 0.16430537
0003d0 2f 3c 1b 3f a8 5a 9e 3e 2f ae 45 3f 32 74 08 3f
       0.6063871 0.3092854 0.7721891 0.533023
0003e0 af ec 50 3f 51 5f 60 3f 88 ce 43 3f 18 64 d4 3e
       0.8161115 0.8764544 0.76487017 0.41482615
0003f0 40 34 24 3f 51 46 39 3f 4d 87 1d 3f e0 05 11 3f
       0.6414223 0.7237292 0.6153458 0.5664959

model.1.bias f4 [512]
000000 68 e7 1b be 8c 30 33 be f9 43 02 bd eb f1 3a be
       -0.15224993 -0.17498988 -0.031803105 -0.18256347
000010 80 ec 16 be 17 04 21 be 7e f5 c8 bd a3 f2 9b be
       -0.14738655 -0.15724216 -0.09812449 -0.30458555
000020 6b c5 1e bd 6b be f9 be f1 89 95 be ce 8d 23 be
       -0.03876249 -0.4877809 -0.29206803 -0.15972063
000030 6e ef f7 bd 75 58 cb bd f6 ce 1f be 0b 7d 87 be
       -0.121062145 -0.09928981 -0.15606293 -0.26462588
000040 e5 cc 14 be 2a 3e 83 be 8d 35 03 bf 2f 5c 1a be
       -0.14531286 -0.25633365 -0.51253587 -0.15074228
000050 9b 8f 07 be f8 bc b7 bd f0 b4 10 be ab 41 76 be
       -0.13238375 -0.0897159 -0.14131522 -0.24048488
000060 67 b7 2e be 9e 99 1f be f7 7c 88 bb 0d 4b 33 be
       -0.1706215 -0.15585944 -0.0041652876 -0.17509098
000070 a1 1d 6b be 56 57 72 be c0 4e 3d be 8b 9e 3d be
       -0.22960521 -0.23666129 -0.18487072 -0.1851751
000080 4c ab 91 bd 16 ed 4f be 34 fb 9f be a6 53 33 bd
       -0.071127504 -0.20305285 -0.3124634 -0.043780945
000090 b4 95 32 be 7d 0c 1b 3e f5 84 77 be eb 9c c7 34
       -0.1743992 0.15141483 -0.24171813 3.718081e-07
0000a0 84 95 6c be 00 9e 54 bd 6f 90 13 bf f0 96 81 be
       -0.2310391 -0.051908493 -0.57642263 -0.2531047
0000b0 df a8 b5 bd 15 62 3c be e7 c2 65 bd 63 75 49 be
       -0.088701 -0.1839679 -0.056094076 -0.19673686
0000c0 e8 bb 75 be 0a 0b 43 be 3e 30 c1 bd b8 1d 87 be
       -0.23997462 -0.1904718 -0.094330296 -0.2638986
0000d0 f6 61 84 be e1 12 11 bf b7 22 fe bc db 73 58 bd
       -0.25855988 -0.5666943 -0.031022413 -0.052844863
0000e0 c0 21 70 be 42 5f c4 bb 5b 29 9b be 15 3f f6 3d
       -0.23450375 -0.005992801 -0.3030499 0.12023751
0000f0 83 b2 11 be 98 dc 36 be 24 8f 6d be 8d d4 02 be
       -0.14228253 -0.17857587 -0.23199135 -0.12776394
000100 01 3f 37 bd 8a c4 23 be 7c 36 6d 3c 4a df 3e be
       -0.04473782 -0.15992942 0.014478322 -0.18639866
000110 b4 76 22 be 41 fb 93 be 21 28 07 be 2e ed 88 bc
       -0.15865594 -0.2890263 -0.13198902 -0.016714659
000120 27 95 25 be 93 8f b9 bd 44 48 09 be 98 05 16 be
       -0.16170178 -0.09060588 -0.13406473 -0.14650571
000130 ee 11 04 be 72 4e 5c be b9 15 c1 bd 6f a0 a0 be
       -0.12897465 -0.215143 -0.094279714 -0.313724
000140 52 18 2e be 54 e3 98 be 7f 47 b4 be 55 be c0 3d
       -0.17001465 -0.29860938 -0.35210797 0.09411303
000150 53 42 64 bd c6 54 b2 bd 97 1a f2 bd af f5 33 be
       -0.055727314 -0.087075755 -0.11821478 -0.1757419
000160 ab 74 98 be d8 f9 15 be 18 88 41 be 8c 7e ae be
       -0.2977651 -0.14646089 -0.18899572 -0.34080923
000170 d7 2e ab be 85 d2 8c be 5c 81 24 be d7 6f 4c be
       -0.33434173 -0.27504364 -0.16064972 -0.19964539
000180 d8 9c 50 be bd a1 cd bd 40 e9 3c be ae 33 b0 bc
       -0.20372331 -0.10040615 -0.18448353 -0.021509018
000190 a0 e1 a6 be fe a9 92 be 5a d3 12 be f1 17 15 be
       -0.32594013 -0.2864532 -0.14338437 -0.14559914
0001a0 e5 be c4 be d8 79 3c be b6 1b 2e be 7d 1a a0 3d
       -0.3842689 -0.18405855 -0.17002758 0.07817552
0001b0 aa a1 91 be 63 91 10 be ce d2 8f be 74 c3 06 be
       -0.28443652 -0.1411796 -0.2809052 -0.13160497
0001c0 bd 16 99 be 2d fb ed bd a4 9b 3f be 50 a1 08 be
       -0.2990016 -0.116201736 -0.18711716 -0.13342786
0001d0 fc f7 89 bd d4 4a 53 bd 0a c9 88 bd 08 3a a9 be
       -0.067367524 -0.051585034 -0.0667897 -0.33052087
0001e0 70 99 64 be 06 a7 ef ba 82 23 81 3d d6 6c 5d be
       -0.22324157 -0.001828403 0.06305601 -0.21623549
0001f0 60 d2 16 be d8 99 51 3d bc ce 19 be 45 76 fd bc
       -0.14728689 0.051172107 -0.15020269 -0.030940184
000200 9a 3c d5 be ae 90 38 be 91 09 06 b6 68 8d b4 be
       -0.41647798 -0.18023941 -1.9973124e-06 -0.35264134
000210 34 29 df bd 4f 91 09 be f0 54 2b be 2e ee 40 bd
       -0.10896531 -0.13434337 -0.1673162 -0.047102146
000220 88 df e4 bd 86 7b 50 be 1e 50 84 be bb 62 a7 be
       -0.11175448 -0.2035962 -0.25842375 -0.32692513
000230 37 47 59 be 43 01 06 be cb 02 b3 be 31 68 48 be
       -0.21218573 -0.13086419 -0.34963068 -0.19570996
000240 2e 31 98 be ad 4d 4f be 09 02 b7 be c2 fe 47 be
       -0.2972502 -0.20244475 -0.3574374 -0.19530776
000250 7c b7 e8 bb 6a c0 0f bf f5 22 ea bd ef ab fd bd
       -0.007101951 -0.56152976 -0.11432449 -0.12386309
000260 70 2d 58 be b2 46 1a be d6 b1 22 be e1 f7 ed be
       -0.21111083 -0.1506603 -0.15888152 -0.4647818
000270 97 f5 20 be 4f 43 d5 be cc 6e 9f bd 13 f4 50 be
       -0.15718685 -0.41652915 -0.07784805 -0.20405607
000280 a8 87 06 be 03 c1 e5 bd ff 03 7b be 04 42 85 be
       -0.13137686 -0.11218455 -0.24513243 -0.26026928
000290 44 70 3c bd 14 99 ec bd 5f 6d 71 be 08 94 c4 bd
       -0.046005502 -0.11552635 -0.23576878 -0.09598547
0002a0 77 9b 51 bc ba 08 33 be c9 34 02 be 15 6c 64 be
       -0.012793413 -0.17483798 -0.12715448 -0.22306855
0002b0 e7 e4 1c be 74 f6 ef bd f9 8a a9 be 73 0e 93 be
       -0.15321694 -0.11716929 -0.3311384 -0.2872196
0002c0 6b 96 62 be 82 fc 4e be 7a 63 c5 3d 96 85 bf 3a
       -0.22127692 -0.20213512 0.09638114 0.0014611955
0002d0 0b 01 24 be ac 04 72 be 4d 70 39 be 38 b5 d7 bd
       -0.16016023 -0.23634595 -0.18109246 -0.105326116
0002e0 66 9e 6b be d7 ee 18 be 42 76 40 be 25 0f 6a be
       -0.23009643 -0.1493486 -0.18795112 -0.2285734
0002f0 8f 35 f4 bd e2 05 2c be 36 ae 09 be 22 98 89 be
       -0.11924278 -0.16799119 -0.13445362 -0.2687388
000300 c1 b3 9b be 40 b1 61 be 83 71 c8 bd be 12 61 be
       -0.3041058 -0.22040272 -0.09787276 -0.21979806
000310 94 b5 91 bd 21 b8 9a be 73 b5 98 bd 84 62 7a be
       -0.071147114 -0.30218604 -0.07456484 -0.24451643
000320 69 97 37 3b 2a 47 d4 be a8 83 9f be a4 68 b9 be
       0.0028013831 -0.41460544 -0.31155133 -0.36212647
000330 ad 81 75 be 74 a4 8f be 9f 44 28 be 17 8a 0e bc
       -0.23975249 -0.28055155 -0.16432427 -0.008699915
000340 5d 14 b4 bc 5b b7 05 be 3b 54 45 be 90 a1 38 be
       -0.021982366 -0.13058226 -0.19270413 -0.18030381
000350 c3 17 8a be 71 68 29 b9 2f eb 8b bd 35 05 89 be
       -0.26971254 -0.00016156003 -0.06831967 -0.26761785
000360 43 58 b5 bd 13 dd 2c be cd 1b 87 be c9 5d 82 be
       -0.08854725 -0.16881208 -0.26388398 -0.25462177
000370 76 7a 55 bd db 86 45 be 2a a8 77 be 7c 4d 80 bd
       -0.05211874 -0.19289725 -0.24185243 -0.06264779
000380 7d ef a1 be b7 7c a6 be 41 7b 99 be c6 54 75 be
       -0.31628028 -0.32517025 -0.29976848 -0.2395812
000390 17 c8 eb bd d1 db a3 3d 5d 36 f7 bd 59 f3 47 be
       -0.115127735 0.08000911 -0.12070916 -0.19526424
0003a0 d0 4d 19 bc 86 bd 57 bd 0f 33 17 be 6d d2 96 bd
       -0.009356931 -0.052670978 -0.14765571 -0.07364354
0003b0 74 62 92 be 08 27 6a be 47 0b 3b be bc 7c df bd
       -0.2859074 -0.22866452 -0.1826602 -0.10912463
0003c0 5b 1e 97 bd a5 b0 13 be 8c 56 5d be bc 25 40 bd
       -0.07378837 -0.14422853 -0.21615046 -0.046910986
0003d0 f5 af 33 be 85 f5 38 be 67 f7 70 be ef e6 46 be
       -0.17547591 -0.18062408 -0.23531877 -0.19424032
0003e0 54 18 b2 be f4 12 7f bd fb 05 43 be 29 53 06 be
       -0.34784186 -0.062273934 -0.1904525 -0.1311766
0003f0 c4 b0 86 be dc 68 81 be 6d a3 93 be e7 75 d9 bd
       -0.26306736 -0.25275314 -0.2883562 -0.10618191

model.1.running_mean f4 [512]
000000 e3 2f 78 bd e1 58 d0 3d 59 74 a3 bc 12 e2 04 3b
       -0.060592543 0.10173202 -0.01995294 0.002027635
000010 a8 57 6a bd 39 40 c3 3a 91 56 d7 3c 58 dd 0c 3d
       -0.0572125 0.0014896459 0.026286395 0.034390777
000020 96 68 13 bc f9 cf 82 bc e9 e6 74 3d 76 1a 18 3c
       -0.008997103 -0.01596831 0.059790526 0.0092836525
000030 b3 80 ad bd 02 fe 0a bd 07 2b af 3c 86 53 12 be
       -0.08471813 -0.033933647 0.021382822 -0.14289674
000040 65 74 8f bc 80 f2 0d 3c 08 23 da 3b c8 79 84 3c
       -0.017511556 0.008663774 0.006657008 0.016171351
000050 47 a4 58 bd 8b 9f a4 bc 4f ab 68 3b f6 c6 0e be
       -0.052891042 -0.020095607 0.0035502499 -0.13943085
000060 5b 62 d0 3d 08 fa 23 bd 06 eb 87 3c 89 b9 86 3b
       0.1017501 -0.04003337 0.01659156 0.004111473
000070 6a 58 ef bc db 4f 49 3d a0 9d cb 3d 4a f3 2b 3c
       -0.029216964 0.04914842 0.09942174 0.010495016
000080 0d 3c b8 bb 7e e3 10 3d 66 c3 92 bd 62 86 8b bd
       -0.005622393 0.035373203 -0.071661755 -0.06812741
000090 57 46 92 3d 5b 12 b1 bd 57 19 1d 3c 33 0d 06 b5
       0.071423225 -0.08646079 0.009588561 -4.99381e-07
0000a0 76 ee 93 bd 94 31 b8 3c a6 9b 1e bd 34 ad e4 3c
       -0.07223217 0.022484578 -0.038722657 0.027914621
0000b0 69 6f 96 bd fb 4e 8e bc 99 91 84 3b 96 d0 d2 bb
       -0.073454686 -0.017371645 0.004045677 -0.006433557
0000c0 c0 16 22 3d b8 74 2e 3d 8f f2 8c 3c 28 ca 03 bd
       0.039572477 0.04259178 0.017205505 -0.032175213
0000d0 11 08 8a 3d 3f 7e 22 bb 92 7c a2 bb a0 91 1b 3c
       0.0673982 -0.0024794487 -0.0049586976 0.009495169
0000e0 e8 6b 74 3d 63 26 9f ba 0d 9f 3f 3d d1 f6 7d bb
       0.05967322 -0.0012142177 0.046782542 -0.003875185
0000f0 e5 cd ce bd 14 8a a8 3d b8 d2 e1 3d 29 d4 b8 ba
       -0.10097865 0.08229461 0.110265195 -0.0014101315
000100 33 e6 59 bc 0d c2 b8 3c 40 da d3 3b ae a2 ce 3c
       -0.013299513 0.022553468 0.0064652264 0.025224056
000110 22 af 6c bd c4 68 d9 bd 00 04 26 3d 83 49 65 bc
       -0.057784207 -0.106156856 0.04053116 -0.013994577
000120 83 10 fe bc 02 0c 84 bd 84 e8 e9 3c 6a d9 f7 3d
       -0.031013733 -0.06447603 0.028553255 0.12102015
000130 6a 54 ab 3c 7b b9 ad 3b 5e da 66 3d b0 4c ae 3d
       0.020914275 0.005301652 0.056360595 0.08510721
000140 e3 d2 e1 3d c4 4f 3e 3c 16 2e ac 3d 5c 73 70 3c
       0.110265516 0.011615697 0.08407228 0.014675941
000150 af 04 37 3c 12 58 e8 39 71 d4 a4 bd c0 6c 2a bd
       0.01117055 0.00044316106 -0.080483325 -0.04160762
000160 56 e3 f4 37 64 28 78 3d 31 84 c5 3d e0 4b 55 3d
       2.9192928e-05 0.060585395 0.09644354 0.052074313
000170 4e 47 d1 3d 6e e7 8b 3d 9d b6 50 bc 14 be fd 3c
       0.102186784 0.06831251 -0.012738851 0.030974425
000180 f8 9d 17 bd 4c 5a 3c 3b bc 4f d8 bd fd 22 1f 3c
       -0.037015885 0.0028740345 -0.10562083 0.009712932
000190 1c 58 65 bc 79 63 a7 3d b5 7d 13 3d 58 80 a1 3d
       -0.013998058 0.0817327 0.036008555 0.07885808
0001a0 3b 10 7b bd 29 d0 52 bc 54 54 f5 bb 9a 1e 2e bd
       -0.061294775 -0.012867012 -0.0074868593 -0.042509653
0001b0 26 ef 98 bd 9c 4b a7 3d e1 83 1a bb 26 f8 f9 bc
       -0.07467489 0.08168718 -0.002357714 -0.030513834
0001c0 61 39 b6 bd f9 0b 8a bc 64 3a e3 bc ce e2 c2 3c
       -0.08897663 -0.016851412 -0.027737804 0.02378979
0001d0 7b 43 88 3c 2f 7f 71 3c 9b 5d d0 bc 4a 8d 75 3d
       0.01663374 0.014739796 -0.02543526 0.059949197
0001e0 f5 73 a9 3d c5 e4 f3 ba a7 82 fb bd 68 08 17 bc
       0.0827407 -0.0018607607 -0.12280779 -0.009218313
0001f0 1b f5 f7 ba 5c 6f 1a ba ca 60 61 3d 20 7d 64 3d
       -0.0018917652 -0.00058912276 0.055023946 0.05578339
000200 4f 93 57 3d c6 54 1d 3d 54 b4 39 b6 3c 4e fc 3d
       0.05263072 0.038410924 -2.7672113e-06 0.123196095
000210 99 35 65 3c 45 6b f8 bd 06 a4 9a 3d aa 47 f8 bc
       0.013989829 -0.12129835 0.07550816 -0.03030761
000220 fb 22 9a 3d c9 e4 15 bc 72 3c 6d bd 23 00 5f 3b
       0.07526203 -0.009148785 -0.057918973 0.003402718
000230 51 9b 62 bc 83 fa 1f 3b ce 99 49 3d c2 b5 fc 3d
       -0.013830976 0.0024410791 0.049218945 0.12339355
000240 45 b7 26 be 7e 32 5e 3d b0 53 15 bd 02 bd 97 bc
       -0.1628085 0.05424737 -0.036456764 -0.018522743
000250 4f b1 c1 bc cc 92 cd bc d7 6f 40 3d f5 ab 04 3d
       -0.023644118 -0.025094412 0.04698166 0.032390554
000260 74 9e 19 3d 69 64 81 3d 94 02 91 bc cd bd 0b bc
       0.03750463 0.0631798 -0.017701425 -0.008529139
000270 2c d2 86 3b 6a 1d b9 bc 2c d9 41 bc eb 9a 72 3c
       0.00411441 -0.022597034 -0.011831563 0.014807443
000280 f0 be 4e 3d ec 3f 88 3c 0a 70 25 bd ec c5 83 bc
       0.05047506 0.016632043 -0.040390052 -0.016085587
000290 f5 d8 9d bc 30 48 12 bd b1 23 87 3c a4 2a 0f bd
       -0.019268492 -0.035713375 0.016496511 -0.034952775
0002a0 bf d5 9b b9 d5 4a ba bb 12 84 ca 3c 57 8a 19 bd
       -0.00029723157 -0.00568519 0.02472118 -0.037485447
0002b0 bb 00 ea 3d 6f a1 08 bd 1b a8 64 bc 2a b4 e3 bb
       0.114259206 -0.03335708 -0.013956095 -0.0069489675
0002c0 06 c6 8e bd 9d 29 60 bb b7 12 30 bc fa 5a 3a bb
       -0.06971364 -0.003420449 -0.0107466495 -0.0028435574
0002d0 a0 8a 56 bc 4f 8a 82 3d 96 b1 e8 bb a1 77 3c 3d
       -0.013094574 0.063740365 -0.007101248 0.046012525
0002e0 f0 11 04 bb 5b 00 14 bc 2f 87 0e bd 3e 8d 75 3b
       -0.0020152293 -0.009033288 -0.03479689 0.003746822
0002f0 82 37 f2 3c ab 32 87 3c 2e 32 cc 3c 78 dd 93 bc
       0.029567484 0.016503653 0.024926271 -0.01804994
000300 05 a1 50 3d cf 7d a8 bc 23 44 65 bb e1 31 86 3d
       0.05093481 -0.020567803 -0.003498324 0.065524824
000310 c1 57 ec bc 2b c9 d3 bc 10 75 14 bd b4 c8 cb 3d
       -0.028850438 -0.02585276 -0.036244452 0.099503905
000320 1b ba 9f 3c 68 bc 97 3b f1 34 4a bd 4f 0b c2 3c
       0.019497922 0.004630614 -0.049366895 0.023687033
000330 2e c8 ff bd 50 f4 87 3d be 05 13 3d 5c 2a 5c ba
       -0.12489353 0.06638396 0.035894148 -0.0008398646
000340 9b b3 d2 bc 09 c8 23 bc 02 42 1e 3c 13 f9 28 bd
       -0.025720408 -0.009996423 0.009659292 -0.04125316
000350 d1 bd ef 3d 1a 12 1c b9 c2 7e 87 bd 70 cf b3 bd
       0.117061265 -0.00014884063 -0.06615974 -0.087798
000360 80 a5 9e 3c 82 cf 84 bd 12 2e 01 3d 39 7e 7e bd
       0.019366026 -0.064848915 0.031538077 -0.062132094
000370 3a 9f 85 bb d8 03 98 bc 49 be dc 3d c4 20 95 bc
       -0.004077819 -0.01855652 0.107784815 -0.0182041
000380 dc 5b 38 3d 78 7d 32 3d 0c 76 86 bd 50 cf 81 3d
       0.04500948 0.043576688 -0.065654844 0.0633837
000390 2b c6 28 3d 8c 48 78 3d 9d 6e 06 3c f9 3f 18 bd
       0.041204613 0.06061606 0.008205083 -0.037170384
0003a0 17 67 6a bb cd 21 94 3b 82 d3 28 bd fd 75 f0 ba
       -0.0035767013 0.004520631 -0.041217335 -0.001834571
0003b0 ad f1 8a bc 81 ba 23 3d d9 50 1a 3d ee a8 16 bd
       -0.016960943 0.039972786 0.03767476 -0.036782198
0003c0 be 3e 3f 3c 74 cb e5 3d ee e0 ba bc 38 9b 33 bd
       0.011672674 0.11220446 -0.022812333 -0.0438492
0003d0 fc f4 a7 bd a8 6a 51 bb a3 70 ae 3b 0a 18 38 3d
       -0.08201024 -0.0031954441 0.005323486 0.0449448
0003e0 a4 e5 f6 3b 1f ac 8c 3c 93 22 21 3d 87 f1 ef 3c
       0.0075346995 0.017171917 0.039339613 0.029289974
0003f0 03 b1 49 3c 64 b8 82 3c 85 21 7d bd 68 a7 b1 bd
       0.012310269 0.015957065 -0.061799545 -0.08674508

model.1.running_var f4 [512]
000000 b7 09 cd 3e 22 44 19 3e 9a ef 9d 3e bb e9 2c 3e
       0.40046474 0.14967397 0.30846864 0.16886036
000010 92 fb 93 3e fa 7b 1a 3e 64 07 a1 3d 1e c6 96 3e
       0.2890287 0.15086356 0.07862738 0.29448026
000020 35 ea 99 3d 4b f8 84 3e 37 5e 9a 3e 5f 0c 74 3e
       0.075153746 0.25970683 0.30150005 0.23832844
000030 4f 29 b6 3e 07 33 e0 3d 4c f2 88 3d 68 54 86 3e
       0.3557839 0.10947233 0.066868395 0.26236272
000040 db 1b 66 3e 4d f8 38 3e 88 b7 77 3e 6e 34 03 3e
       0.22471564 0.18063469 0.24191105 0.12812969
000050 8a c8 d1 3e 2a 13 c1 3d 50 4c b3 3e f0 50 4f 3e
       0.40973312 0.094274834 0.3501916 0.20245719
000060 ef 6d 55 3e c3 76 5f 3e 01 37 d5 3b 12 0a f1 3d
       0.20842718 0.21822648 0.006506801 0.11769499
000070 a8 a3 7c 3e 4e 31 83 3e 9b 67 94 3e 43 7f 83 3e
       0.24671805 0.25623554 0.28985295 0.2568303
000080 a5 bc 0a 3e 46 f0 87 3e 6a bb 33 3e cc ca 46 3e
       0.13548525 0.26550502 0.17551962 0.19413298
000090 7c 42 8a 3e bc e7 86 3e cb 4b c5 3e b7 cd 88 2f
       0.2700385 0.26348674 0.38534388 2.4884425e-10
0000a0 4f 36 28 3e 77 01 6d 3d e8 ee 5c 3e 12 56 4e 3e
       0.16426967 0.057862725 0.2157551 0.2015002
0000b0 b7 54 36 3e a3 70 7b 3e 34 97 1a 3e b6 67 d2 3d
       0.17805754 0.24554686 0.15096742 0.102736875
0000c0 17 52 df 3e 0c 01 87 3e 4e ea 9a 3e ec 87 8a 3e
       0.43617317 0.26367986 0.30256885 0.27056825
0000d0 d4 92 87 3e 53 72 af 3e f6 9a d6 3b 31 c3 0a 3e
       0.26479208 0.3426691 0.0065492345 0.13551022
0000e0 1c 40 05 3f 46 d7 3d 39 74 5a 86 3e 6e 05 8d 3c
       0.5205095 0.0001810464 0.26240885 0.017214503
0000f0 76 17 62 3e df 7d 8f 3e ca cd a1 3e 8f 2c 9c 3e
       0.22079262 0.2802572 0.31602317 0.30502746
000100 f0 ed 3e 3b a3 d2 53 3e ff 9f ae 3c 08 51 8d 3e
       0.002913352 0.2068582 0.021316526 0.27600884
000110 9b 35 83 3e 25 8a 92 3e 1e 19 aa 3e 4a 3f 2c 3d
       0.25626835 0.2862102 0.33222288 0.042052545
000120 76 ba e7 3d 0f f0 4b 3e de c7 99 3e 94 cc 8b 3e
       0.113148615 0.19915794 0.300353 0.27304518
000130 29 51 8b 3e 99 da d4 3d fd 99 86 3e 97 b9 96 3e
       0.27210358 0.10393257 0.2628936 0.2943847
000140 12 30 80 3e c3 47 95 3e 85 7d 9c 3e d9 a0 57 3c
       0.25036675 0.29156312 0.30564514 0.013160908
000150 ca c3 a6 3c fa 92 8a 3e db 11 8d 3e 0e 5c 87 3e
       0.020357031 0.2706526 0.27552685 0.2643742
000160 7f 69 31 3e 46 b4 9c 3e 8d 98 91 3e ce 8a ae 3e
       0.173254 0.30606288 0.284367 0.34090275
000170 ec 70 ef 3e 72 49 42 3e d4 8a e7 3e ad 69 75 3e
       0.4676584 0.1897333 0.45223105 0.23966093
000180 ba e1 5c 3e e2 f1 61 3e a0 34 56 3e ad a5 34 3c
       0.21570483 0.22064927 0.20918512 0.011025828
000190 cd dc 81 3e 96 4f 97 3e a4 5a 8e 3e be e9 d3 3e
       0.2536377 0.29552907 0.27803528 0.4138927
0001a0 e5 e4 eb 3e d8 5f 95 3e fd d9 60 3e 6c a1 84 3e
       0.4607307 0.29174685 0.21958156 0.25904405
0001b0 f4 fa 62 3e ad 7d 83 3e 3d e5 fb 3e ac 63 75 3e
       0.22166044 0.2568182 0.49198332 0.23963803
0001c0 43 e7 93 3e 1d e3 89 3e fa 87 82 3e 98 ae 7c 3e
       0.28887376 0.26931086 0.25494367 0.24675977
0001d0 02 33 9a 3e c7 50 0d 3e 24 6b bf 3e e2 1a 01 3e
       0.3011704 0.13800345 0.3738643 0.12607911
0001e0 c8 ca 50 3e 76 d1 8b 39 90 d3 95 3e cc b2 db 3d
       0.20389855 0.00026668207 0.29262972 0.10727462
0001f0 7d 32 1b 3c b2 61 2f 3e 4f e6 61 3e c7 82 7f 3e
       0.009472487 0.17127112 0.22060512 0.24952231
000200 5a 08 cc 3e 00 ae 88 3e b1 6f c0 31 f1 b9 7b 3e
       0.39850122 0.2669525 5.6006333e-09 0.2458265
000210 0c 5f 54 3e 03 6d 93 3e cd ee 91 3e 5a d7 e2 3c
       0.20739383 0.28794107 0.28502503 0.027690578
000220 45 96 5e 3e 4b fe 9e 3e 29 c3 06 3f ad 2d f9 3e
       0.21737011 0.31053385 0.5264154 0.4866766
000230 23 c3 28 3e 97 32 0d 3c 6c 64 55 3e 5d a8 86 3e
       0.16480689 0.008618019 0.20839089 0.26300326
000240 36 ce 85 3e 3a 15 67 3e 51 0e b7 3e da a0 6c 3e
       0.2613389 0.22566691 0.3575311 0.23108235
000250 36 70 40 3e 7b 93 33 3e 5d ae 58 3e a9 ad 13 3e
       0.18792805 0.17536728 0.21160264 0.14421715
000260 03 69 92 3e 7d ed b3 3e 51 fb 5a 3e dc 1e de 3e
       0.28595743 0.35142127 0.21384932 0.4338292
000270 d1 06 83 3e b0 2c c0 3e 38 94 9c 3e 26 6d 82 3e
       0.25591138 0.37534094 0.30581832 0.254739
000280 79 71 b3 3d f0 97 63 3d 8c ff 86 3e 4e 09 67 3e
       0.087618776 0.05556482 0.26366842 0.22562143
000290 0f f1 81 3e ae a7 67 3e f7 38 a2 3e 85 96 85 3e
       0.25379226 0.22622558 0.31684086 0.260914
0002a0 2d 64 c6 3a 57 f7 d2 3e 5b 18 8d 3e 25 31 f0 3d
       0.0015136056 0.4120433 0.27557644 0.117281236
0002b0 26 75 7d 3e 6f 5c b3 3e 24 13 70 3e 21 05 d8 3e
       0.2475172 0.3503146 0.23444802 0.42191413
0002c0 df 33 8d 3e ad ed b0 3c 43 4b 16 3c 60 a8 b0 3a
       0.27578637 0.021597708 0.009173217 0.0013477914
0002d0 34 49 46 3e 4b 93 42 3e a6 fa ac 3e ee 80 ab 3e
       0.19363862 0.190015 0.3378498 0.33496803
0002e0 bb da 5e 3e 7c 29 b3 3e 08 c4 6d 3e 9f 69 6e 3e
       0.21763127 0.34992588 0.23219311 0.23282479
0002f0 1a 00 a9 3e 8c 58 67 3e 40 e5 b0 3e 79 39 25 3e
       0.3300789 0.22592372 0.34549904 0.16135205
000300 0a 62 55 3e b1 51 2e 3e 06 76 73 3e 4e 84 ad 3e
       0.2083818 0.1702335 0.23775491 0.33890003
000310 b9 bf 8c 3e 4b 33 8b 3e ab 09 05 3e 64 2e a1 3e
       0.27490023 0.2718757 0.1299197 0.31480706
000320 19 40 87 3e 39 83 8a 3e 83 8d 78 3e 49 79 ff 3e
       0.2641609 0.2705324 0.24272732 0.4989722
000330 0b b5 86 3e d3 ba cf 3e dc 1b 57 3e 9f 6d 8b 3b
       0.2631 0.40572223 0.21006721 0.004255011
000340 c5 49 37 3e d5 32 90 3d c5 f3 a7 3e 57 bb 84 3e
       0.17899235 0.070409454 0.3280317 0.2592418
000350 54 3b 67 3e 5a 5d 80 38 16 ef f6 3d 1c 2b 81 3e
       0.22581226 6.120904e-05 0.12057321 0.25228202
000360 81 18 66 3e c3 21 78 3e bc 10 63 3e 64 c9 d4 3e
       0.22470285 0.24231629 0.22174352 0.415599
000370 af 2e f1 3b 21 02 91 3e 00 1c 81 3e 93 a0 b5 3e
       0.0073603014 0.28321937 0.25216675 0.3547407
000380 00 8e 7f 3e 7f fb 39 3e bf 87 80 3e 65 5a b1 3e
       0.24956512 0.18162344 0.25103566 0.34639278
000390 9a 7c bd 3d 0f 92 ab 3d 76 a6 ff 3d f8 0d 8c 3e
       0.092522815 0.08377468 0.12482922 0.27354407
0003a0 d3 e0 b8 3d 15 3a 73 3c c0 28 9b 3e 22 cd 5d 3e
       0.09027257 0.014845391 0.30304527 0.21660283
0003b0 ee 6f a0 3e e4 72 d2 3e b0 11 9b 3e 04 c4 6f 3e
       0.31335396 0.4110328 0.30286932 0.23414618
0003c0 04 3d 74 3e c5 4d ca 3e 71 51 8c 3e 14 ae d5 3d
       0.238514 0.39512458 0.27405885 0.104335934
0003d0 2e 52 4d 3e 92 21 da 3d 42 6e d1 3e 1e 41 4d 3e
       0.2005088 0.10650934 0.40904433 0.20044371
0003e0 1d 2b fd 3e d1 09 ce 3e 93 20 bc 3e bf 5b 5a 3e
       0.49446955 0.40241864 0.36743602 0.21324061
0003f0 04 46 a3 3e 9f 0f be 3e a0 ee a8 3e 26 3a 83 3e
       0.31889355 0.37121293 0.32994556 0.256303

model.4.weight f4 [256, 512]
000000 9e f7 70 bd 5c dd e3 3b ad de 79 bd 52 cf c3 3a
       -0.058829896 0.0069538783 -0.061003376 0.0014939106
000010 43 56 8b bd 42 d6 5d bc ed 86 5f bc 0b 0e 8d bd
       -0.068035625 -0.013539853 -0.013643009 -0.06887444
000020 bf 22 88 bb 6e 24 1b bc 03 00 2d 3c fd 30 55 bd
       -0.0041545327 -0.009469135 0.010559085 -0.052048672
000030 25 e5 21 bd df 1f 88 bc 98 8f ca 3b 50 c8 5d bc
       -0.03952517 -0.01661676 0.0061816685 -0.013536528
000040 3f 13 17 39 fd 08 1d bc a4 30 f2 bc 33 1b 9b 3b
       0.00014407652 -0.0095846625 -0.02956421 0.004733467
000050 41 40 78 3d 66 14 58 bc 93 ec 3f bd 5c ed 87 bc
       0.060608152 -0.013188457 -0.046856474 -0.016592674
000060 b3 b0 b6 3a 7b b6 2c bc 8e 12 b6 ba a1 5d f8 b8
       0.0013938159 -0.010541554 -0.0013891028 -0.00011843001
000070 be 17 11 bd fd b7 17 3d c0 22 98 bc bb 4f 00 3b
       -0.035423033 0.0370407 -0.018571258 0.0019578773
000080 5b b7 cf bc 26 36 32 bc de bd 8b bc df 2f f9 3a
       -0.025355985 -0.010877168 -0.01705831 0.0019011459
000090 16 9f ca bc eb df 01 bc a2 6b 94 bc f4 88 cc 34
       -0.024734061 -0.007926921 -0.01811773 3.8097608e-07
0000a0 e6 d2 d5 3c a9 2a 16 3c 2b cf 96 bd aa 95 ec bc
       0.02610154 0.009165444 -0.07363733 -0.02887996
0000b0 39 5d bb 3a af 63 1f bd 90 2c 1a 3c 72 2b b3 bb
       0.001429475 -0.038913425 0.009410039 -0.0054678256
0000c0 58 2e 82 bd 10 a7 19 b9 6c a7 26 3d 3d 40 44 bd
       -0.063564956 -0.00014653453 0.04068701 -0.047912825
0000d0 bc 48 87 3c 27 3f 8f bd e4 95 a6 bb e4 d6 ea bb
       0.016514175 -0.06994467 -0.0050837863 -0.0071667302
0000e0 8c 56 dd 38 c4 01 6b b8 b2 54 4b bc 69 f5 72 3c
       0.00010554222 -5.603001e-05 -0.01241033 0.014829018
0000f0 f6 ca d3 bb c1 21 2c bc 0f 29 3a 3b 18 6a 0f ba
       -0.006463404 -0.010506094 0.002840582 -0.0005470826
000100 0c d6 16 bc 45 96 04 3d b0 67 b0 ba 92 e0 9b bc
       -0.009206306 0.03236987 -0.0013458636 -0.019027982
000110 4f 71 e6 ba a2 b6 9e bc c1 42 0a bd ad c3 3a 3b
       -0.0017581376 -0.019374195 -0.033755068 0.002849798
000120 49 27 50 3c 97 d9 26 bd 02 53 03 bc f8 92 48 bd
       0.012704679 -0.040734854 -0.008015396 -0.048968285
000130 aa 20 16 bd 17 bf ee bc fe c4 39 bd 23 18 9c bc
       -0.036652245 -0.029143853 -0.045353882 -0.019054478
000140 c4 50 e8 37 8e 46 1e bd 63 53 11 3c f8 c4 22 3c
       2.7694165e-05 -0.038641505 0.008869979 0.009934656
000150 26 02 83 3b 03 ad 3e bd ef 8f c7 3c db f9 b3 bc
       0.003998059 -0.046551716 0.024360625 -0.021969726
000160 f8 d3 0e bc e4 1a 41 bd c3 8d a6 3c 9f 42 41 3d
       -0.0087175295 -0.047144786 0.02033127 0.047182675
000170 19 cc 2f 3c 59 6e 1a 3c f3 2d 8a bd 13 f9 3e bc
       0.010729813 0.009425723 -0.06747045 -0.011656064
000180 eb 09 81 bc 17 e7 45 bd 02 8b 41 3c 1e 93 74 bb
       -0.0157518 -0.048316088 0.011812927 -0.0037319134
000190 a4 50 48 bb 8f c5 70 bc 23 55 89 bc 31 41 bb 3c
       -0.0030565644 -0.014695539 -0.01676423 0.022858234
0001a0 2f 16 c0 bd f2 55 1c bd 77 b6 9d 3c 81 6f dc bc
       -0.09379231 -0.0381679 0.019252045 -0.026908638
0001b0 46 40 d1 ba b9 6a 64 bc 5d af c9 bd 5d 8a 18 bd
       -0.001596459 -0.01394146 -0.09847901 -0.03724133
0001c0 d1 46 96 bc 35 2f c4 bb f9 fe 67 bd 87 0e 6a bd
       -0.018344315 -0.005987073 -0.056639645 -0.05714276
0001d0 f0 01 19 bd e9 c3 d2 ba 70 51 82 bd 1c 60 0c 3c
       -0.037355363 -0.0016080114 -0.06363189 0.008567836
0001e0 5d 91 06 bd 5c 32 7b 3a 1a fe 95 3c 85 be 34 3b
       -0.032853473 0.0009582394 0.018309642 0.0027579379
0001f0 6b b8 07 3b ad c5 71 bc c8 6e 1c 3c 9e 5a e9 bc
       0.0020709287 -0.014756602 0.009547897 -0.028485592
000200 36 e3 2e 3d fc b0 12 bd dc fc 28 b4 ef b6 48 bb
       0.042697154 -0.035813317 -1.5738209e-07 -0.0030626615
000210 04 5f fe bc da c0 00 3d c2 b0 1d bc c8 58 1b bc
       -0.031051166 0.031433918 -0.009624662 -0.009481616
000220 01 92 6c bd cd 6c ab bc 9d 5f 9f bd 75 b2 39 bd
       -0.057756428 -0.020925904 -0.07781909 -0.045336206
000230 98 e9 2f bd a7 dc 47 3c 0f 2c 9a 3b 12 7f 7d 3c
       -0.04294738 0.012198604 0.004704959 0.01547219
000240 6e 40 d6 bc 80 a5 86 bb fe 6a 8f bd 7f bc 2a bd
       -0.02615377 -0.0041090846 -0.07002829 -0.04168367
000250 a7 6d ae bb 63 20 4e 3c e8 8d 40 bd 7d f0 47 bc
       -0.00532313 0.012580964 -0.047010332 -0.012203333
000260 b6 b4 21 bd 16 68 a4 bd b7 df ed bc 26 3d 92 bd
       -0.03947898 -0.08027665 -0.02903734 -0.071405694
000270 ce a3 0b 3d 68 a4 ab bd 59 6b 8e bc f3 29 01 bd
       0.034091763 -0.083809674 -0.017385172 -0.031534147
000280 0a 8e 01 3b fa 90 20 3c b0 81 e1 3b ef 44 f6 bc
       0.00197685 0.00980019 0.006881915 -0.030062167
000290 32 37 cf bc 0c c2 4c bc d8 5c 34 3b 9c 68 57 bc
       -0.025294874 -0.012497436 0.002752116 -0.013147499
0002a0 ce 52 48 3b 19 2d 6e bd c8 f0 65 bc e6 e9 47 bc
       0.0030566934 -0.058148477 -0.0140344575 -0.012201762
0002b0 79 ed 35 bd 24 9b 13 bc 5e 5b ec bb ed b3 d6 bd
       -0.044415925 -0.009009156 -0.0072130403 -0.10483537
0002c0 dc 60 5d bd bd 9c f3 3b d6 d2 98 3c 98 a1 d4 b8
       -0.05404745 0.007434456 0.018655222 -0.00010139047
0002d0 ac ae 20 bd 8b fe a4 3b 59 98 6b bd 73 5d c4 bc
       -0.03922908 0.0050352267 -0.057518337 -0.023970341
0002e0 97 fb 2d bd 3e 43 8d bc a1 92 6e 3c e7 38 8b 3c
       -0.042476263 -0.017243978 0.014561326 0.016994907
0002f0 f7 53 78 bd 40 e2 38 bc 63 ce 46 bd 2f ad ec ba
       -0.06062695 -0.011284411 -0.04853667 -0.0018056984
000300 52 4a 5f bb 03 1d d2 bb de 71 21 bd 17 58 d8 bc
       -0.0034071398 -0.00641215 -0.039415233 -0.026409192
000310 38 7c 9c 3a 2c dc 99 bd 66 b4 94 3a 71 c0 d6 3c
       0.0011938876 -0.075126976 0.0011345267 0.02621481
000320 aa 57 55 bd af ab d3 bc db 86 b3 bc a0 fc b0 bd
       -0.052085556 -0.025838701 -0.02191489 -0.086419344
000330 fd f3 04 3c 00 ca 30 bc 3b a7 9d bd f4 27 59 3b
       0.008114812 -0.010790348 -0.07697912 0.0033135386
000340 57 8e f5 bc aa 8b 01 3b 57 d5 3c bd a5 7f ac bb
       -0.0299751 0.0019767084 -0.046101894 -0.00526424
000350 34 b7 d0 3c 87 5a 09 b9 cb 2b 27 3c dc 36 37 3d
       0.025477983 -0.00013099062 0.010203312 0.044730052
000360 c8 8d d7 bc ea fa 4d bc 71 9b c4 3b a9 9d 06 bc
       -0.026312724 -0.01257203 0.0059999754 -0.0082163
000370 8f 4e 8f bb 6f 17 13 bd 64 4b 19 bd 8a d5 67 bd
       -0.0043733786 -0.03591102 -0.037425414 -0.05660013
000380 59 2f 13 bd 93 e9 95 bc da 38 ce 3c b6 5a 78 bd
       -0.035933826 -0.018299853 0.025173593 -0.060633384
000390 8e fc 13 bb cd d8 6d 3c 6e ed d1 bc c7 be ae bc
       -0.0022580954 0.014517021 -0.02562591 -0.021331204
0003a0 c7 21 ff bb ed 66 ba 3b f0 39 2b bc e8 d8 e5 ba
       -0.007786009 0.0056885392 -0.010450825 -0.0017535957
0003b0 c3 c2 83 bc ca 3e 78 bd 50 01 79 bd db c3 85 bc
       -0.01608408 -0.060606755 -0.060792267 -0.016328743
0003c0 3a c2 88 3c b0 a7 dc 3c 65 74 4a bd ca ac ce 39
       0.016694177 0.026935428 -0.04942741 0.0003942012
0003d0 3a 8d 00 bd 4d 6b f7 bc b4 cd ec bc 8f d7 7f bc
       -0.031384684 -0.030202532 -0.02890668 -0.015615358
0003e0 b3 5f 63 3d 00 80 6d bd 12 fe d2 bc 3c fd 8d 3c
       0.055511188 -0.0579834 -0.025755916 0.017332666
0003f0 b6 61 db bc 38 29 7f bd 39 c6 19 bd 7f 65 53 bb
       -0.02677999 -0.06229517 -0.037542555 -0.0032256541
