ml_service/best_mlp_model_weighted.pt (torch, 872609 bytes, 19 tensors)

model.0.weight f4 [512, 74]
0	0xbc4a254a	-0.012337992
1	0x3c9a7948	0.01885666
2	0x3cabe8dd	0.020985061
3	0x3c7eba5b	0.01554736
4	0x3c887831	0.016658874
5	0x3ca3e43c	0.020006292
6	0xbcb0b888	-0.021572366
7	0x3cd2ad7a	0.025717486
8	0xbc82f8ef	-0.015987841
9	0x3bfb9c5f	0.007678553
10	0xbbe08eba	-0.006852952
11	0xbc512191	-0.0127643505
12	0x3b0fdd8a	0.0021952116
13	0xbc13256b	-0.008981089
14	0xbb0bae94	-0.0021313773
15	0xbc2618c8	-0.010137744
16	0xba333c40	-0.0006837286
17	0xbb411ff1	-0.0029468501
18	0xbd2b93ee	-0.041889124
19	0x3cc643b0	0.024202198
20	0xbc061f14	-0.008186121
21	0xbc892d52	-0.016745243
22	0xbbda4c23	-0.0066619082
23	0x3cc5cd00	0.024145603
24	0x3cfe9a47	0.031079425
25	0x3b58441f	0.0032999588
26	0xbc87d378	-0.016580328
27	0x3cb77224	0.022393294
28	0x3ca11cb0	0.019667
29	0x3be3d232	0.0069525475
30	0xbc593242	-0.013256611
31	0x3d1c4d9f	0.038159963
32	0x3bbd3780	0.0057744384
33	0x3c5c97c1	0.013463915
34	0xbc71188b	-0.014715324
35	0x3c83f452	0.016107712
36	0xb8c66576	-9.460274e-05
37	0xbc993e16	-0.018706363
38	0xbbd15a18	-0.006388914
39	0x3b3b9c71	0.0028627182
40	0x39fae1e6	0.00047852023
41	0xbc31405e	-0.010818569
42	0xbc41595d	-0.011801091
43	0xbba8b6d7	-0.0051487493
44	0x3bc81e22	0.0061071077
45	0xbc8701a2	-0.01648027
46	0xbd23679a	-0.039893724
47	0xbb21ca7d	-0.0024687343
48	0x3d187bf7	0.037227597
49	0x3b983f77	0.0046462375
50	0xbbc05d36	-0.0058704866
51	0xbbb0a42d	-0.005390665
52	0xbcdb5b66	-0.02677698
53	0xbc0023b8	-0.007821016
54	0x3c3e06c6	0.011598295
55	0xbbdd5181	-0.006754101
56	0x3cc16ebc	0.023612373
57	0x3c7df7ec	0.015501004
58	0xbc7d8055	-0.015472491
59	0x3c957c1d	0.018247658
60	0xbc830ee5	-0.015998313
61	0x3b93c59f	0.0045096423
62	0x3befeab5	0.0073216804
63	0xbcc1c8ac	-0.023655258
64	0xbc330cf7	-0.010928384
65	0x3db2e66f	0.08735358
66	0x3e29a855	0.1656812
67	0xbd959622	-0.07304026
68	0x3dafd275	0.08585063
69	0x3e17f421	0.14839222
70	0x3ce2f2bb	0.027703634
71	0x3b00947b	0.0019619751
72	0x39ee4a87	0.00045450425
73	0xbcf4ab47	-0.029866828
74	0xbc46a013	-0.012123126
75	0x3b9590ce	0.004564381
76	0xbc7456e6	-0.014913296
77	0x3c4fa7b2	0.012674259
78	0xbd06897d	-0.032845963
79	0xba77d2a8	-0.00094536925
80	0x3bc510e2	0.0060139755
81	0x3c943c0b	0.018095037
82	0x3ca69252	0.020333443
83	0x3c42c5e9	0.011888006
84	0x373611b4	1.0852167e-05
85	0xbb92e0f5	-0.0044823834
86	0xbca23753	-0.019801771
87	0x3c9302fa	0.017945755
88	0xbca9742d	-0.02068528
89	0xbc81be50	-0.015837818
90	0x3c838a69	0.01605721
91	0x3c99a42f	0.018755047
92	0xbb216478	-0.0024626534
93	0xbc77cccd	-0.015124512
94	0xbd4297a0	-0.047507882
95	0x3c63ff41	0.013915838
96	0xbcc6c403	-0.024263388
97	0x3ca91d97	0.020643992
98	0x3d953194	0.07284847
99	0xbaf31c10	-0.0018547792
100	0x3c15c9cb	0.0091423495
101	0x3c84a9c5	0.016194234
102	0xbc72c541	-0.014817537
103	0xbd16e01d	-0.036834825
104	0x3c7a015d	0.015259114
105	0xbd33e5dc	-0.043920383
106	0xbc105cd8	-0.008811198
107	0x3c41d2d4	0.0118300505
108	0xbb572737	-0.003282977
109	0xbb397a1d	-0.0028301545
110	0xbb086a09	-0.0020815155
111	0x382a6be6	4.0631647e-05
112	0x3c4cacdd	0.012492386
113	0x3cfd3648	0.030909672
114	0xbc837ddc	-0.016051225
115	0x3b4542e4	0.0030099684
116	0xbc846981	-0.01616359
117	0x3d43a3a6	0.04776349
118	0x3a7bcc7f	0.00096053624
119	0x3c9f4384	0.019441374
120	0xba9a837a	-0.0011788451
121	0x3cc72211	0.024308236
122	0xbcf32971	-0.029682847
123	0xbae7300f	-0.0017638224
124	0x3c58739f	0.01321116
125	0x3c7425df	0.014901607
126	0x3c05000d	0.008117688
127	0x3bc0d0b4	0.0058842544
128	0xbd406cda	-0.04697881
129	0x3a8d6b8f	0.0010789501
130	0x3b95c645	0.0045707547
131	0x3764d0a4	1.3638437e-05
132	0xbc632cfd	-0.0138657065
133	0x3cab40a5	0.020904848
134	0x3bd1aa73	0.006398493
135	0xbc1401bb	-0.009033616
136	0xbccce536	-0.02501164
137	0xbcabce75	-0.02097247
138	0xbcb7a437	-0.02241717
139	0xbe9184da	-0.2842167
140	0xbe025b55	-0.12730153
141	0xbc16cd1d	-0.009204176
142	0xbda534e6	-0.0806673
143	0x3d72f0d5	0.059311707
144	0xbcb3ec86	-0.02196337
145	0xbc023264	-0.007946584
146	0x3dfcbd31	0.12340773
147	0x3dfa2143	0.122133754
148	0xbbc3eea0	-0.005979374
149	0x3947c2ed	0.00019050734
150	0x3c8bc593	0.017061984
151	0x3b5238d8	0.0032077339
152	0xbbac3380	-0.0052551627
153	0x3cbd008f	0.023071555
154	0x3cf6fd3a	0.030150045
155	0xbc4bfca2	-0.012450369
156	0x3c6c72f1	0.014431701
157	0x3d73c535	0.059514243
158	0x3d0ee61f	0.03488743
159	0xbb0eaaba	-0.0021769241
160	0x3c4bd36b	0.012440543
161	0xbc114f5a	-0.008869017
162	0xbcbdf942	-0.023190144
163	0xbbf90cb2	-0.0076003904
164	0xbc8a78df	-0.016903339
165	0x3d30a13b	0.04312251
166	0x3d206976	0.039163075
167	0x3cbbdf01	0.022933485
168	0xbc08508c	-0.008319985
169	0xbd445335	-0.047930915
170	0x3c9a5533	0.018839454
171	0xba7592e7	-0.00093678985
172	0xbd36886f	-0.044563707
173	0xbd064887	-0.03278401
174	0xbd1fe2e5	-0.039034743
175	0xbca2bd5d	-0.019865686
176	0xbb608794	-0.0034260498
177	0xb9f56623	-0.0004680614
178	0x3c5925e8	0.013253666
179	0x3ce196ba	0.027537692
180	0x3bd9f85b	0.0066519207
181	0xbcff81c5	-0.031189809
182	0xbbeff107	-0.007322434
183	0xbbfd706b	-0.0077343485
184	0x3d0033db	0.031299453
185	0xbb60431b	-0.0034219685
186	0x3ce6d60b	0.028178236
187	0x3b35b562	0.002772652
188	0xbc97b9fc	-0.018521301
189	0xbb86c97b	-0.004113374
190	0x3c86088a	0.016361494
191	0xbbac6663	-0.005261229
192	0x3b2bf104	0.0026236186
193	0x3c39d2f2	0.011341797
194	0x3bdc858e	0.006729788
195	0xbc961846	-0.018322121
196	0x3c846c75	0.016164998
197	0x3c491bab	0.012274663
198	0xbccf765e	-0.025324997
199	0xbd0e704c	-0.034775063
200	0xbc0b6428	-0.008507766
201	0x3c6e2ee8	0.0145375505
202	0xbca81189	-0.020516174
203	0xbc24ea1e	-0.0100655835
204	0x39dcf4e6	0.00042144133
205	0x3b9c5127	0.0047704163
206	0xbd0a496a	-0.03376142
207	0x3c25353f	0.010083496
208	0x3c4a09da	0.01233145
209	0x3ce7f335	0.028314212
210	0xbb7a7a7e	-0.0038219984
211	0x3bbac9e9	0.005700339
212	0x3d22e8dd	0.039772857
213	0xbe28e630	-0.1649406
214	0xbdfcedf8	-0.123500764
215	0x3baa1119	0.0051900265
216	0xbde25cee	-0.11052881
217	0x3e0e7111	0.13910319
218	0x3dea2c39	0.11434216
219	0x3db5d5c2	0.08878662
220	0xbe1d58ae	-0.1536586
221	0x3c01b36d	0.007916314
222	0x3b48228b	0.0030538167
223	0x3d2b214a	0.041779794
224	0x3a99e387	0.0011740782
225	0x3c3fa8db	0.011697973
226	0x3c0dad75	0.008647312
227	0x3c5b68dd	0.013391701
228	0xba784de2	-0.00094720547
229	0xbcf079b8	-0.029354915
230	0xbbcb3286	-0.006201091
231	0x3cd9c48f	0.026582984
232	0xbcb6b7f5	-0.022304514
233	0x3ccad9b7	0.024762018
234	0x3bc893c6	0.0061211316
235	0x3ca2d283	0.01987577
236	0xbcbeaf5d	-0.02327698
237	0xbc88b4ee	-0.016687836
238	0x3c8023fa	0.015642155
239	0xbc6a7dda	-0.014312232
240	0xbc82e040	-0.015976071
241	0xbc8f66d5	-0.017505089
242	0xbc1a1f77	-0.009406916
243	0x3bd44a02	0.006478549
244	0x3cb768c1	0.022388818
245	0x3d0977d6	0.03356155
246	0x3c6e7b8b	0.014555822
247	0xbc23aa71	-0.009989367
248	0xbcc57f7f	-0.024108646
249	0x3c180d78	0.009280555
250	0x3bedab39	0.0072530773
251	0xbc197c6b	-0.009368042
252	0xbd015a08	-0.03158
253	0x3c8bac61	0.01704997
254	0x3ad70ce0	0.0016407035
255	0xbc0516ba	-0.008123094

model.0.bias f4 [512]
0	0xb5d923b6	-1.6178153e-06
1	0xb5077366	-5.0459346e-07
2	0xb4754ff7	-2.2846494e-07
3	0xb4af5e15	-3.2664744e-07
4	0x376aa298	1.3985344e-05
5	0xb1b354b7	-5.2192166e-09
6	0x340e60d4	1.3260006e-07
7	0x338f35e6	6.6687605e-08
8	0x31f3c3b8	7.0944814e-09
9	0x32ac3fb2	2.00524e-08
10	0xac1f901b	-2.2675254e-12
11	0x2ff1b3cc	4.3965398e-10
12	0x36775d69	3.686024e-06
13	0x361a1de1	2.296518e-06
14	0xb7baa9d3	-2.2252008e-05
15	0xb60147b2	-1.926423e-06
16	0x3106497a	1.9541333e-09
17	0x37091f4b	8.173122e-06
18	0xb489d18d	-2.5670707e-07
19	0x3586981f	1.0028051e-06
20	0xb4c6b025	-3.7008536e-07
21	0xa511b0e2	-1.2636675e-16
22	0xadfb12bc	-2.8543716e-11
23	0x2d440a20	1.1143558e-11
24	0xb10863f2	-1.9847417e-09
25	0xb522ca07	-6.064369e-07
26	0x36fcaaa8	7.5300522e-06
27	0x3575c49f	9.1555734e-07
28	0x341a1677	1.435054e-07
29	0xb5d48757	-1.583462e-06
30	0xb3a898bb	-7.850891e-08
31	0x35f2da25	1.8093893e-06
32	0xb4bc1a51	-3.5036877e-07
33	0x352b4354	6.380044e-07
34	0xad276636	-9.515546e-12
35	0xb63c4973	-2.8056936e-06
36	0x3464553c	2.1265163e-07
37	0xb3a865b5	-7.84161e-08
38	0x361a35c5	2.2979086e-06
39	0xb63dc5b5	-2.8278275e-06
40	0x3412373f	1.3617408e-07
41	0x34e2d0de	4.224775e-07
42	0x30a2435f	1.1806199e-09
43	0xb5b9b0e4	-1.3835056e-06
44	0xb5446302	-7.3159765e-07
45	0xb5663729	-8.5761945e-07
46	0xaac462ab	-3.488506e-13
47	0xb4036d57	-1.2240103e-07
48	0x35161e66	5.592359e-07
49	0x350929ca	5.109729e-07
50	0x2dcb7413	2.3129975e-11
51	0x3540d8b2	7.1840907e-07
52	0x339d2bab	7.3188254e-08
53	0x2b492093	7.145475e-13
54	0x35a34527	1.2164572e-06
55	0x3790a759	1.7244065e-05
56	0x35dd44d6	1.6485817e-06
57	0xb36f33dc	-5.569369e-08
58	0xb4aa3ae3	-3.1707813e-07
59	0x3785e3d8	1.5960934e-05
60	0x3595f17b	1.1171645e-06
61	0xb6fc36c8	-7.5165626e-06
62	0x2ef28ed1	1.1030255e-10
63	0x3682b5b5	3.8954554e-06
64	0xa79b27b4	-4.306419e-15
65	0x327a28d5	1.4561199e-08
66	0x31f1f939	7.0423565e-09
67	0x324d7ec9	1.1961398e-08
68	0xb3f0a7c3	-1.12063866e-07
69	0xb6bac1a7	-5.565776e-06
70	0xae09d812	-3.1342103e-11
71	0x3452434a	1.9582254e-07
72	0xb1ee7dc6	-6.9410104e-09
73	0x330fbe49	3.3467845e-08
74	0xa67283fa	-8.413948e-16
75	0xb47ddd07	-2.364287e-07
76	0xb670ce62	-3.5882917e-06
77	0xb4f02784	-4.4732235e-07
78	0x356c72d8	8.808397e-07
79	0x36ad3334	5.1617626e-06
80	0x34bbe568	3.499838e-07
81	0xb4a3759d	-3.044669e-07
82	0xb6b2901a	-5.321589e-06
83	0x342a7354	1.587444e-07
84	0x34d95a60	4.0485156e-07
85	0xb56a251e	-8.7225806e-07
86	0xb7ca4552	-2.4112556e-05
87	0x350e5e5c	5.3036433e-07
88	0xb465dc42	-2.1407416e-07
89	0xb6148112	-2.2128847e-06
90	0xb5bdf9db	-1.4154315e-06
91	0xaebffa85	-8.7301756e-11
92	0x358c57b9	1.0456343e-06
93	0xb26d6bfd	-1.3819769e-08
94	0xb7305a62	-1.0511461e-05
95	0x359fbd82	1.1901577e-06
96	0xb733ec94	-1.0724314e-05
97	0x3516c41c	5.616473e-07
98	0xb56aa4de	-8.7411706e-07
99	0xb38cd493	-6.557925e-08
100	0x361a5f04	2.3003095e-06
101	0xb362607f	-5.2707488e-08
102	0x3699ff7b	4.589497e-06
103	0x344ff001	1.936569e-07
104	0x346397b0	2.1196206e-07
105	0x358fd918	1.0717513e-06
106	0x3680f5cd	3.8433122e-06
107	0x373db274	1.1306827e-05
108	0x30cf11bd	1.5066274e-09
109	0x34fa6367	4.6638453e-07
110	0xae143fad	-3.370786e-11
111	0x2f90975b	2.6300992e-10
112	0x3402e9ff	1.2192321e-07
113	0x35d24e88	1.5669075e-06
114	0xb5dc3a92	-1.6408324e-06
115	0x32fc164c	2.93468e-08
116	0xb52b33b6	-6.3777713e-07
117	0x35526a77	7.8386023e-07
118	0x36016745	1.9282609e-06
119	0x37029d93	7.785292e-06
120	0x34dbadf5	4.09185e-07
121	0x3550cb61	7.7781993e-07
122	0xb6b111bc	-5.2770756e-06
123	0xb5ac45c2	-1.2835301e-06
124	0xb7a04a7f	-1.9108176e-05
125	0x3796ec3c	1.7991399e-05
126	0xb5298d75	-6.3163253e-07
127	0x32c21f60	2.259884e-08
128	0xb2f2e4f3	-2.8276622e-08
129	0xabaf2b7a	-1.2446565e-12
130	0x35b474b4	1.344501e-06
131	0xb5d7a533	-1.6066828e-06
132	0xb22875bd	-9.805658e-09
133	0xb454ff6f	-1.9836965e-07
134	0xb5bc9174	-1.4049424e-06
135	0x36706941	3.5824053e-06
136	0xaa85144c	-2.363963e-13
137	0x36b557ac	5.4044267e-06
138	0x349c66b0	2.913198e-07
139	0xb759d5fd	-1.2984031e-05
140	0x3090fe38	1.0549632e-09
141	0xb3fc0e80	-1.1737302e-07
142	0x362753ac	2.4933643e-06
143	0x2fcd991f	3.7398082e-10
144	0xb4d66faa	-3.9941852e-07
145	0x34787b4d	2.3141656e-07
146	0xb512c05c	-5.466916e-07
147	0xb6e291bb	-6.75229e-06
148	0x33a754a9	7.791943e-08
149	0xb55bafd0	-8.18397e-07
150	0xb6f4dc1c	-7.2973908e-06
151	0x33ac8d6b	8.035098e-08
152	0xb5488a92	-7.470745e-07
153	0x36352449	2.6992223e-06
154	0xb67e8dad	-3.7931416e-06
155	0xb47041be	-2.2375659e-07
156	0x3610ec8c	2.159536e-06
157	0x28985423	1.6911878e-14
158	0xb60bdf92	-2.084275e-06
159	0xb0432473	-7.0992384e-10
160	0xb1075be9	-1.969733e-09
161	0xa7bae2cc	-5.1871264e-15
162	0xab112db4	-5.1577774e-13
163	0x366c2138	3.5186076e-06
164	0xb635620d	-2.7028175e-06
165	0xb554df12	-7.9300764e-07
166	0xb5d59929	-1.5914312e-06
167	0xafba9696	-3.39402e-10
168	0xb410acfd	-1.3473978e-07
169	0xb5640c62	-8.495464e-07
170	0x369480ba	4.4257295e-06
171	0x35bf4af5	1.4252424e-06
172	0xb674afc5	-3.6461145e-06
173	0xb4e03cb7	-4.1767427e-07
174	0x2cc783df	5.670561e-12
175	0x3578fb9a	9.275333e-07
176	0xb7a21034	-1.931945e-05
177	0x3485e2cf	2.4938205e-07
178	0xa8889c13	-1.516672e-14
179	0x359e95a7	1.1815472e-06
180	0xb40363c0	-1.2236615e-07
181	0xb3979e2c	-7.060257e-08
182	0x359a17c5	1.1480812e-06
183	0x3268d71c	1.35530875e-08
184	0xb2cc3597	-2.3773095e-08
185	0xb5746852	-9.104889e-07
186	0x36dc1dfc	6.5600016e-06
187	0xb2dcc804	-2.5702327e-08
188	0xb77290b4	-1.4458015e-05
189	0x30a4b0f2	1.1982861e-09
190	0xb63b2e44	-2.7892102e-06
191	0x33685982	5.4098116e-08
192	0xb5307d6f	-6.574764e-07
193	0xb1c55454	-5.7430416e-09
194	0xb65c714f	-3.284851e-06
195	0xb6945ad2	-4.4213166e-06
196	0xb483e6d8	-2.4568612e-07
197	0xb5195403	-5.7119195e-07
198	0x33c1d3df	9.025802e-08
199	0xb54f9f76	-7.7345555e-07
200	0x37943e96	1.7672119e-05
201	0x3664449c	3.4014583e-06
202	0x350a79ff	5.1586534e-07
203	0x348285ef	2.4311836e-07
204	0x321fcaed	9.301158e-09
205	0x292169b5	3.5840868e-14
206	0xb347e8e6	-4.6545118e-08
207	0x37166b2a	8.965648e-06
208	0x359c1ad9	1.1630719e-06
209	0xa8124799	-8.120153e-15
210	0xb2fdf312	-2.9563612e-08
211	0x358c5535	1.0455611e-06
212	0x3685c568	3.98669e-06
213	0xb7b261d6	-2.1264812e-05
214	0xb68e36cb	-4.2383085e-06
215	0x326894df	1.3538027e-08
216	0x362c00ec	2.5630534e-06
217	0x358217d2	9.692687e-07
218	0x3814724f	3.5392408e-05
219	0xb1f4c895	-7.124138e-09
220	0x25c8e251	3.4847827e-16
221	0xb6452953	-2.9379341e-06
222	0x35d1669a	1.5601574e-06
223	0xb16a82e9	-3.4125895e-09
224	0x2e6a6459	5.3294567e-11
225	0xb3d93514	-1.0114505e-07
226	0x320a22c3	8.040561e-09
227	0xb45e4e21	-2.0703784e-07
228	0x34db6165	4.0862793e-07
229	0x35296d0b	6.3116084e-07
230	0x32999786	1.788045e-08
231	0x33ba0216	8.6616794e-08
232	0x375cdd77	1.3164586e-05
233	0xb48e6f27	-2.6530435e-07
234	0xb638a521	-2.7514254e-06
235	0xb1c82d70	-5.8259317e-09
236	0xb5d4cb52	-1.5854405e-06
237	0x36f00a36	7.153746e-06
238	0xb70a68ba	-8.2498245e-06
239	0x36c776a1	5.9444724e-06
240	0x292b9151	3.809567e-14
241	0xb64b6354	-3.0307174e-06
242	0x341f1319	1.4814977e-07
243	0x2cabd289	4.8834864e-12
244	0xb5583f42	-8.055832e-07
245	0x348c17ac	2.6094256e-07
246	0xb24bb03f	-1.1856229e-08
247	0xb545d9e9	-7.370532e-07
248	0xad11d964	-8.290566e-12
249	0xb4db91a5	-4.08979e-07
250	0x36c45632	5.8512896e-06
251	0x33a3d2a2	7.628593e-08
252	0x357c6d16	9.4036056e-07
253	0x3703365f	7.820868e-06
254	0xb6989b88	-4.548059e-06
255	0xb3857c5f	-6.215918e-08

model.1.weight f4 [512]
0	0x3e665575	0.22493537
1	0x3eb6abc9	0.35677937
2	0x3eb02943	0.3440648
3	0x3e762e86	0.24041185
4	0x3eeceefe	0.46276087
5	0x3ac7fde9	0.0015258166
6	0x3e022802	0.12710574
7	0x3e40047a	0.18751708
8	0x3ad81d4e	0.0016488226
9	0x3b916eb9	0.004438248
10	0xb7e10c39	-2.6827782e-05
11	0x39624bd1	0.00021581283
12	0x3e3802a7	0.17969762
13	0x3eb6fcc0	0.35739708
14	0x3f28005f	0.65625566
15	0x3ec76369	0.3894303
16	0x3976ec15	0.00023548336
17	0x3eefa0f8	0.46802497
18	0x3d8c9f6b	0.06866344
19	0x3eb04f8c	0.3443569
20	0x3dde07d4	0.10841337
21	0x324e6e71	1.201589e-08
22	0xb9b6d111	-0.00034869512
23	0xb6cf9fd1	-6.187686e-06
24	0x3ce61d0d	0.028090024
25	0x3e81ba4c	0.25337446
26	0x3f036d84	0.5133898
27	0x3eadb0ff	0.339241
28	0x3cb63469	0.022241788
29	0x3db595aa	0.08866437
30	0x3b8ddcaf	0.004329286
31	0x3e5cf7df	0.2157893
32	0x3e398a48	0.18119156
33	0x3e1807fd	0.14846797
34	0xb83d749d	-4.5169716e-05
35	0x3ebb96ab	0.36638388
36	0x3eccce38	0.40001082
37	0x3c930abc	0.017949454
38	0x3ec3c678	0.38237357
39	0x3e225842	0.1585398
40	0x3ed5e9b2	0.41779858
41	0x3e390891	0.18069674
42	0x3b28a487	0.0025732832
43	0x3eb0c131	0.34522393
44	0x3e3464dd	0.17616601
45	0x3dc4fc52	0.09618439
46	0x3750ccd5	1.2445457e-05
47	0x3d0adcdc	0.033902034
48	0x3e9d45f3	0.3071743
49	0x3dec1d65	0.11529044
50	0xb8688a30	-5.5441807e-05
51	0x3e9be4a7	0.30447885
52	0x3c734d73	0.014850008
53	0x378645c4	1.6006532e-05
54	0x3f063e78	0.5243907
55	0x3f1cdb97	0.6127257
56	0x3dca874c	0.09889087
57	0x3cc438e1	0.023952903
58	0x3e087ea0	0.13329554
59	0x3ef7d3ca	0.4840377
60	0x3e9ca79e	0.30596632
61	0x3ee2c3ae	0.44289917
62	0xb92314d9	-0.00015552658
63	0x3e9e5cd0	0.30930185
64	0x3597b868	1.1304046e-06
65	0xba06ae72	-0.0005137689
66	0x3b6da6e0	0.0036262795
67	0x3dfaadbe	0.1224017
68	0x3d99d2bf	0.075109
69	0x3e7bfa11	0.24607112
70	0xb89525c1	-7.111906e-05
71	0x3d31f00c	0.043441817
72	0x3c258c4e	0.010104252
73	0x3da2da6d	0.07951818
74	0xb43eb896	-1.7762281e-07
75	0x3dbe90f9	0.09304995
76	0x3ec6687d	0.38751593
77	0x3e610ce7	0.21977578
78	0x3d37130b	0.044695895
79	0x3edc8309	0.43068722
80	0x3d941c70	0.072319865
81	0x3e037a2c	0.12839574
82	0x3e870d12	0.2637716
83	0x3ec29621	0.38005164
84	0x3eaf796a	0.3427232
85	0x3e78f430	0.243119
86	0x3f3874de	0.72053325
87	0x3e5c1e87	0.2149602
88	0x3d87e94b	0.06636294
89	0x3eafba56	0.3432185
90	0x3dbabb5b	0.091177665
91	0x383042e5	4.202397e-05
92	0x3d62305c	0.0552219
93	0xbaf14b40	-0.0018409267
94	0x3eaabc00	0.33346558
95	0x3e9ea079	0.30981806
96	0x3eba1663	0.36345205
97	0x3cdc2245	0.02687181
98	0x3ed9b85e	0.42523474
99	0x3c19c541	0.009385408
100	0x3e08254e	0.1329548
101	0x3cd780b3	0.026306486
102	0x3e86bd8a	0.26316482
103	0x3e39c57d	0.18141742
104	0x3bdab4fc	0.006674407
105	0x3e878daf	0.26475284
106	0x3e3308de	0.17483851
107	0x3ec54a33	0.38533172
108	0xb9d6bdec	-0.00040958764
109	0x3dd7f938	0.105455816
110	0x3825a7ba	3.9495273e-05
111	0x38e3504a	0.000108391585
112	0x3df4004e	0.119141206
113	0x3e352785	0.17690857
114	0x3e85751f	0.2606592
115	0x3d3f4ebe	0.046705954
116	0x3ebe7248	0.37196565
117	0x3db013af	0.08597504
118	0x3e7dfba8	0.2480303
119	0x3ec3284d	0.38116685
120	0x3e51155f	0.20418309
121	0x3ed0ff80	0.4081993
122	0x3e86a536	0.2629792
123	0x3e92797b	0.28608307
124	0x3f1612b3	0.5862228
125	0x3f3b2170	0.73097897
126	0x3dcb47af	0.09925782
127	0x3bd2437b	0.0064167357
128	0x3ddf24c2	0.10895683
129	0xb65a91ba	-3.2569355e-06
130	0x3e119508	0.14217007
131	0x3e24bd3a	0.16087809
132	0x3c75d298	0.015003823
133	0x3d9db40c	0.07700357
134	0x3f18f3c8	0.5974698
135	0x3e80c850	0.25152826
136	0xb4d7b362	-4.017739e-07
137	0x3e2f75bf	0.1713476
138	0x3ec2cb43	0.380457
139	0x3f2154be	0.6301993
140	0x3a840cd1	0.001007462
141	0x3d63c652	0.055609055
142	0x3e044ad6	0.12919173
143	0x3a96b4ee	0.0011498013
144	0x3d416c3e	0.04722237
145	0x3ce6915f	0.02814549
146	0x3ea4ef4c	0.3221382
147	0x3f4bee3d	0.796604
148	0x3e8e46f7	0.27788517
149	0x3e650c8e	0.2236807
150	0x3f462745	0.7740367
151	0x3da5b4bb	0.08091112
152	0x3daea026	0.0852664
153	0x3e86d4ed	0.26334324
154	0x3ebda1f9	0.37037638
155	0x3d451e28	0.048124462
156	0x3e4b9b08	0.19883358
157	0x367902e4	3.7105574e-06
158	0x3e0fadb0	0.140311
159	0x3ae613f2	0.0017553552
160	0x3e4f4f97	0.20245205
161	0x35017ec8	4.8240736e-07
162	0x372d2476	1.0320093e-05
163	0x3ecd3f85	0.40087524
164	0x3e9548fa	0.2915724
165	0x3ea5c305	0.3237535
166	0x3d8d31b4	0.06894246
167	0x39867086	0.00025642308
168	0x3d625910	0.055260718
169	0x3e5bc42b	0.21461551
170	0x3ebad4cf	0.36490485
171	0x3e87b70e	0.26506847
172	0x3f38d3c9	0.7219816
173	0x3eb62887	0.35577795
174	0x381a384c	3.676889e-05
175	0x3de10614	0.109874874
176	0x3ed7235c	0.42019165
177	0x3ce971a3	0.028496569
178	0xb4ed80d3	-4.4238422e-07
179	0x3e60b10f	0.21942542
180	0x3d1cdbcf	0.038295563
181	0x3d4827f4	0.048866227
182	0x3e1894b6	0.14900479
183	0x3ef66357	0.48122665
184	0x3c18d03b	0.00932699
185	0x3de246d1	0.110486634
186	0x3e97604c	0.29565656
187	0x3e9d4fac	0.30724847
188	0x3f1069ef	0.5641164
189	0xb92effa7	-0.00016689171
190	0x3e58d4a9	0.21174873
191	0x3e1a257b	0.1505336
192	0x3e0bc2ca	0.13648525
193	0x3be5e757	0.0070161032
194	0x3e9f8235	0.31154028
195	0x3e9a47be	0.3013286
196	0x3e8627db	0.26202282
197	0x3edb9ab9	0.42891482
198	0x3dbae8d5	0.091264404
199	0x3e8a27ce	0.26983494
200	0x3f14cd20	0.58125496
201	0x3ed16468	0.40896916
202	0x3c00154a	0.007817576
203	0x3c48a429	0.01224617
204	0xba979829	-0.0011565733
205	0xb5f45ff0	-1.8207338e-06
206	0xbb73079c	-0.0037083393
207	0x3ee00312	0.43752342
208	0x3e1d0cb7	0.15336882
209	0x3439d4b6	1.7306851e-07
210	0x3d9b1777	0.07572835
211	0x3e31cf9c	0.17364353
212	0x3e830687	0.25590917
213	0x3f0858fe	0.5326079
214	0x3eb5209f	0.3537645
215	0x3bafcdf0	0.005365126
216	0x3e8e2ded	0.27769414
217	0x3eaaff79	0.33398035
218	0x3f19f45d	0.60138494
219	0x3c63d97d	0.013906834
220	0xb287bda7	-1.5802312e-08
221	0x3f297688	0.6619649
222	0x3e984927	0.2974331
223	0x3bda21f7	0.006656881
224	0xb982d935	-0.00024957364
225	0x3c25bc1a	0.010115648
226	0x3c0cc717	0.008592389
227	0x3d41162c	0.047140285
228	0x3f09e495	0.53864413
229	0x3e6d2987	0.23160373
230	0x3c0294a5	0.00797001
231	0x3eab5af9	0.33467844
232	0x3f016e3f	0.5055885
233	0x3d967a91	0.073475964
234	0x3e6c2b91	0.23063494
235	0xbaab7681	-0.0013081582
236	0x3e34b3aa	0.17646661
237	0x3ef5cae9	0.4800637
238	0x3e81d0d4	0.25354636
239	0x3e7b7293	0.24555425
240	0xb5dd08fa	-1.6468396e-06
241	0x3e3dffee	0.1855466
242	0x3e80985e	0.25116247
243	0xb8c1f5ce	-9.248742e-05
244	0x3ea28fbf	0.31750295
245	0x3db9def6	0.090757295
246	0x3b8ba08b	0.0042610816
247	0x3dc580bc	0.09643695
248	0x36884704	4.061383e-06
249	0x3d9f1662	0.07767941
250	0x3eaa2e33	0.33238372
251	0x3b73b2c7	0.0037185417
252	0x3df0513c	0.11734244
253	0x3ea43509	0.32071713
254	0x3ecc99b4	0.39961016
255	0x3ea3f88d	0.32025567

model.1.bias f4 [512]
0	0xbc86c015	-0.016449014
1	0xbdba847d	-0.091073014
2	0xbdfc835f	-0.123297445
3	0xbc4abaf2	-0.012373673
4	0xbe05e9dd	-0.13077493
5	0x3b5a417d	0.0033303194
6	0x3c5c7587	0.013455755
7	0xbde67fbf	-0.112548344
8	0x3c1e9844	0.009679858
9	0x3c58aeb9	0.013225251
10	0xb712231e	-8.7104545e-06
11	0xbab09314	-0.0013471567
12	0x3ccf0732	0.025271986
13	0xbdfac5e9	-0.122447796
14	0xbe4a69f9	-0.19766988
15	0xbe076f4d	-0.13226052
16	0x3a1c077a	0.0005952042
17	0xbcabcb81	-0.020971062
18	0xbcc8c7cf	-0.024509339
19	0xbd9b6482	-0.0758753
20	0xbd8ee0da	-0.06976481
21	0x3504bcc4	4.944852e-07
22	0xb9a181fb	-0.00030805156
23	0x37ac3404	2.052822e-05
24	0x3b9cb2f9	0.0047820774
25	0xbd0a4835	-0.03376027
26	0xbe4a5fc5	-0.19763096
27	0xbd996e48	-0.074917376
28	0xbab42b20	-0.0013745762
29	0x3d18fee9	0.037352476
30	0x3d2ee6e3	0.04270066
31	0xbdfe6f3c	-0.1242356
32	0x3c880ddf	0.016608177
33	0x3d58b2b1	0.05290479
34	0xb8aa9904	-8.134733e-05
35	0xbe68f20e	-0.22748587
36	0xbe26f689	-0.16304983
37	0xbbdd3a6e	-0.00675135
38	0xbdaffdaa	-0.085933045
39	0xbd95c4ae	-0.07312904
40	0xbdbe8808	-0.0930329
41	0xbd908f38	-0.07058567
42	0xbb0c8de8	-0.0021446887
43	0xbdda1c58	-0.106499374
44	0xbdc7a10a	-0.09747513
45	0xbdd4ab45	-0.103842296
46	0xb8680713	-5.53197e-05
47	0x3c2971ab	0.010342042
48	0xbe1bf605	-0.15230568
49	0xbd94bf75	-0.0726308
50	0xb94a766d	-0.00019308338
51	0xbdbf7175	-0.09347812
52	0x3c7fc196	0.015610119
53	0xb8035187	-3.1308762e-05
54	0xbe06a997	-0.13150631
55	0xbe068882	-0.13138011
56	0xbd3d33eb	-0.04619209
57	0xbd3fb599	-0.046804044
58	0xbc237234	-0.009975959
59	0xbdc16693	-0.094433926
60	0xbdd76c10	-0.10518658
61	0xbde2a0d8	-0.11065835
62	0xb9ac812f	-0.00032902646
63	0xbe185b25	-0.14878519
64	0x36d5fb01	6.3771154e-06
65	0xbb102867	-0.0021996738
66	0xbc238bb9	-0.009982043
67	0xbcd6db6d	-0.026227677
68	0x3c9d5f44	0.019210465
69	0xbd9c8f4b	-0.076445185
70	0xb7fe3a1b	-3.0306217e-05
71	0x3c4df284	0.012570027
72	0xbc992de3	-0.018698638
73	0x3c2cd6a5	0.010549222
74	0xb6262f07	-2.47633e-06
75	0xbd8b6044	-0.068054706
76	0xbddc93a5	-0.107703485
77	0xbdc9f7ea	-0.09861739
78	0xba894208	-0.0010471949
79	0xbdc0bb1b	-0.094106875
80	0xbdd0ce07	-0.101955466
81	0x3c1cce51	0.009570674
82	0xbd0a854f	-0.03381854
83	0xbe51629a	-0.2044777
84	0xbdb2e30a	-0.087347105
85	0xbdbb715a	-0.091524795
86	0xbd934399	-0.071906276
87	0xbdeb2f6f	-0.114836566
88	0xbd443391	-0.04790074
89	0xbd99ace0	-0.075036764
90	0x3bb1a84f	0.0054216753
91	0x39e0f73a	0.00042908808
92	0xbc90efab	-0.017692408
93	0xbc824c14	-0.015905418
94	0x3cdaf062	0.026725952
95	0xbd8958db	-0.06706401
96	0xbe3bc8ac	-0.18338269
97	0x3d9db774	0.077010065
98	0xbe157cae	-0.14598343
99	0x3cf923de	0.03041261
100	0xbd83f3fe	-0.06443022
101	0x3cad4a16	0.021153491
102	0xbbe8ea75	-0.0071080276
103	0xbcbe4b91	-0.023229392
104	0x3da1d4c8	0.07901913
105	0xbd6719e6	-0.056421183
106	0xbc83c8b4	-0.016086914
107	0xbe2c5a62	-0.16831353
108	0xbbd4e6d8	-0.0064972453
109	0xbd45dcf4	-0.04830642
110	0xba8618a5	-0.0010230733
111	0xb94b6abe	-0.00019399353
112	0xbd104cd5	-0.035229523
113	0xbd5f7fb1	-0.054565135
114	0x3c4db240	0.012554705
115	0x3d2c411b	0.042054277
116	0xbdb60415	-0.08887497
117	0xbd6edfcd	-0.0583189
118	0xbde45cf6	-0.111505434
119	0xbdfe692a	-0.12422402
120	0xbe1bbb7c	-0.15208238
121	0xbe3698db	-0.17831747
122	0xbd989833	-0.07450905
123	0x3bf641c7	0.0075151655
124	0xbe015895	-0.12631448
125	0x3c503e2a	0.012710134
126	0xbdbc65fe	-0.09199141
127	0xbc5d0b67	-0.013491488
128	0xbd52fa20	-0.05150807
129	0x393f3c78	0.00018237706
130	0x3b9467a4	0.0045289565
131	0xbc9f673c	-0.019458406
132	0x3cbac465	0.022798726
133	0xbcb61239	-0.022225486
134	0xbe41c896	-0.18924174
135	0xbda600b6	-0.08105604
136	0x3801563b	3.0836305e-05
137	0xbd63979a	-0.0555645
138	0xbe17c218	-0.14820135
139	0xbcdbad1e	-0.026815947
140	0x39bc9b83	0.0003597402
141	0xbd8edb30	-0.069754004
142	0x3d960ff5	0.07327262
143	0xbb13e37c	-0.0022566011
144	0xbd088679	-0.033331368
145	0xbc80135a	-0.015634228
146	0xbd98ee7d	-0.07467363
147	0xbe06e711	-0.13174082
148	0xbdbdd6cf	-0.09269487
149	0xbe0f9ec9	-0.14025415
150	0xbe0257a6	-0.12728748
151	0x3a8ac641	0.0010587649
152	0x3cb3c76b	0.021945676
153	0xbdac9df2	-0.08428563
154	0xbd15dcb2	-0.036587425
155	0x3d3b8b51	0.04578716
156	0xbda27814	-0.07933059
157	0x3484b503	2.471862e-07
158	0xbd0ea5c7	-0.034826066
159	0xbaa29854	-0.0012405016
160	0xbdc93382	-0.098242775
161	0xb61ac71c	-2.3063685e-06
162	0x375a2c51	1.3004131e-05
163	0xbe2ca47d	-0.16859622
164	0xbdd60883	-0.10450842
165	0xbe311b3f	-0.1729555
166	0xbcbea6e9	-0.023272948
167	0xb9e622e2	-0.00043895008
168	0x3c8f7faa	0.01751693
169	0xbde1d81a	-0.11027546
170	0xbdd8c6d3	-0.10584798
171	0xbd7afa3b	-0.061273795
172	0xbdfb2546	-0.12262969
173	0xbe045931	-0.12924649
174	0x386b64ba	5.6122175e-05
175	0x3d89ce0c	0.067287534
176	0xbded6b48	-0.11592728
177	0xbcb62694	-0.022235192
178	0x3656c520	3.2003227e-06
179	0xbd83cf84	-0.06436065
180	0xbd59e613	-0.05319793
181	0x3d6ead66	0.058270834
182	0xbdda61a1	-0.106631525
183	0xbe303da2	-0.17211011
184	0xbbbc32f9	-0.005743381
185	0x3ceb2d42	0.028708104
186	0xbdfccffa	-0.12344356
187	0xbe037a64	-0.12839657
188	0x3d610a3b	0.054941397
189	0x3a4e11e2	0.0007860941
190	0x3d2cc993	0.042184424
191	0x3c84917c	0.016182654
192	0x3c4fee8d	0.012691152
193	0xbc46468c	-0.012101781
194	0xbdffce73	-0.12490549
195	0xbe09a987	-0.13443576
196	0x3ad02d7e	0.0015882698
197	0xbdebcaf2	-0.11513318
198	0x3d1feaf1	0.039042417
199	0xbc429a2b	-0.011877577
200	0xbe000351	-0.12501265
201	0xbe2d92a3	-0.16950469
202	0xbd340c1a	-0.043956853
203	0xbd3e5291	-0.04646546
204	0xbbd2bc33	-0.0064311265
205	0xb5226d92	-6.050915e-07
206	0xbc0b494c	-0.008501362
207	0xbdedbe31	-0.11608542
208	0xbd6f2a25	-0.0583898
209	0xb7919925	-1.735666e-05
210	0xbc6e725f	-0.014553635
211	0xbd18a154	-0.03726323
212	0xbdc982ef	-0.09839427
213	0xbe5ee4d4	-0.21766979
214	0xbd01721b	-0.03160296
215	0xbc5fb290	-0.013653412
216	0xbdd3f193	-0.10348811
217	0xbe0d6ee4	-0.13811833
218	0xbe13dd92	-0.14439991
219	0x3c2ce8e5	0.010553573
220	0xb4be5bf2	-3.5457157e-07
221	0xbd912bd4	-0.07088438
222	0xbdd06941	-0.101763256
223	0x3b4c5cd4	0.003118326
224	0xbb1a585a	-0.0023551197
225	0xbd2e3433	-0.04253025
226	0xbc05bb32	-0.008162307
227	0xbbd8130a	-0.0065940665
228	0xbe223711	-0.15841319
229	0xbe04b59b	-0.12959902
230	0xbd67099e	-0.056405656
231	0xbddea936	-0.10872118
232	0xbe0bb9f5	-0.13645156
233	0x3d6be3c1	0.05759025
234	0xbc88a3f3	-0.01667974
235	0xb92988f2	-0.00016168112
236	0xbc8d2f47	-0.017234458
237	0xbe1a5a92	-0.15073612
238	0x3c602b3f	0.013682186
239	0xbdbf829c	-0.09351084
240	0x3564e382	8.5267686e-07
241	0xbdeb73a2	-0.114966646
242	0xbdbdb946	-0.09263854
243	0xb7159dcd	-8.917833e-06
244	0xbdda5b75	-0.10661975
245	0xbcd78225	-0.026307175
246	0xbd3e4c48	-0.046459466
247	0x3d174d53	0.036938976
248	0x3733a9b9	1.0708748e-05
249	0x3b0249a3	0.0019880317
250	0xbd28c739	-0.04120562
251	0xbdd277aa	-0.1027673
252	0xbcb1354a	-0.021631856
253	0xbdbfdf6f	-0.093687885
254	0xbe1fe58b	-0.15614907
255	0xbe4acdce	-0.19805071

model.1.running_mean f4 [512]
0	0x39c39c00	0.00037309527
1	0x3cc90812	0.024539981
2	0x3b2d7058	0.0026464667
3	0x3c768423	0.015046152
4	0xbc88b4b3	-0.016687727
5	0x39aa38b6	0.0003246718
6	0x3bd2ed32	0.0064369673
7	0xba772474	-0.0009427734
8	0xbb00c497	-0.0019648427
9	0xba55cf08	-0.0008156155
10	0xb8cb9e3c	-9.709268e-05
11	0xb9aea748	-0.000333125
12	0x3c72732b	0.014797966
13	0x3c76b80e	0.0150585305
14	0x3c650c7b	0.013980026
15	0x3901001b	0.00012302438
16	0xb8c03b9b	-9.166376e-05
17	0x3c5e5024	0.013568912
18	0x39e1a817	0.0004304058
19	0x3cebdf5e	0.028793033
20	0x3adeb4c6	0.001699113
21	0xb56a6b83	-8.7328243e-07
22	0xb89eaf41	-7.566671e-05
23	0xb94fb400	-0.00019808114
24	0x3b977b3d	0.0046228454
25	0xbc030210	-0.007996097
26	0xbc1575a3	-0.009122285
27	0x3d51f8e4	0.05126275
28	0x3aa7d055	0.0012803177
29	0x39655582	0.00021870996
30	0xbabbf34f	-0.0014339479
31	0x3d016577	0.031590905
32	0x3c837cae	0.016050663
33	0xbc9cb5f6	-0.019129734
34	0xba57c6c6	-0.00082312187
35	0x3c643dfc	0.013930794
36	0x3d23151a	0.039815046
37	0xbaa10281	-0.0012284071
38	0xbcab7399	-0.020929145
39	0xbb2bc1cd	-0.0026208044
40	0xbc5c9156	-0.013462385
41	0x3b8d9c7f	0.0043216343
42	0x3a51dcc0	0.00080056116
43	0x3c9778b0	0.018490165
44	0xbc1c46c2	-0.009538354
45	0x3c9b190a	0.018932838
46	0xb90ba0af	-0.00013315932
47	0x3b5e890b	0.0033956196
48	0x3cc494e6	0.023996782
49	0x3c3de8c7	0.011591143
50	0x35e81405	1.7291173e-06
51	0x3c5040f3	0.012710798
52	0x3bbec8d5	0.005822281
53	0xb9b91c0d	-0.0003530685
54	0xbb835f2c	-0.004009148
55	0x3ce6a651	0.028155478
56	0xbc31d9f0	-0.010855183
57	0xbb2c1a10	-0.0026260652
58	0xb95ee6b1	-0.00021257509
59	0xbc14306a	-0.009044746
60	0xbc94cf0a	-0.01816513
61	0x3d503bd8	0.05083832
62	0x3981ffd1	0.00024795395
63	0x3cba70a2	0.022758786
64	0xb8a9ce37	-8.0969585e-05
65	0x39bd166c	0.00036065595
66	0xbb0a3c8c	-0.0021093218
67	0xbc393294	-0.011303563
68	0xbc2da586	-0.010598546
69	0x3ba5ca8d	0.0050595463
70	0x382ff988	4.1955645e-05
71	0xbc1d6ec6	-0.00960893
72	0x3a041e06	0.0005039874
73	0xbc011410	-0.007878318
74	0xb7efa916	-2.8569757e-05
75	0x3c2d5fbc	0.010581907
76	0x3b91623a	0.0044367583
77	0x3c47df73	0.012199271
78	0x3c16e402	0.009209635
79	0xbccfa5cf	-0.025347618
80	0x3c55b93d	0.0130446525
81	0x3c3e1819	0.011602425
82	0x3c945d44	0.018110879
83	0xbc72c91a	-0.014818454
84	0x3d2746f6	0.040839158
85	0x3c8eab61	0.017415704
86	0xbba3be61	-0.00499706
87	0xbb49da1c	-0.003080017
88	0x3c532543	0.012887302
89	0xbc710ba4	-0.014712248
90	0x39f9debd	0.00047658934
91	0xb91cf16b	-0.00014967255
92	0x3c726b4e	0.014796091
93	0xbb116d88	-0.002219053
94	0xbb9e3dda	-0.0048291506
95	0xbb039ba9	-0.0020081794
96	0x3ca36f65	0.019950578
97	0xbbef3a94	-0.007300684
98	0x3c048e26	0.008090531
99	0xbb7a0f04	-0.0038155923
100	0xbcb8f012	-0.022575412
101	0xbac270ab	-0.0014834603
102	0x3aa747a4	0.001276244
103	0x3c90ea60	0.017689884
104	0x3bbebe48	0.005821023
105	0xbc25b9a1	-0.010115058
106	0xbceda17e	-0.02900767
107	0x3d3bd966	0.045861624
108	0x39fa0060	0.00047683995
109	0xbb58c693	-0.0033077344
110	0x395b071c	0.00020888116
111	0x3754b2d1	1.2677819e-05
112	0x3c6188d4	0.0137655325
113	0x3c6abeb7	0.0143276965
114	0xbb392581	-0.0028251114
115	0xbc872fe5	-0.01650233
116	0x3d016f96	0.031600557
117	0x3c98c4ae	0.018648472
118	0x3bc38e5f	0.0059678997
119	0x3cb763d0	0.022386461
120	0x3b5c5a3f	0.0033623127
121	0x3ce969ec	0.02849289
122	0xbc273976	-0.010206571
123	0x3b5727c9	0.003283011
124	0xbc774edd	-0.015094486
125	0x3d7f7ece	0.06237679
126	0x3aad72cd	0.0013233066
127	0xbbd34955	-0.006447951
128	0x3c88abc4	0.016683467
129	0xb51f1d5b	-5.9274834e-07
130	0xbc732264	-0.014839742
131	0x3cc94eb9	0.02457367
132	0xbb881907	-0.004153374
133	0x3c39dfca	0.011344859
134	0x3cbb9c3e	0.02290165
135	0xbc783d41	-0.015151323
136	0xb94eaec5	-0.00019710798
137	0xbc88ec1c	-0.016714148
138	0x3d210f35	0.039321143
139	0x3cc84e15	0.024451295
140	0x3ba85ee3	0.0051382645
141	0x3c2c5a00	0.010519505
142	0x3ceb2060	0.028701961
143	0x3ae46f03	0.0017428104
144	0x3a355de8	0.0006918595
145	0xbba20285	-0.004944148
146	0x3d41fc97	0.04736003
147	0xbb8e7d59	-0.0043484387
148	0x3c7e3c49	0.015517303
149	0x3c105b2b	0.008810799
150	0x3c25fc0c	0.010130893
151	0x3c42859b	0.011872674
152	0x3a36ec69	0.0006977977
153	0x3d0fc2e2	0.035097964
154	0x3d41f6c6	0.047354482
155	0xbbabc6b7	-0.0052421945
156	0x3c18dcf9	0.009330028
157	0xb47a0079	-2.3283236e-07
158	0xbc33a2d1	-0.010964111
159	0x3a5a60b8	0.0008330452
160	0x3c5ab891	0.013349668
161	0x3838e779	4.4084594e-05
162	0xb926c3bd	-0.00015903912
163	0x3aa7bc5c	0.0012797224
164	0xbb4b605a	-0.0031032772
165	0x3c8fa67f	0.017535446
166	0xbbc381a8	-0.005966384
167	0xba05b106	-0.0005099926
168	0xbc12ca9e	-0.0089594405
169	0x3d0d31b8	0.034471244
170	0x3c956270	0.018235415
171	0x3d17a790	0.037025034
172	0xbd20b0d8	-0.03923115
173	0x3c17cd41	0.009265245
174	0xb9385041	-0.00017577504
175	0xbcaf268e	-0.021380689
176	0x3ce00ce6	0.0273499
177	0xbb34190b	-0.0027480747
178	0x37e906d6	2.7778948e-05
179	0xbc7a4f60	-0.015277714
180	0xbbae19a0	-0.0053131133
181	0x3b314758	0.002705058
182	0x3b20fcd5	0.0024564762
183	0x3d3891b7	0.04506084
184	0xbb3deb73	-0.002897945
185	0x3bd1b399	0.0063995835
186	0x3c28db9d	0.010306266
187	0xbbe4241d	-0.006962313
188	0xbc88e40a	-0.0167103
189	0xb8f0d0ab	-0.00011482959
190	0x3b8bd604	0.004267456
191	0x3cb06f34	0.0215374
192	0xbc1f343c	-0.0097170435
193	0xbbe9a31a	-0.007130039
194	0x3b8ca05b	0.004291577
195	0xbc0e8af8	-0.008700125
196	0x3b92f67b	0.004484949
197	0x3d28c8a7	0.041206982
198	0xbbea8a47	-0.007157597
199	0x3b473096	0.003039395
200	0x3c675a4d	0.0141206505
201	0xbc1ff10f	-0.009762063
202	0xbc121485	-0.008916025
203	0x3c5077b2	0.01272385
204	0x3ac58dfd	0.0015072223
205	0xb8908e24	-6.892931e-05
206	0xba88d9a6	-0.0010440841
207	0x3bb52056	0.0055275364
208	0xba83c984	-0.0010054563
209	0xb47439f0	-2.2745348e-07
210	0xbc334d32	-0.010943698
211	0x3cb692b4	0.02228675
212	0x3d048fba	0.03236363
213	0x3cd56a6a	0.026051719
214	0x3b7ee399	0.0038892983
215	0x3b922746	0.004460248
216	0x3cdfbb33	0.027310943
217	0x3b6432d1	0.0034820328
218	0x3c9e607d	0.019333119
219	0xbbadb8ba	-0.005301562
220	0xb80d88bc	-3.3744363e-05
221	0x3d2dff1f	0.04247963
222	0x3cc8ed6b	0.024527272
223	0x3b2aaacd	0.0026041747
224	0xbb1721b4	-0.002306086
225	0xba9fe6f9	-0.0012199573
226	0xbc0cc075	-0.008590807
227	0x3b74001e	0.0037231515
228	0x3d54a01b	0.0519105
229	0xbbddf8ea	-0.0067740576
230	0xbb48bb8f	-0.0030629372
231	0xbc0c424b	-0.008560727
232	0x3bc9b231	0.0061552753
233	0xbc5133a0	-0.012768656
234	0x3a5bea42	0.0008389094
235	0x3a9c0070	0.0011901986
236	0xbd117316	-0.035510145
237	0x3d7359f9	0.059411976
238	0x3d6fe5d1	0.05856878
239	0x3b98d560	0.004664108
240	0xb7d3ebcc	-2.5262962e-05
241	0x3b0e1e34	0.0021685483
242	0xbb18aded	-0.0023297027
243	0xb8dacd01	-0.00010433235
244	0xbc9aa4c6	-0.018877398
245	0x3b3bff31	0.0028686041
246	0xbabe336b	-0.0014511173
247	0xbc6f76b4	-0.014615703
248	0xb63fb924	-2.8568984e-06
249	0x3c6e6eb5	0.014552762
250	0xbb2c0feb	-0.0026254605
251	0xbbaedb13	-0.0053361743
252	0xbb9dfb60	-0.004821226
253	0x3c6307c8	0.013856836
254	0xbb33d3f9	-0.0027439578
255	0xbbc9d2e3	-0.006159173

model.1.running_var f4 [512]
0	0x3e03843b	0.1284341
1	0x3d8230cf	0.06356966
2	0x3da4fe2a	0.080562904
3	0x3dd2eea8	0.10299426
4	0x3c9cf89b	0.019161513
5	0x39f2c6be	0.0004630591
6	0x3dd384ad	0.1032804
7	0x3e0808bf	0.13284586
8	0x3ae39d21	0.0017365554
9	0x3a25b0a4	0.0006320572
10	0x38f2d162	0.0001157846
11	0x393c7829	0.0001797384
12	0x3d46a9aa	0.048501648
13	0x3dfb46b1	0.12269343
14	0x3cfb5759	0.030681299
15	0x3d660f86	0.056167148
16	0x36f79c9b	7.379405e-06
17	0x3bfb0aab	0.007661184
18	0x3c98b226	0.018639635
19	0x3e38f101	0.18060686
20	0x3d3412a0	0.043963075
21	0x2f41f6cd	1.7640929e-10
22	0x374a9ae9	1.2076206e-05
23	0x37db5d5c	2.6150308e-05
24	0x3c92e299	0.017930316
25	0x3e1c9236	0.1529015
26	0x3e9af36a	0.30263835
27	0x3e348531	0.17628933
28	0x3c23571d	0.0099695
29	0x3d7db8fd	0.061943997
30	0x3c07cba6	0.0082883
31	0x3df49939	0.119432874
32	0x3dda31f7	0.10654061
33	0x3dbf982f	0.093551986
34	0x39808078	0.0002450978
35	0x3e6d9735	0.23202212
36	0x3e8a14e8	0.26969075
37	0x3c0e574f	0.008687808
38	0x3d6e56d1	0.058188263
39	0x3da018b5	0.078172125
40	0x3e8447a2	0.25835901
41	0x3da228ee	0.07917963
42	0x397eea34	0.00024310575
43	0x3e607a2d	0.21921606
44	0x3dce19e0	0.10063529
45	0x3d9283e7	0.071540646
46	0x37ff2882	3.0417232e-05
47	0x3c53a783	0.012918356
48	0x3e4be989	0.19913305
49	0x3db18e95	0.086697735
50	0x3284aa54	1.5444279e-08
51	0x3e65158d	0.22371502
52	0x3c57c826	0.013170278
53	0x39193bc1	0.00014613477
54	0x3df4f4aa	0.119607285
55	0x3db13830	0.08653295
56	0x3d86dc53	0.06584992
57	0x3c54eaea	0.012995461
58	0x3dbd38ec	0.092393726
59	0x3ca67ca1	0.0203231
60	0x3ddfba99	0.109242626
61	0x3e02db77	0.12779032
62	0x36d9010f	6.467227e-06
63	0x3e4c40d5	0.19946606
64	0x36da84d8	6.5123713e-06
65	0x389f40c8	7.593777e-05
66	0x3b6e3063	0.0036344759
67	0x3d95d1e7	0.07315426
68	0x3d73e582	0.059545048
69	0x3cec6b67	0.028859807
70	0x36dc2d7c	6.561806e-06
71	0x3cc7dcf5	0.024397353
72	0x3c35ee4d	0.011104179
73	0x3d56925a	0.052385665
74	0x351e5c36	5.899377e-07
75	0x3d16c19b	0.03680573
76	0x3e6c1ed3	0.23058634
77	0x3d61ca8f	0.055124816
78	0x3cec3939	0.02883588
79	0x3e67dada	0.22642079
80	0x3d5744fc	0.052556023
81	0x3dc05761	0.09391666
82	0x3dec6b7f	0.11543941
83	0x3d570878	0.05249831
84	0x3e51154e	0.20418283
85	0x3db6bbf6	0.089225695
86	0x3c580865	0.013185595
87	0x3da53a21	0.08067728
88	0x3d505e98	0.05087146
89	0x3e438400	0.19093323
90	0x3d52dfc7	0.051482942
91	0x3851c7a2	5.0015406e-05
92	0x3ca21740	0.019786477
93	0x3b0f8b8f	0.0021903252
94	0x3c922f23	0.017844742
95	0x3d882760	0.06648135
96	0x3e18b5d5	0.14913113
97	0x3d088a5e	0.033335082
98	0x3de16f5a	0.11007567
99	0x3c85026e	0.01623651
100	0x3ba06224	0.004894512
101	0x3cc47397	0.023980899
102	0x3dd9f8fa	0.10643192
103	0x3dd8461b	0.105602466
104	0x3c1f1cac	0.009711426
105	0x3ce9012e	0.028442945
106	0x3d3915b2	0.045186706
107	0x3e727f42	0.23681358
108	0x3a39a87b	0.00070822955
109	0x3d69dc04	0.05709459
110	0x3991c90e	0.00027806353
111	0x339a923d	7.1977844e-08
112	0x3d6af801	0.05736542
113	0x3db546dc	0.08851406
114	0x3e326444	0.17421061
115	0x3d20ab71	0.039226
116	0x3e6d7c14	0.23191863
117	0x3d814bdb	0.063132964
118	0x3d2ad0b5	0.041702945
119	0x3e85df82	0.26147085
120	0x3e173d69	0.1476952
121	0x3e54b2fa	0.20771399
122	0x3cbf8cd8	0.02338259
123	0x3e5399c3	0.20664124
124	0x3cbd3ed7	0.023101253
125	0x3bea4655	0.0071494975
126	0x3d4ffb0c	0.050776526
127	0x3b27a57d	0.0025580816
128	0x3d99a4c3	0.07502129
129	0x2f2ba0ab	1.560944e-10
130	0x3dd85b4a	0.10564287
131	0x3d99fade	0.07518552
132	0x3c163125	0.00916699
133	0x3ca97653	0.020686304
134	0x3c866a93	0.01640824
135	0x3d3adb0c	0.045619056
136	0x3845a4f5	4.712209e-05
137	0x3db61540	0.08890772
138	0x3e00b9ea	0.1257092
139	0x3c520a30	0.012819812
140	0x3b649278	0.0034877341
141	0x3d24577a	0.040122487
142	0x3ca406d1	0.020022782
143	0x3ac7db7b	0.0015247905
144	0x3d048d66	0.03236141
145	0x3cbb9551	0.022898348
146	0x3d8ef27d	0.06979845
147	0x3c6519e1	0.013983221
148	0x3d2a4618	0.041570753
149	0x3e1a8db3	0.15093116
150	0x3c4d850f	0.012543931
151	0x3caf1c03	0.021375662
152	0x3d00a177	0.031403985
153	0x3e29edd8	0.16594636
154	0x3d9b109f	0.075715296
155	0x3d1d34c1	0.03838039
156	0x3e13ddb5	0.14440043
157	0x31c4f954	5.732696e-09
158	0x3c82073d	0.015872592
159	0x3a6cabf3	0.0009028308
160	0x3e139ecc	0.14416045
161	0x34f801ca	4.61949e-07
162	0x383a6ad0	4.4445333e-05
163	0x3e858a7d	0.2608222
164	0x3d939640	0.07206392
165	0x3da9a3aa	0.082831696
166	0x3d033565	0.032033343
167	0x394fd770	0.00019821315
168	0x3cf62884	0.030048616
169	0x3ddc9cbf	0.107720844
170	0x3e8f9c62	0.28048998
171	0x3e47982c	0.19491643
172	0x3caa3aa0	0.020779908
173	0x3db257e9	0.08708174
174	0x3a0303fd	0.0004997848
175	0x3dc3c53a	0.09559102
176	0x3e82a9e3	0.25520238
177	0x3c874cce	0.016516116
178	0x3492907f	2.7299754e-07
179	0x3dc93482	0.09824468
180	0x3caffad5	0.02148191
181	0x3d1c24e3	0.038121115
182	0x3da79c30	0.08184087
183	0x3e856d38	0.2605989
184	0x3bd13589	0.0063845557
185	0x3cfbdbe3	0.030744499
186	0x3d0733c6	0.03300836
187	0x3e3980d9	0.18115558
188	0x3c54237a	0.012947911
189	0x3890de36	6.907845e-05
190	0x3def5b92	0.116873875
191	0x3d3cb273	0.04606862
192	0x3dd4baca	0.1038719
193	0x3bd4a6b2	0.006489598
194	0x3e0a9e12	0.13536862
195	0x3dc7fc18	0.0976488
196	0x3e08d3c5	0.13362034
197	0x3e7a0df2	0.24419382
198	0x3d48e15e	0.049043052
199	0x3db0270f	0.086012
200	0x3c8491ee	0.016182866
201	0x3d6bdc46	0.057583116
202	0x3b9391b7	0.0045034545
203	0x3c0a5663	0.008443448
204	0x3a0c2f75	0.0005347648
205	0x3619ef38	2.293802e-06
206	0x39fbff01	0.00048064443
207	0x3c4d0ad1	0.012514786
208	0x3d91ed39	0.07125325
209	0x2e8406b2	6.0038544e-11
210	0x3d41b006	0.04728701
211	0x3d881b77	0.066458635
212	0x3d8af88f	0.0678569
213	0x3c629dab	0.013831536
214	0x3e1f0c36	0.15532002
215	0x3b947d64	0.0045315493
216	0x3e48ba64	0.19602352
217	0x3d9d1834	0.07670632
218	0x3cba2fda	0.022727896
219	0x3bee7752	0.0072774077
220	0x3510460f	5.374613e-07
221	0x3cae1b0a	0.021253128
222	0x3e5bee3e	0.21477601
223	0x3ba3072e	0.004975221
224	0x3aa1a6da	0.0012333051
225	0x3c022af2	0.007944809
226	0x3c2605f5	0.010133256
227	0x3d131d64	0.0359167
228	0x3ce75c8f	0.028242378
229	0x3e23eb63	0.16007762
230	0x3b1340ff	0.002246916
231	0x3cecab6e	0.028890338
232	0x3cc105b1	0.023562284
233	0x3d417285	0.047228355
234	0x3e062311	0.13099314
235	0x3980330e	0.000244521
236	0x3dd37250	0.10324538
237	0x3e4b14a0	0.19832087
238	0x3d07c776	0.033149205
239	0x3d20357c	0.039113507
240	0x35f0b038	1.793268e-06
241	0x3e017663	0.12642817
242	0x3db824d7	0.08991402
243	0x373b29a5	1.1155765e-05
244	0x3de8384a	0.11338861
245	0x3d5bd89d	0.053673375
246	0x3bc2dd05	0.0059467577
247	0x3da5d2cd	0.08096848
248	0x363151a3	2.6422574e-06
249	0x3d0d2018	0.034454435
250	0x3e09eae1	0.13468505
251	0x3b77218c	0.0037709204
252	0x3d1407d1	0.036140267
253	0x3da7c671	0.081921466
254	0x3e7d5650	0.24739957
255	0x3e5c16bb	0.21493046

model.4.weight f4 [256, 512]
0	0xbb3b3e73	-0.0028571158
1	0x3c913a42	0.017727975
2	0x3cae2d17	0.021261735
3	0x3927704a	0.00015968192
4	0x3c8138e6	0.015774202
5	0x3a868468	0.0010262849
6	0x3c373c79	0.011183851
7	0xbcaaddff	-0.02085781
8	0x3a0fe5e9	0.00054892764
9	0xbbd0ad11	-0.0063682874
10	0xb811ed83	-3.4791894e-05
11	0xb8dd3958	-0.00010548782
12	0xbc1ce0ca	-0.009575078
13	0x3d0d468c	0.034491107
14	0x3cc4de83	0.024031883
15	0x3bca1c3f	0.006167918
16	0x396155b8	0.00021489605
17	0x3d046474	0.032322362
18	0xbc5a6da8	-0.013331808
19	0x3c5374aa	0.012906233
20	0xbc8610c8	-0.016365424
21	0xb4b1e736	-3.3137047e-07
22	0xb95a335f	-0.00020809237
23	0xb782e6d2	-1.5604692e-05
24	0xba929811	-0.0011184235
25	0x3c30b385	0.010784988
26	0xbd02c28c	-0.031923816
27	0x3ca0870a	0.019595642
28	0xbbdae138	-0.00667968
29	0xbb8a8c03	-0.0042281165
30	0xba99018e	-0.0011673437
31	0xbcb2e801	-0.021839144
32	0x3c6e9a19	0.014563107
33	0x3aa26699	0.0012390196
34	0x3821b4e7	3.855387e-05
35	0xbc2da64c	-0.01059873
36	0xbce8ad26	-0.028402876
37	0xb8e21f38	-0.00010782335
38	0x3d677299	0.056505773
39	0x3b494769	0.003071273
40	0xbc432e86	-0.0119129475
41	0x3bce4179	0.006294426
42	0xba0347a5	-0.0005007929
43	0xbc404781	-0.011735798
44	0x3ae0f373	0.0017162397
45	0xbb11c23b	-0.0022241015
46	0x378bf8f9	1.6686028e-05
47	0xbc4d9e69	-0.012549975
48	0xbca87ed4	-0.020568289
49	0xbc7604c4	-0.015015785
50	0x381b9a34	3.7098493e-05
51	0xbce81df0	-0.028334588
52	0xbab22df1	-0.0013594014
53	0xb586bfca	-1.0039596e-06
54	0xbcd873d1	-0.026422413
55	0x3c48f21f	0.012264757
56	0xba895e06	-0.0010480292
57	0xbb1d1f2c	-0.0023974879
58	0xbb6c743f	-0.003608003
59	0x3da9318d	0.08261404
60	0xbce92f13	-0.02846483
61	0xbd33b8a6	-0.043877266
62	0x3878d7db	5.932884e-05
63	0xbd241d77	-0.040067162
64	0xb4ef5149	-4.4576362e-07
65	0xb86eb750	-5.6914345e-05
66	0x3acdfbfa	0.0015715354
67	0x3c048b7e	0.008089898
68	0x3bc4c024	0.0060043503
69	0x3d507f77	0.05090281
70	0x3712d99d	8.752945e-06
71	0x3b56cc04	0.0032775411
72	0x3b32a035	0.0027256135
73	0x3b9e0b9a	0.0048231604
74	0xb4bd7fa9	-3.5296878e-07
75	0x3c3a90fa	0.011387104
76	0xbcb9d834	-0.022686101
77	0x3c8a6d93	0.016897952
78	0xbac6af10	-0.0015158374
79	0x3c6f2124	0.014595304
80	0xbc46ca0a	-0.012133131
81	0xbca0d7bb	-0.019634118
82	0x3d1c3f2b	0.03814618
83	0x3d1f41b7	0.03888103
84	0xbc4d038e	-0.012513055
85	0xbb3e2e45	-0.0029019278
86	0x3dd6374f	0.10459768
87	0xbd0e2c18	-0.03471002
88	0xbc2663e7	-0.0101556545
89	0xbc6664d0	-0.0140621215
90	0xbb77915e	-0.0037775855
91	0x3952267d	0.00020041499
92	0xbca2ff3f	-0.019897101
93	0xbaf22c34	-0.0018476308
94	0xbb9f6187	-0.004863921
95	0x3b50c2b8	0.0031854343
96	0x3cb8f535	0.022577861
97	0x3c0cf5e4	0.008603547
98	0xbcb52376	-0.022111636
99	0x3a33003a	0.0006828342
100	0x3cd2d841	0.025737884
101	0x3b3f84f0	0.0029223524
102	0xbc30cb74	-0.0107906945
103	0xbc10f442	-0.008847298
104	0xbc07703d	-0.008266506
105	0xbb610c00	-0.0034339428
106	0x3d51f731	0.05126113
107	0x3bffc35e	0.007805272
108	0x3a1d0385	0.0005989599
109	0x3c951b0f	0.01820138
110	0x3a65f2a6	0.0008771814
111	0x3646a3f9	2.9599744e-06
112	0xbb945a4c	-0.004527366
113	0xbd0436f2	-0.032278962
114	0xb8b14c00	-8.454174e-05
115	0x3c7146ad	0.014726323
116	0xbc8b5792	-0.01700953
117	0xbc1aecc8	-0.009455867
118	0x3d8037b8	0.062606275
119	0x3c28983a	0.0102902
120	0xbc100336	-0.008789828
121	0xbcc7bd0a	-0.024382133
122	0x3d0d8246	0.034548067
123	0xbca18416	-0.019716304
124	0x3d5d22ef	0.053988393
125	0x3912892d	0.00013974747
126	0xbbe4667a	-0.006970224
127	0x3b5c5d98	0.0033625122
128	0xbc2b5ea1	-0.010459573
129	0x37810adf	1.538306e-05
130	0x3bb6db4e	0.0055803424
131	0x3c300ef5	0.0107457535
132	0x39f4a337	0.0004666091
133	0x3aac7833	0.0013158381
134	0x3c1aa538	0.009438805
135	0x3ad2152c	0.0016028038
136	0xb4e7e96f	-4.3196948e-07
137	0xbc9f2a5c	-0.019429378
138	0xba1402bd	-0.000564616
139	0x3d43a055	0.047760326
140	0xba34b9f9	-0.0006894167
141	0x3b7b6b8f	0.003836367
142	0x3b13871c	0.0022510951
143	0xb99416c0	-0.0002824571
144	0x3bb39e7c	0.0054815393
145	0xbb6bd430	-0.0035984628
146	0x3c607c82	0.01370156
147	0x3c7a9423	0.015294108
148	0x3d6a8dbb	0.05726407
149	0x3b5877c4	0.003303037
150	0x3db45cd1	0.08806766
151	0x3d0074bb	0.031361323
152	0xbc9027bc	-0.017597072
153	0xbc79050f	-0.01519896
154	0xbd44a472	-0.04800839
155	0xbb373b6e	-0.0027959007
156	0xbce0c529	-0.027437763
157	0xb542fdf7	-7.26402e-07
158	0x3c2c5ddb	0.010520424
159	0x395c625e	0.0002101748
160	0x3b357bd6	0.002769222
161	0x33a3438e	7.602567e-08
162	0xb5cbc707	-1.5182603e-06
163	0xbbe19f50	-0.0068854466
164	0x3a5c0ce9	0.0008394258
165	0x3ce8f0ed	0.028435195
166	0xbbb6aa31	-0.0055744876
167	0x38381f53	4.389819e-05
168	0x3919c064	0.00014662888
169	0xbc634344	-0.013871018
170	0xbccbf652	-0.024897728
171	0xbc33df9c	-0.010978606
172	0x3b11f5b0	0.0022271685
173	0x3c4930be	0.012279687
174	0xb870d81f	-5.7421737e-05
175	0x3cbc9da6	0.023024391
176	0xbcb36722	-0.021899763
177	0x3be1c1f2	0.006889575
178	0x35215d5b	6.0113024e-07
179	0x3d101598	0.035176843
180	0xbbf526a2	-0.007481412
181	0x3c220665	0.00988922
182	0xbb29192c	-0.0025802357
183	0xbc474b4c	-0.012163948
184	0x3a1b306f	0.0005919998
185	0xbc35dbb3	-0.011099744
186	0x3c5493c0	0.0129746795
187	0xbb9f9d2c	-0.0048710313
188	0xbbfa02e4	-0.007629739
189	0xb9f49ad8	-0.00046654674
190	0xb987905f	-0.0002585677
191	0xbc398c08	-0.01132489
192	0x3ca7e401	0.020494463
193	0xbacb812a	-0.0015526165
194	0xbb033bc4	-0.0020024637
195	0x3d2397bf	0.03993964
196	0x3ccf671f	0.025317727
197	0xbc0f48c5	-0.008745377
198	0x3c73b4b8	0.01487463
199	0xbcf56d6a	-0.0299594
200	0x3d2554ce	0.04036408
201	0x3d4d709d	0.050156225
202	0xb94e1d22	-0.00019656544
203	0xbb7b228e	-0.0038320157
204	0xbad66ea5	-0.0016359879
205	0xb58fb9e3	-1.070843e-06
206	0xba3c90e7	-0.0007193223
207	0x3d63eb0d	0.055644084
208	0xbc0381b3	-0.008026528
209	0xb5d05c97	-1.5524155e-06
210	0x3c797a5c	0.015226927
211	0xbd08bb8e	-0.03338199
212	0x3c3d71c2	0.0115627665
213	0xbd2c0476	-0.04199644
214	0xbac32c6c	-0.0014890558
215	0xbb2317d1	-0.0024886022
216	0xbbdd7728	-0.0067585893
217	0x3d60d497	0.05489024
218	0x3d844596	0.06458585
219	0x3ab64984	0.0013907407
220	0x33a7a614	7.806753e-08
221	0x3c7bcc00	0.015368462
222	0xbcb29764	-0.021800704
223	0x391e9dba	0.00015126812
224	0xb99c56ee	-0.00029819406
225	0xbc2db33f	-0.010601818
226	0xbb4cc961	-0.003124796
227	0x3b6c48ca	0.0036054128
228	0x3da31b57	0.07964199
229	0xbc34dc2d	-0.011038822
230	0x3bf92613	0.0076034158
231	0x3d43527c	0.047686085
232	0x3de04a57	0.10951679
233	0x3b976c15	0.0046210387
234	0x3c202cd3	0.009776312
235	0xba0c2cd5	-0.00053472567
236	0xbc6c1a8a	-0.014410624
237	0xbcc634ca	-0.024195094
238	0x39455e7a	0.0001882258
239	0x3c910fea	0.017707784
240	0x35e807fc	1.7287671e-06
241	0xbc0e38c7	-0.008680529
242	0x3ce488c5	0.027897248
243	0xb570b6c7	-8.9672943e-07
244	0x3ca2c4a6	0.01986916
245	0x3c114a38	0.008867793
246	0xbb8df9a1	-0.0043327366
247	0xbbc9cc2f	-0.006158374
248	0xb696117f	-4.472385e-06
249	0xbca85efd	-0.020553106
250	0x3d1a4ff1	0.037673894
251	0x3a84d97b	0.0010135615
252	0xbcc69849	-0.024242537
253	0x3ce9104f	0.02845016
254	0xbc07a37d	-0.008278725
255	0xbc36c16f	-0.011154517
