ml_service/best_mlp_model_weighted_reverse.pt (torch, 866689 bytes, 19 tensors)

model.0.weight f4 [512, 71]
000000 44 ca 12 bd cc 49 2c bd 86 d5 4b be f1 b1 8b bd
       -0.035837427 -0.042062566 -0.19905671 -0.06821049
000010 3e 50 97 3e 35 af 1f 3e 97 27 ac 3e 8f 80 9a 3e
       0.29553407 0.1559418 0.33623955 0.30176207
000020 24 bc 25 3b 00 86 2a 3e 3e 69 98 bd aa 1b 33 ba
       0.0025289143 0.1665268 -0.07441948 -0.00068324304
000030 13 96 66 3e d2 8b bb 3e 3e 64 31 be 09 18 b5 bd
       0.22518186 0.36630112 -0.17323396 -0.08842475
000040 65 76 7d 3e cf 0b 85 3e d6 6c a1 3e b2 6f 71 3e
       0.24752195 0.25985572 0.31528348 0.23577765
000050 33 5c 28 3e 9b 12 05 3e 2b 1e 64 be 7e 66 7c bd
       0.16441421 0.12995379 -0.22277133 -0.06162118
000060 d6 46 81 be a8 c7 01 be d1 6f da 3e 1b 20 be 3e
       -0.25249356 -0.12673819 0.42663434 0.3713387
000070 ad 34 19 be bc d4 7f bc fe f4 52 be 44 6c 4f be
       -0.149615 -0.015614685 -0.2060127 -0.20256144
000080 55 bb 61 be 11 6f 61 be a0 ed 20 3e f6 fe fe 3d
       -0.22044118 -0.22015025 0.15715647 0.12450974
000090 52 ae c9 bd d3 e4 b6 bd 33 98 15 be ff a6 ab bd
       -0.09847702 -0.089303635 -0.1460884 -0.08381461
0000a0 4b 2c 4e bc 78 6d 07 be 51 7b 68 3e 27 8d 9d 3c
       -0.012583802 -0.13225353 0.22703291 0.019232346
0000b0 49 a8 dd bd bc a5 a4 bd 59 c0 bf 3c ca 18 33 be
       -0.108231135 -0.08039424 0.023407148 -0.17489925
0000c0 65 69 f0 bd ef a2 84 be 57 f3 66 be a8 94 f8 3c
       -0.117388524 -0.25905558 -0.22553764 0.030344322
0000d0 7f 90 95 be 37 b0 7a be e2 e3 41 be 29 17 91 be
       -0.29211804 -0.24481283 -0.18934587 -0.28337982
0000e0 db 8c 73 bd 57 2d 8b bd b0 e5 2e 3d 97 d9 11 bc
       -0.059460502 -0.06795757 0.042699516 -0.008901975
0000f0 9a 71 0e 3c 8e 51 3a 3e 6f ba 98 bc e9 bd 91 bc
       0.008694077 0.18195173 -0.018643586 -0.017790752
000100 e0 10 f0 3d 3a fb 5a 3f 82 40 01 bc bc f3 5c bd
       0.11721969 0.8553959 -0.007888915 -0.05394338
000110 69 b6 5f be 96 8a 6a 3d a8 cd 19 3e 26 92 4b 3b
       -0.21846928 0.057261072 0.15019858 0.0031062453
000120 3f 45 34 3a 37 34 8d 3a 47 29 14 bb 21 05 9f 3a
       0.00068767736 0.0010773008 -0.002260761 0.0012132266
000130 1e ce 28 bb 16 13 5c bb 41 e9 c0 bb dc 6c 5d bb
       -0.002575762 -0.0033580712 -0.005887181 -0.003378681
000140 df bb 6e bb 46 b2 50 39 7e de f0 3b c7 3d aa bb
       -0.0036427898 0.00019902838 0.007350742 -0.0051953527
000150 de 34 aa 3a ec dc 8d 3b 2a d6 00 bc 2b aa b4 3b
       0.0012985726 0.0043293145 -0.007863561 0.0055134497
000160 a6 83 ac 3b 32 13 b6 3b e5 53 a0 39 2a 08 01 3c
       0.005264717 0.0055564875 0.00030580084 0.007875482
000170 71 b1 ee 3a ac e2 c6 b6 2a 64 ac 3a 19 75 ba bb
       0.0018210841 -5.927248e-06 0.001315241 -0.0056902287
000180 bb 6a 58 bb b2 b7 b0 ba 83 e2 b5 3b 1d 8a 8b 3b
       -0.00330226 -0.001348248 0.005550684 0.0042584077
000190 81 3d 1f 3b 52 38 63 bb c8 32 6e ba b4 04 e4 ba
       0.0024298134 -0.003467102 -0.00090865465 -0.0017396421
0001a0 01 6b 3f bb 4c a1 ae 39 c6 1c c0 bb 6c 5b 03 3c
       -0.0029208066 0.00033308042 -0.005862805 0.008017402
0001b0 9e ab 82 3a 14 64 fb bb 94 7f 8c bb 80 0e 41 bc
       0.0009969359 -0.0076718424 -0.0042876694 -0.011783242
0001c0 15 dd 94 bb 74 be 90 ba 7f 0f 5d bc be 6f c5 b8
       -0.0045429566 -0.0011043088 -0.013492464 -9.4145056e-05
0001d0 36 bf 88 3b ab 7c 8a 3b 2b 88 0e bb 60 a0 d3 b9
       0.0041731847 0.0042262874 -0.0021748643 -0.00040364545
0001e0 b3 fd ff b8 10 ea 36 3b 30 29 f5 ba 12 dc 06 3b
       -0.00012206603 0.0027910508 -0.0018704291 0.002057795
0001f0 d8 bd ed 3a 0f 53 1b bb 48 af 14 3c 2a 64 ac 3a
       0.0018138243 -0.002370063 0.009074993 0.001315241
000200 47 29 14 bb d9 e3 0d 3c db a0 7b ba dc 6c 5d bb
       -0.002260761 0.00866028 -0.00095988595 -0.003378681
000210 75 58 28 bc 81 3d 1f 3b b8 17 ec 3b 2e 8e 0d bd
       -0.010274996 0.0024298134 0.007204976 -0.03455942
000220 db aa 42 bd 8b 38 2c bd 3d 33 22 3d 03 1d e4 3b
       -0.04752622 -0.04204611 0.039599646 0.0069614663
000230 69 61 ff 3c e9 50 63 bc 01 2b 20 bc 21 95 9a 3c
       0.031174378 -0.013874271 -0.009775878 0.018869938
000240 b9 eb 5c 3c fd 2d 9a bb c5 9d 22 bc e6 90 32 3b
       0.013483935 -0.0047051893 -0.0099253105 0.002724701
000250 75 00 27 3c 95 1d 32 bc 2c 0b 54 3c d9 07 b5 bb
       0.01019298 -0.010871311 0.012942117 -0.005524617
000260 59 82 58 3c a9 0a 9a bb 5f f7 7a 3b 16 b7 bf 3c
       0.013214671 -0.004700978 0.0038294417 0.023402732
000270 8f bf 41 3b 26 32 9c bc ef 1e 3f bc 80 1c c1 bc
       0.002956364 -0.019066881 -0.01166509 -0.02357316
000280 c6 ff 9b 3a ad c8 86 bc 0a bb a7 3b 7d 01 37 3c
       0.0011901788 -0.016453112 0.0051187323 0.011169788
000290 7c 9e 94 3b 7f 1c 2d 3c 39 aa c2 3a 51 f3 7b bc
       0.0045354944 0.010565876 0.0014851756 -0.015377835
0002a0 86 f7 64 bc 65 f5 8f 3c 8b 01 49 b8 37 46 cc bc
       -0.01397503 0.017573068 -4.792357e-05 -0.024935825
0002b0 41 4b 13 3b a2 42 a0 3c f4 de 74 bb 17 b7 d1 bc
       0.0022475275 0.019563023 -0.0037364336 -0.0256
0002c0 ad 1c 41 bc 1f 5a 37 3c 13 2c 80 3b 69 73 be 3c
       -0.011786622 0.01119092 0.003911504 0.023248391
0002d0 62 ce c0 38 fa d0 03 3b a5 f8 cf 3b f8 1a ac bb
       9.193715e-05 0.0020113573 0.0063467794 -0.0052522384
0002e0 d8 5f 17 bc 74 23 3c 3b d5 94 de bc 01 07 54 bb
       -0.0092391595 0.0028707655 -0.027170578 -0.0032352807
0002f0 a4 19 3e 3c 59 5f 32 3b 64 67 05 bc 7b 2d 99 b9
       0.011602793 0.0027217476 -0.008142326 -0.0002921632
000300 0f a0 06 bc db 77 07 3d 0c 07 94 bb 8b ab bb bb
       -0.008216872 0.033073287 -0.0045174416 -0.0057272366
000310 98 46 5f ba f6 cb a6 3a 7f 1c 2d 3c fd 2d 9a bb
       -0.0008517294 0.001272558 0.010565876 -0.0047051893
000320 c0 9d 5b bc 3e 00 2b 3c 2c 0b 54 3c f6 f2 36 bc
       -0.01340431 0.010437069 0.012942117 -0.011166325
000330 37 46 cc bc 01 e6 ae bc d8 ba af 3c 08 53 ba bd
       -0.024935825 -0.021349909 0.021451399 -0.09097868
000340 af b2 b1 bd a1 c6 8d 3c fb 2f 0d 3c 02 33 7d 3c
       -0.08676659 0.017306628 0.0086173965 0.015454056
000350 3f c1 7b bc ba 29 0f bd 97 82 19 3d 9c fd 4b bc
       -0.015365898 -0.034951903 0.037478056 -0.012450602
000360 0a 8b fe bb 2b bc 0b bd 74 ad c0 bc e6 50 52 3d
       -0.0077680396 -0.034114998 -0.023520209 0.051346682
000370 d4 28 ae bd 9f fd fb 3b d7 33 66 3c a7 d2 df 3a
       -0.08503881 0.007690146 0.0140504455 0.0017076329
000380 71 97 61 39 6c 8b 2e bd 0a 51 8c 3d 13 98 84 bc
       0.00021514088 -0.04261343 0.068513945 -0.016185796
000390 ce 6b 1b bd 5a 1d 98 3c 39 12 a4 bd cc 93 5c bd
       -0.037944607 0.018568683 -0.08011288 -0.053851888
0003a0 19 dc 24 3d 01 65 0f 3d 8b 8c 36 bd c9 dc 68 bd
       0.040248964 0.035008434 -0.044567626 -0.056851182
0003b0 57 0e 6c 3c 32 bc 0c 3d d6 9a 9a 3c 2c d6 f8 3b
       0.014407716 0.034359165 0.01887266 0.0075938907
0003c0 68 70 ad bd fd 83 d0 3a 44 31 3f bc 5f 8d 37 bd
       -0.084687054 0.0015908476 -0.011669461 -0.044812556
0003d0 7f c8 0d 3e 3b a5 90 bc 06 49 53 3d b9 28 d5 bc
       0.13846014 -0.017656913 0.051583312 -0.026020395
0003e0 0e 1b 4a 3d 09 c4 a9 3d 67 c4 13 3d ae 95 d2 3c
       0.049342208 0.08289344 0.036075976 0.025706138
0003f0 7c 52 a9 3c f9 25 15 bd f5 a3 0f 3c 6d c4 a5 bb
       0.020669214 -0.036413167 0.008767118 -0.005058816

model.0.bias f4 [512]
000000 bd 73 38 b7 a8 16 a3 34 50 75 80 34 6d 16 40 b7
       -1.0994202e-05 3.03776e-07 2.3927214e-07 -1.1449313e-05
000010 be 96 df 38 15 59 a8 b3 c3 b6 7b b8 1f 39 9e 32
       0.000106615465 -7.8393136e-08 -6.0013273e-05 1.8419597e-08
000020 18 d9 6f b4 c5 5b 78 b7 94 cf 67 b2 d3 53 30 b7
       -2.2337588e-07 -1.4803319e-05 -1.34931675e-08 -1.0509934e-05
000030 9e c0 22 b8 23 7a d1 33 9d ec 2b 35 68 3f 25 b3
       -3.88032e-05 9.7545374e-08 6.404678e-07 -3.8474724e-08
000040 1f e6 56 37 83 5d 3e 35 f6 94 8c 34 67 3d bc 37
       1.2808973e-05 7.0916593e-07 2.6185415e-07 2.243994e-05
000050 73 5c e2 b6 fc df 09 39 c7 d0 23 35 7b 82 c2 b7
       -6.7460874e-06 0.00013148779 6.1026043e-07 -2.3187362e-05
000060 37 1e e6 b4 92 3a 5e 38 6d a1 31 36 aa 72 79 33
       -4.2862823e-07 5.2983472e-05 2.6469017e-06 5.8079117e-08
000070 f9 60 c2 b5 d3 2e 4a b4 b7 47 1b b7 8c c9 8b 33
       -1.4482349e-06 -1.882975e-07 -9.255417e-06 6.509353e-08
000080 a2 f1 02 37 5e b8 ac 33 4e 83 4c b7 b6 cb 27 37
       7.804863e-06 8.04291e-08 -1.2189919e-05 1.0001406e-05
000090 17 b3 cc 37 9c 87 e2 b5 bc 77 44 35 ba fa 2c 33
       2.440209e-05 -1.687778e-06 7.3189926e-07 4.0274905e-08
0000a0 1c 80 92 33 20 34 5e b4 40 c4 44 b7 af 62 b3 b4
       6.821958e-08 -2.0694324e-07 -1.1728203e-05 -3.341315e-07
0000b0 33 12 06 b2 1e b9 36 38 33 82 a5 b7 ba a1 90 37
       -7.803965e-09 4.3564585e-05 -1.9730162e-05 1.7241447e-05
0000c0 6a 2e a5 36 0c 0b a9 36 fb 8c a9 b5 15 25 02 37
       4.9227865e-06 5.0378785e-06 -1.2632512e-06 7.757238e-06
0000d0 87 ea 3e b8 cc 80 f2 37 80 ce 83 b8 b9 a0 6a 36
       -4.551795e-05 2.8908624e-05 -6.2850304e-05 3.496227e-06
0000e0 ed be 3d b6 cd b1 80 35 d0 70 4e 37 64 f5 c0 b8
       -2.8274328e-06 9.58849e-07 1.2304823e-05 -9.200981e-05
0000f0 73 f5 72 b6 de dc 30 b8 13 49 82 b3 c3 4a 47 38
       -3.620368e-06 -4.216737e-05 -6.066889e-08 4.7514925e-05
000100 91 5e 01 b4 13 d1 5c b4 3d d4 2a 35 bd bd 26 b5
       -1.2048464e-07 -2.0565157e-07 6.363878e-07 -6.2115924e-07
000110 0d dc a5 37 89 2f c0 b3 f8 17 31 b3 fc 85 29 37
       1.9772002e-05 -8.949343e-08 -4.1232823e-08 1.0104381e-05
000120 7d 58 aa b8 ba 61 4b 34 e3 1a cf b7 c0 d6 44 38
       -8.122714e-05 1.8941401e-07 -2.4688843e-05 4.6930043e-05
000130 c5 6b f3 34 ca b4 7a b3 81 d8 e9 b2 04 01 b0 b6
       4.534069e-07 -5.8372088e-08 -2.7223225e-08 -5.245327e-06
000140 f7 3b 42 b8 a6 d0 22 37 a9 59 12 36 96 6c 63 b5
       -4.630905e-05 9.704532e-06 2.1807884e-06 -8.4722103e-07
000150 cb 29 5d 32 37 d1 90 34 0f ce bd b4 b7 1d da 37
       1.2873396e-08 2.6974314e-07 -3.535392e-07 2.6001462e-05
000160 a4 69 31 b5 44 05 9b 36 dd 9e 45 37 47 c6 32 b6
       -6.6091366e-07 4.619973e-06 1.1779103e-05 -2.663948e-06
000170 3f a5 85 b4 8d 36 e1 b6 f0 c9 1d 34 62 47 12 b9
       -2.4893413e-07 -6.711873e-06 1.4695229e-07 -0.00013950237
000180 71 52 5c b8 fc fc 1f b5 a9 f5 f9 34 ce 26 e2 37
       -5.2528867e-05 -5.9600256e-07 4.6558606e-07 2.695937e-05
000190 87 4e eb 37 2d 36 d2 b1 7f df 31 32 c1 c7 63 b7
       2.805075e-05 -6.1179635e-09 1.0353573e-08 -1.3576763e-05
0001a0 9e 1b 4d b6 fd 36 92 32 49 31 19 32 c4 a4 f7 35
       -3.0563456e-06 1.7021643e-08 8.916978e-09 1.8450887e-06
0001b0 fc ab 14 b4 25 33 9a 32 46 44 d5 b4 3e dc fa 32
       -1.3846142e-07 1.7951217e-08 -3.9724017e-07 2.9203985e-08
0001c0 58 19 13 37 1d aa b7 b2 08 5f 3f b3 a5 1c 97 b2
       8.767784e-06 -2.1381362e-08 -4.4557083e-08 -1.759174e-08
0001d0 62 f5 15 37 ce d1 ee 37 aa 49 ab b1 d0 40 04 b8
       8.938225e-06 2.8469509e-05 -4.9851296e-09 -3.1531614e-05
0001e0 a6 ce 71 b3 16 03 bc b5 4c 07 25 b4 d7 79 13 33
       -5.630013e-08 -1.400799e-06 -1.5369477e-07 3.4336917e-08
0001f0 10 86 22 b7 6f 88 b3 37 64 96 48 33 04 58 1b b3
       -9.687166e-06 2.1401995e-05 4.6702908e-08 -3.61688e-08
000200 a4 b9 eb 37 0c 31 45 b4 dd 97 27 31 2f 84 94 b6
       2.8100629e-05 -1.8364898e-07 2.4388023e-09 -4.426132e-06
000210 3b f7 66 35 ff ce fa 37 cf 3f fe b5 28 35 33 35
       8.6041445e-07 2.9898712e-05 -1.8943045e-06 6.676005e-07
000220 e6 3e 5e b3 34 ed 84 b3 27 2a 63 b4 f7 00 10 b7
       -5.174561e-08 -6.189876e-08 -2.1156357e-07 -8.5832935e-06
000230 1a 8d 26 37 e7 f5 02 35 85 50 96 36 10 73 cc b3
       9.927224e-06 4.878661e-07 4.479722e-06 -9.52042e-08
000240 d8 fb 28 b5 43 e6 02 35 5d 3f 5f 34 dc 15 30 b8
       -6.295136e-07 4.876385e-07 2.0791545e-07 -4.1982028e-05
000250 67 ba 3b 38 46 2b de 33 42 c1 40 b5 d0 5b 62 b6
       4.4757875e-05 1.0345552e-07 -7.18068e-07 -3.3730066e-06
000260 42 01 e1 37 e4 b6 d8 34 4f b6 e0 32 1b 03 8e 35
       2.6822676e-05 4.0366206e-07 2.6159936e-08 1.0580728e-06
000270 77 d1 68 33 e3 cb d7 b4 e7 bd 20 32 14 27 1d 37
       5.4207216e-08 -4.0195218e-07 9.3564045e-09 9.367028e-06
000280 f6 87 33 b5 e9 1c f5 34 bf ff 8d 35 1c fe 06 b8
       -6.6880546e-07 4.565584e-07 1.057975e-06 -3.2184747e-05
000290 12 f0 db b5 2a 4f 0b b6 83 dc f4 31 89 4e 1c 36
       -1.6386641e-06 -2.0758694e-06 7.126404e-09 2.3291525e-06
0002a0 40 4f 94 b8 46 f4 e2 38 fa 63 1f 32 32 cf 42 37
       -7.0719514e-05 0.00010822019 9.27775e-09 1.16115425e-05
0002b0 0e 61 6a b7 1e ab a5 b7 5f c1 dd b7 45 1d 2b 34
       -1.3970084e-05 -1.9749215e-05 -2.6435298e-05 1.5936264e-07
0002c0 69 89 e3 34 ad b9 19 b6 26 70 25 36 15 c4 ab 33
       4.2382024e-07 -2.2906854e-06 2.4652195e-06 7.998475e-08
0002d0 4e b1 08 b1 ee df a1 b5 9e 7b 27 b6 08 07 65 37
       -1.989139e-09 -1.2060607e-06 -2.4956894e-06 1.3651101e-05
0002e0 8f 53 d7 33 20 54 f0 36 fa f6 44 37 e9 f5 4c b3
       1.0026917e-07 7.162351e-06 1.1740014e-05 -4.7721105e-08
0002f0 ca fb 6e b7 89 76 95 32 8f 81 2f 32 8d d6 95 34
       -1.424453e-05 1.7399787e-08 1.0215799e-08 2.790952e-07
000300 37 58 90 b5 5c 61 f1 33 f9 39 46 b3 0a 53 c9 37
       -1.075451e-06 1.12401466e-07 -4.6153193e-08 2.3999735e-05
000310 ea 27 71 35 6f af b2 b7 6f 45 2d 38 b2 74 62 b5
       8.983758e-07 -2.1300946e-05 4.131108e-05 -8.4361375e-07
000320 9a 2d a3 35 00 15 4a 37 07 ac 4d 34 8c 39 85 b6
       1.2157718e-06 1.2045028e-05 1.9154696e-07 -3.970408e-06
000330 fa 54 a5 36 d7 6f b0 b2 3e a1 2a 38 fe aa 0e b5
       4.9272758e-06 -2.0539956e-08 4.0681327e-05 -5.314795e-07
000340 86 fc 35 b7 c1 17 20 b7 61 33 f0 b7 1f 0b 16 34
       -1.0847236e-05 -9.542274e-06 -2.8634155e-05 1.3973884e-07
000350 59 a1 04 34 3c 54 89 33 a5 04 52 38 f9 dd f8 37
       1.2352156e-07 6.394882e-08 5.0072227e-05 2.9667268e-05
000360 23 12 ff b5 f6 87 94 b5 d7 3d 1f b8 a0 23 f4 32
       -1.9004259e-06 -1.1066429e-06 -3.7966147e-05 2.8421539e-08
000370 95 16 32 b8 1e fb 0b b7 4b 6b ea b4 e8 dd 20 b3
       -4.245954e-05 -8.343513e-06 -4.3663962e-07 -3.7454726e-08
000380 24 33 df 36 ba 39 a4 b3 71 77 54 b8 21 6a 83 33
       6.6518714e-06 -7.6473455e-08 -5.0655977e-05 6.1194676e-08
000390 f7 3d 15 b6 00 ef 69 33 8d 02 b5 b4 fa 9d 84 35
       -2.2238798e-06 5.446691e-08 -3.3715733e-07 9.880744e-07
0003a0 aa b1 21 b5 16 d5 40 b6 98 aa 09 35 b7 a9 02 b1
       -6.023571e-07 -2.8734262e-06 5.1284724e-07 -1.9013962e-09
0003b0 e2 c4 91 b8 37 56 57 b5 bd 15 11 36 8c a8 a6 b1
       -6.950811e-05 -8.02192e-07 2.1619337e-06 -4.8503974e-09
0003c0 e4 3a e4 34 06 cd 9b b3 a1 50 cc 35 1d f6 0d b7
       4.2511158e-07 -7.2550435e-08 1.522265e-06 -8.461558e-06
0003d0 d7 25 fb b5 4e 55 92 31 74 e0 ee b7 1a 0a d0 b4
       -1.871197e-06 4.2588573e-09 -2.847633e-05 -3.875037e-07
0003e0 c1 3a 83 34 c0 d0 39 36 f4 67 3f 38 89 0e 8a b7
       2.44434e-07 2.7688657e-06 4.5634763e-05 -1.645765e-05
0003f0 ef 65 81 b5 b0 95 b1 35 75 c5 1c b5 3a 18 05 b8
       -9.640916e-07 1.3231092e-06 -5.8401866e-07 -3.1732234e-05

model.1.weight f4 [512]
000000 e2 66 a2 3f 60 88 1a bc b0 f3 67 bc 7e ff 8d 3e
       1.2687647 -0.009431928 -0.014157221 0.27733988
000010 7d f5 c9 3f c2 0d c6 ba 73 48 57 3f 92 09 a5 ba
       1.5778042 -0.0015110301 0.84094924 -0.0012591353
000020 10 d1 10 bc 97 bf af 3e 59 54 b7 3a c7 12 a1 3e
       -0.008838907 0.3432586 0.001398693 0.31459638
000030 76 03 de 3e 37 57 09 3c 12 51 c7 3c 10 8d 0a 3b
       0.43362015 0.00838261 0.02433065 0.0021141209
000040 56 5e db 3e 7e f6 a4 bb 2e b0 58 3b 11 40 ec 3e
       0.4284541 -0.005034267 0.0033063996 0.4614263
000050 ee f2 be 3e 31 d7 b2 3f a3 7a 5c 3c 74 4b a7 3e
       0.37294716 1.3971921 0.013456973 0.32674754
000060 5d 1f 17 3c 30 32 05 3f a2 4b 0a 3f e8 01 4b 3b
       0.009223786 0.52029705 0.54021657 0.0030976478
000070 d1 17 22 3c 93 d3 ab bb 50 9c b0 3e 0c 1a a5 bc
       0.009893374 -0.0052437275 0.34494257 -0.020154022
000080 ee 56 a3 3e 52 99 65 3c 3d df 79 3f 88 8d f2 3e
       0.3190226 0.014013605 0.9760626 0.47373605
000090 a3 d9 5e 3f b8 47 c6 3c 88 47 eb bb d1 5a 6e bb
       0.8705084 0.02420412 -0.007180158 -0.0036370049
0000a0 67 f4 68 bb b6 5c b9 bc 26 7c 94 3e 0c 7b 36 3c
       -0.0035546066 -0.022627216 0.29000968 0.011137735
0000b0 07 98 2e bb 39 f2 4b 3f c4 16 a9 3e ff 75 ab 3e
       -0.0026640908 0.7966648 0.3302518 0.3348846
0000c0 5c ef d3 3e 2c 61 fe 3d cb 0f 81 bc c7 d9 63 3f
       0.41393554 0.12420878 -0.015754601 0.89004177
0000d0 d5 7d c4 3e 0e 07 06 3f eb 87 b4 3e b8 40 b5 3e
       0.38377252 0.52354515 0.35259947 0.3540094
0000e0 9e 3b ff 3d ca 5c f6 bb aa d2 9c 3e 5d 61 a7 3f
       0.12462543 -0.0075183855 0.30629474 1.3076588
0000f0 6e 2c 5b 3f f6 58 dc 3e be b8 9f 3b b3 10 98 3e
       0.8561467 0.43036622 0.004874318 0.2970024
000100 82 fc 38 3b 36 fe 40 bb ab 81 ac bc b5 ad 83 bc
       0.0028226678 -0.0029448397 -0.021057924 -0.01607404
000110 fd 0e 9b 3e 38 3b b1 b9 49 64 63 bc 8d 1b d5 3e
       0.30284873 -0.00033804192 -0.01387889 0.41622582
000120 a7 57 18 3f ef 2f 6f 3b 3b 0c c1 3e 35 f2 a1 3e
       0.59508747 0.0036497077 0.37704644 0.31630102
000130 05 d5 17 3c 78 45 f0 bb 81 e3 7c 3c ae d1 e5 3b
       0.009267096 -0.0073325 0.0154351005 0.007013521
000140 c1 1e 80 3f 51 de be 3e 29 46 3a 3c 38 8c 33 3c
       1.0009385 0.3727899 0.011369267 0.010958724
000150 36 20 bf 3a c5 03 01 3c e0 95 1d bc 4f 48 25 3f
       0.0014581743 0.007874434 -0.0096182525 0.6456346
000160 fc 75 65 3c e1 34 c4 3e cd 1f 65 3f 42 0f 0c 3e
       0.01400518 0.38321593 0.8950165 0.13677695
000170 4c 37 e0 3b 6b 09 2d 3e 17 2a a0 3a bd ff c5 3e
       0.0068425294 0.16898124 0.0012219575 0.38671675
000180 0c 05 3f 3f e0 ca b5 bc e7 94 b0 3a e0 eb ab 3e
       0.74617076 -0.022191465 0.0013472111 0.33578396
000190 f8 40 bc 3e 1e 97 e5 38 f8 97 bd b9 5d c4 fd 3e
       0.36768317 0.00010947719 -0.00036162115 0.49563876
0001a0 d5 e9 92 3c 6d 05 ee 39 61 c5 99 3a 48 f8 db bc
       0.017933765 0.0004539894 0.0011731797 -0.026851788
0001b0 e9 f8 a5 bb 51 29 15 bb d4 1d 4c bc d7 b5 b0 bc
       -0.005065073 -0.0022760222 -0.012458283 -0.021571083
0001c0 f4 a6 1e 3f cf 9f 57 ba b8 dd 58 ba a1 e3 15 3c
       0.619735 -0.00082254125 -0.0008272785 0.009148509
0001d0 6d 98 f7 3d d5 9b 0d 3f dd b4 85 38 8d 7c 47 3f
       0.1208962 0.55315906 6.3756226e-05 0.77924424
0001e0 a4 9c 66 bb 5e 06 81 bc eb 58 02 3b 54 04 27 3b
       -0.003518858 -0.015750106 0.0019889425 0.0025484757
0001f0 d2 cc 8e 3e 8b 7e cf 3e 07 18 fa ba e5 88 0c 3b
       0.2789064 0.40526232 -0.0019080647 0.00214439
000200 65 fa c7 3f 66 99 1f 3b 74 df b7 b9 a5 dc c5 3e
       1.5623289 0.0024352907 -0.00035070966 0.386449
000210 25 34 3b bc 5d be 13 3f 9e c1 fb 3e 3c 45 71 bc
       -0.011426006 0.57712346 0.49171156 -0.014725979
000220 db 5a 51 ba 47 6f ac 3b 51 58 82 3b 0b 0a 11 3e
       -0.0007986256 0.0052622887 0.0039778133 0.14163987
000230 b6 69 8b 3e 3b 42 7f 3e 59 cf f0 bc 7f 4b 1b 3b
       0.2722909 0.24927609 -0.029395746 0.0023696122
000240 2e 20 76 3c 80 ed 14 3f e3 d3 60 3a 1b e2 00 3f
       0.015022321 0.58174896 0.00085764955 0.5034501
000250 6f 91 1b 3f 11 f4 63 3a d6 9a 57 bc 01 ba 9b 3e
       0.6076879 0.00086957315 -0.013159474 0.30415347
000260 0e ed 1d 3f be 05 f7 3b 28 df c0 3a 3d 66 24 3e
       0.6168984 0.0075385263 0.0014714943 0.16054626
000270 fd 5b 8f bb f8 8d d8 3a 02 b7 a9 3a 30 cc a9 3e
       -0.0043749795 0.0016521802 0.0012948217 0.33163595
000280 7a 4c 3e bc a0 04 85 3b 0d 7a b2 3d 87 fe 40 3f
       -0.011614913 0.0040593892 0.087146856 0.7538838
000290 17 67 cc 3c 1c 7a 70 bd 42 2b 0d 3a 16 81 78 3e
       0.0249515 -0.058710203 0.0005385169 0.24267992
0002a0 74 7a c3 3f b5 bc c2 3e 54 6c d6 3b 06 0d 76 3e
       1.5271745 0.38034597 0.0065436754 0.24028406
0002b0 19 f2 97 3e 63 10 69 3f 69 29 80 3f fc c0 44 3d
       0.29676893 0.9104063 1.0012637 0.048035607
0002c0 9d c0 8d bc 19 59 49 3c b8 d0 ab bc f0 27 9a ba
       -0.01730376 0.012289309 -0.020973548 -0.001176117
0002d0 ee b5 91 3b e7 1c 1f 3f b3 41 82 3f d1 39 4f 3e
       0.0044467365 0.62153476 1.01763 0.20236899
0002e0 44 7a 5f bb 1f d9 b4 3e 19 13 d9 3e af 4d 06 bb
       -0.0034099976 0.353219 0.42397383 -0.002049308
0002f0 9a f9 c2 3e 90 10 93 ba cc 37 c1 3b 20 7f 54 bc
       0.38081056 -0.0011220146 0.005896544 -0.012969762
000300 be 9c 3a 3d 3f b5 ae 3c d8 08 2e 3a f9 e7 92 3e
       0.045559637 0.02132666 0.0006638891 0.28692606
000310 f4 c1 ce 3c d7 1e d0 3e 10 91 24 3f c4 ae 5f bc
       0.025238968 0.4064853 0.6428385 -0.013652507
000320 61 8e b6 bc 2d 0f 88 3e e2 5a 19 3c c9 76 20 3f
       -0.022284688 0.26574078 0.009360047 0.6268125
000330 04 50 70 3e 9e fb 44 3c 2b e6 ee 3e ec b7 9c 3b
       0.23468024 0.012022881 0.4665998 0.0047826674
000340 a3 c8 82 3f ad 41 16 3f c7 f7 c3 3e 61 51 0c bc
       1.021748 0.58693963 0.38274977 -0.008564324
000350 de 9e 3b 3b 48 9a ec 3b 21 91 b1 3e 2b 99 9c 3e
       0.0028628628 0.00722054 0.34681037 0.30585608
000360 90 bc 5d 3c 9f e7 0b bc 83 79 9e 3f ec f5 29 3b
       0.013533726 -0.0085391095 1.2380832 0.0025933934
000370 e6 51 15 3f f0 74 85 3e 60 ea ad bc 7f 51 1d bb
       0.5832809 0.2606578 -0.021229923 -0.0024004874
000380 1a 17 ab 3e b0 67 e3 3a af d8 b7 3e 22 81 65 bb
       0.33416063 0.0017349627 0.35907504 -0.0035019596
000390 94 2a 8c 3e f3 76 a2 3b 49 52 16 bc 70 08 e2 3e
       0.27376235 0.0049580275 -0.009174892 0.44147062
0003a0 20 a7 4b 3c 2c 28 96 3e 6f 6d 50 3b f7 ed 80 3e
       0.012429982 0.29327524 0.0031803509 0.25181553
0003b0 b2 09 23 3f 0a 30 5c 3c 5d 32 e6 3e ce fa 33 ba
       0.6368667 0.013439188 0.449603 -0.0006865681
0003c0 d1 8f 7f 3b a4 13 79 bb f5 e1 88 3c 58 77 63 3d
       0.0038995633 -0.0038006091 0.016709307 0.055533737
0003d0 78 4d 3f bd 1b 1f 73 3c 93 7d ef 3e d9 a0 69 bc
       -0.04670474 0.014838959 0.46775493 -0.0142595405
0003e0 4b 2b 5d bc 44 da 49 3f f8 40 6c 3f 2e fb 3d 3f
       -0.013499091 0.7884867 0.92286634 0.74211395
0003f0 d6 d9 ca bc ed e5 db bc d8 72 f3 3b c2 07 0d 3f
       -0.024762075 -0.026843036 0.007429462 0.5508996

model.1.bias f4 [512]
000000 96 2d 80 bf 53 48 1f bc 7a d5 74 bd 52 62 71 bd
       -1.0013912 -0.009721833 -0.0597739 -0.058931656
000010 b3 11 90 bf 0e 32 04 3a 26 b0 36 be 34 60 aa 3a
       -1.1255401 0.0005042859 -0.17840633 0.0012998641
000020 5d a8 99 3d 0a e5 52 bd 23 3d d0 bb 14 da 40 be
       0.07502816 -0.05148796 -0.0063549443 -0.1883319
000030 5c df ba bc af 06 cb bb 67 1e 00 be 92 6e fe bb
       -0.022811584 -0.006195865 -0.12511598 -0.007764646
000040 38 1e 61 be 75 a2 a6 3d 72 1c e5 bd 8b 7d 90 bd
       -0.21984184 0.08136455 -0.11187066 -0.070551954
000050 c2 92 6a 3a 06 c6 58 bf b8 33 8b 3c d1 8b 66 bd
       0.000894826 -0.8467716 0.016992435 -0.056285683
000060 b6 20 0e 3e 67 4f 5c be d9 98 c3 be 15 b2 bb 3d
       0.13879666 -0.21514665 -0.3820255 0.09164826
000070 75 be 91 3d 6c a4 c9 bc 08 d6 be bd b2 fd 4d bd
       0.07116405 -0.024614535 -0.09318167 -0.05029077
000080 f2 65 2b be 91 33 d2 3c d7 fa 25 bf ed 9b 1c be
       -0.16738108 0.025659354 -0.64835876 -0.15293856
000090 a3 0e c3 be df de 23 be e7 87 cc bc c1 1c c2 3c
       -0.38097104 -0.16002987 -0.024967147 0.023695352
0000a0 cb 18 85 bd 71 03 5e 3d 1c 36 31 bc 71 9a 40 3d
       -0.064988695 0.0542025 -0.010816123 0.047022287
0000b0 68 eb 86 bc 04 6f b7 be 93 1f 29 be 9c 18 31 bd
       -0.016469672 -0.35826886 -0.16515951 -0.04323636
0000c0 dd 24 13 be 05 ce 8f 3c d3 bd 3a 3d 8e dd d8 be
       -0.14369531 0.017554292 0.045591187 -0.42356533
0000d0 82 b4 f6 bb 88 c0 2b be 63 b0 56 bd 12 10 81 bd
       -0.0075288424 -0.16772664 -0.05241431 -0.06301893
0000e0 dd cc 9f bd fe 08 76 3d e3 40 13 bd f7 a9 54 bf
       -0.078027464 0.06006717 -0.035950553 -0.83071846
0000f0 df ce cb be a3 13 91 be 16 3a 01 3d 04 31 d2 bd
       -0.39806268 -0.28335294 0.031549536 -0.10263255
000100 cd e9 93 bc 4d 23 80 3c 9b 22 59 3d 02 6a 20 be
       -0.01805582 0.015641833 0.053011518 -0.15665439
000110 36 3e ee 3c ff ec 16 be 6e c3 a5 bb 55 ba 77 be
       0.029082399 -0.14738844 -0.0050586974 -0.24192174
000120 78 e3 60 be 3f a8 66 bc 17 13 fc bd f5 5a 2f be
       -0.21961772 -0.014078199 -0.123083286 -0.17124541
000130 59 22 ab bd 69 ab 38 bd 7a 77 11 3d fa 41 47 3e
       -0.08356161 -0.045085344 0.035514332 0.19458762
000140 98 c6 51 bf 11 41 90 bc 26 bc 08 be 3c 30 82 bd
       -0.81943655 -0.017609151 -0.13353023 -0.06356856
000150 d0 8a 40 3a 26 0b e8 bb 2e b5 8d bd 0a e0 50 be
       0.00073449034 -0.007081407 -0.06919323 -0.20397964
000160 ee ea aa bd db 51 a4 bd df a1 7f be 75 18 f3 bd
       -0.083455905 -0.08023425 -0.24964093 -0.11869899
000170 37 6a ac 3a 5a 7e 49 3c 19 18 16 3c 80 e9 e0 3d
       0.0013154213 0.012298191 0.009161019 0.109820366
000180 9e 23 00 bf f0 c8 56 be f6 18 d7 3c c1 0f e9 bc
       -0.5005435 -0.20975089 0.02625702 -0.028449895
000190 56 46 26 bc 26 d1 59 bb f5 5d 3c 3d b2 39 eb be
       -0.010148605 -0.0033236234 0.045988042 -0.45942456
0001a0 c4 1e b1 bd fd 56 9e 3d 7a 71 32 3d 0c c6 9d 3d
       -0.08648446 0.077314354 0.04356525 0.0770379
0001b0 65 c7 14 bb 06 3e 71 39 5a 1c fe bd cb c8 27 3d
       -0.0022701856 0.00023006657 -0.124077514 0.040962975
0001c0 b5 11 df be e6 0b dc 3b 33 aa a6 3b 25 50 47 3c
       -0.43568197 0.0067152856 0.0050862073 0.012165104
0001d0 f0 b6 23 3c 18 66 e5 be 03 aa eb bd 33 29 0d bf
       0.009992346 -0.44804454 -0.115070365 -0.5514099
0001e0 6a 5d e3 3a c3 68 84 bb 79 c4 31 bc de 1b 36 ba
       0.0017346565 -0.004040809 -0.010850065 -0.00069469016
0001f0 0f c4 c0 bd df 00 6b be eb 8e 25 bc 19 ae d2 3b
       -0.09412395 -0.22949551 -0.010104875 0.0064294455
000200 26 aa 8d bf 84 59 50 bd 7e 70 a5 3b 72 e0 21 bd
       -1.106755 -0.05086662 0.0050488105 -0.03952069
000210 e6 6c b6 3d 9d c0 bd be fe 35 1d be 35 1f f1 3d
       0.089074895 -0.37061015 -0.15352628 0.117735304
000220 1d cc a1 3b 17 39 59 3e 20 28 7d bc e8 d8 a5 3c
       0.0049376623 0.21213184 -0.015451461 0.02024503
000230 b7 e7 30 bd b4 fc f0 bd ed 3e bd bd ec af 82 ba
       -0.04318973 -0.11766949 -0.09240518 -0.0009970642
000240 14 3f 86 3d 5b 85 86 be 97 5a 04 be 7a 04 a4 be
       0.06555 -0.26273617 -0.12925182 -0.32034665
000250 3f e9 c8 be 6e 42 a7 bb e9 0b 18 be 71 ae e1 b9
       -0.39240453 -0.0051043546 -0.14848293 -0.00043045313
000260 da c1 a2 be 48 d3 c4 bd 0a 01 f9 b9 a3 05 6d 3d
       -0.31788522 -0.09610611 -0.00047493755 0.057866704
000270 9e e4 48 bd 9e ac 02 3d cd 5d 8c bc 05 b7 b1 bd
       -0.04904615 0.0319029 -0.017134571 -0.08677486
000280 e2 ca 81 be d9 e6 90 bd cd 9e 07 be 52 81 20 bf
       -0.253501 -0.07075281 -0.13244171 -0.6269733
000290 1b ab da bd 7c 8d 80 be 26 83 98 3c 49 87 6a bd
       -0.10677167 -0.25107944 0.018617224 -0.057257924
0002a0 d2 ef 8d bf 96 bc 50 be 62 d9 a5 bd 57 af 07 be
       -1.1088812 -0.2038444 -0.08098103 -0.1325048
0002b0 8d 3d ec bd c3 9f 1b bf 3e 38 30 bf 31 c9 41 be
       -0.115351774 -0.6079065 -0.6883582 -0.18924405
0002c0 e1 8c 25 be 70 3f f1 3d fd b4 74 bc 7c dd 05 3c
       -0.16167022 0.11779678 -0.014935729 0.008170482
0002d0 5a 14 a6 3d e1 32 bd be 7a 7c 2e bf f3 99 47 bc
       0.081093505 -0.3695288 -0.68158686 -0.0121827
0002e0 29 3e 91 3c 91 e8 0c be be 99 63 be 8b 69 80 3b
       0.017729836 -0.13760592 -0.22226617 0.0039188317
0002f0 23 59 30 be ef ce 69 3c af ce 59 bc 07 82 6a bc
       -0.17221503 0.014270528 -0.013293906 -0.0143132275
000300 25 66 da bb db 78 1d be 97 af 91 bc fb f4 a4 bb
       -0.0066650086 -0.15378134 -0.017783923 -0.0050340868
000310 27 69 8f bc f7 26 a3 bd 08 4d f3 be 92 32 12 bd
       -0.017506195 -0.07966416 -0.47519708 -0.03569276
000320 e0 9a f0 3b 7f 09 06 3d e6 61 bf bd d2 98 ad be
       0.0073426813 0.0327239 -0.093448445 -0.33905655
000330 be f4 23 be fc 07 50 bd d3 17 28 be 89 6a b5 3d
       -0.1601133 -0.050788864 -0.16415338 0.088582106
000340 89 d4 33 bf 8b 71 b0 be f7 e4 76 be 6c 16 8a 3c
       -0.7024618 -0.34461626 -0.2411078 0.016856395
000350 f2 d7 0b be e4 a4 a8 bc 83 72 46 be 34 53 0c bd
       -0.13656595 -0.020586438 -0.1937962 -0.034259036
000360 d0 89 11 be 4c 08 bf bc 3c bb 77 bf 47 7a 17 3c
       -0.14212728 -0.023319386 -0.9677007 0.009245462
000370 33 7c 43 be 2b 9b 96 3d f8 7e a6 bd 48 3f 7f bc
       -0.19090347 0.07353815 -0.08129686 -0.015579052
000380 1c ac 94 be 22 de 61 bd 59 d1 ce bd 61 99 8a 3c
       -0.2903756 -0.055143483 -0.10098524 0.01691884
000390 bf 65 ec bd ea 73 1e 3c 6b 81 84 bd c8 7b ac be
       -0.11542844 0.009671191 -0.06469997 -0.33688188
0003a0 29 b1 0e be 69 70 cf bd db a5 4b bd 65 a9 22 bd
       -0.13934769 -0.101288624 -0.04971872 -0.03971233
0003b0 72 0f da be 4e a0 77 3c 4d dd 3f 3c c4 e0 57 bd
       -0.4258991 0.015113903 0.011710477 -0.052704588
0003c0 19 e0 82 bc ce c7 ee 3d 85 9e fe bd 7d 30 bd 3d
       -0.015975999 0.116592035 -0.12432579 0.09237764
0003d0 65 7f 8d bc d1 50 c7 bd 9e eb 36 be 87 0b 8a 3d
       -0.01727266 -0.097322114 -0.17863318 0.0674048
0003e0 97 14 d4 bd 7d 92 9f be f4 d1 b0 be 19 90 bc be
       -0.1035549 -0.3116645 -0.34535182 -0.36828688
0003f0 c8 89 fc bd c7 05 00 be de 91 2a bb 16 df ac bd
       -0.12330967 -0.12502204 -0.0026026885 -0.08440988

model.1.running_mean f4 [512]
000000 c1 e9 cf 3b f1 6b 92 3a 6a bc 5a 3b 6e e0 23 3c
       0.0063450043 0.0011171085 0.0033376464 0.010002239
000010 59 c7 99 3c 6b cf 96 38 2c 8d fe 3c c8 e7 db ba
       0.018771814 7.191192e-05 0.031073175 -0.001677745
000020 8f 58 37 3c 80 db 94 3d 9f 68 b5 3c 71 2d 37 bc
       0.011190548 0.07268429 0.022144614 -0.011180268
000030 94 85 2d bd eb 88 aa bb 80 dc 33 bc 14 40 cb bb
       -0.04236372 -0.00520431 -0.010977864 -0.006202707
000040 43 a6 ee 3c 2e 5d 40 3c bb 7e 7e 39 fc 8a fd bb
       0.029132014 0.011740966 0.00024270538 -0.0077375155
000050 1e c0 87 3d 40 11 04 3d 48 c6 30 3d c0 9d 3b 3c
       0.0662844 0.032243013 0.043157846 0.011451185
000060 b4 00 e3 bc da 49 c0 3d 5f 32 51 3d 10 f6 c2 bb
       -0.027710296 0.09389086 0.05107343 -0.005949743
000070 e4 02 8b bc d7 68 6d 3c f6 6e bb 3c fb e9 bd bc
       -0.016969152 0.014490328 0.022880059 -0.02318286
000080 45 8f 81 3c 78 f9 11 bc 15 da e0 3c f9 17 eb bc
       0.015815387 -0.008909576 0.02744774 -0.028697954
000090 25 6b db 3d 19 ba 5e 3d 01 b4 03 3b 30 be 42 3c
       0.107137956 0.054376695 0.0020096304 0.011886165
0000a0 da 2f 3c bb 71 62 09 3b c4 4f 8c bd cc 3d 1d 3d
       -0.0028715045 0.0020963217 -0.068511516 0.038389012
0000b0 58 7f 85 bc 8d 6d 65 3d 89 7c cd 3c 87 04 bc 3c
       -0.016296074 0.05601268 0.025083797 0.022951378
0000c0 2b 60 a3 3d e3 d8 a8 bc f4 73 10 3d 15 e5 da ba
       0.07977327 -0.020611232 0.03526683 -0.0016700352
0000d0 f1 d3 04 bd 68 05 3b bd 62 45 6c 3c d0 fa 83 3d
       -0.032428686 -0.045659453 0.014420839 0.06444323
0000e0 2f 4c f0 bc 20 75 34 3b 15 15 85 3b cb ad 4d 3d
       -0.029333202 0.0027535632 0.004061351 0.05021457
0000f0 b8 af 81 3d 1f dc 9a 3c c9 92 99 bc b1 e7 12 bc
       0.06332344 0.01890379 -0.01874675 -0.008966372
000100 23 29 4c ba 3d 77 64 3b 0f 18 83 bc 23 52 22 bc
       -0.0007788112 0.003486111 -0.016002683 -0.009907278
000110 6b e9 a9 3b 34 59 8a ba fd a4 b4 3b b6 93 27 3d
       0.0051852963 -0.0010555149 0.005512832 0.040912353
000120 ee 8e b3 bc 91 1d de bb 67 89 21 3d 9d ba 48 3d
       -0.02191874 -0.006778427 0.039437678 0.049006093
000130 47 b0 11 bd 3f 1d 88 3c b2 f2 02 3c 3f 25 93 bc
       -0.0355685 0.016615508 0.007992433 -0.017962096
000140 cd 55 e0 3c ba e6 75 bc bd f7 df 3c d0 c5 17 3c
       0.027384663 -0.015008623 0.02733981 0.009263471
000150 c7 98 5e 3a e3 d2 2a 3c 1e 22 b4 3c a1 79 54 bb
       0.00084913935 0.010426256 0.021988925 -0.003242113
000160 10 ad f5 bc b5 0a f0 bb ff 1c a3 3d 1c ea 08 3c
       -0.02998975 -0.007325495 0.07964515 0.008356597
000170 57 63 c0 3b ef 41 a6 bb c8 ac fb bb a8 1b 1d bd
       0.005871217 -0.005073778 -0.0076805092 -0.038356453
000180 fc fd d5 3d 3e 9d 02 bc da 2e d9 bb 70 84 b2 3c
       0.10448834 -0.00797206 -0.0066278996 0.021791667
000190 28 d2 cc 3c 06 d9 89 3a 4a f6 50 3d 9e b0 01 3d
       0.025002554 0.0010516949 0.05101613 0.031662576
0001a0 95 9b 05 bd 13 a0 50 bd 81 43 51 3c 0a b1 4b 3c
       -0.032619078 -0.05093391 0.012772442 0.012432346
0001b0 af ae a0 3c ae e1 8c 3a f9 31 63 3d 6e 06 5f bc
       0.019614546 0.001074841 0.05546758 -0.013612373
0001c0 3b 03 a4 3d 31 61 93 3c b0 a2 ea bb 53 72 7e bc
       0.08008429 0.01799068 -0.007160507 -0.015530187
0001d0 57 fb 04 bc b4 0d f8 3c a4 ba 86 bc 7e f3 25 3d
       -0.008116565 0.030279972 -0.016446419 0.040515415
0001e0 e0 5d 55 bb 85 7e 24 b9 09 e8 6a 3a 27 14 00 3c
       -0.0032557175 -0.00015687391 0.00089609675 0.007817305
0001f0 2a ca 4d bd 28 9c ac 3c da 3d 4c bc fc b0 a7 bb
       -0.050241627 0.021070555 -0.012465918 -0.0051175337
000200 51 0a b0 3b c7 51 62 bb bf 59 8b 3a cd 70 83 3c
       0.0053723236 -0.0034533606 0.0010631605 0.016044999
000210 a2 96 13 3c 64 0a 66 3b 3a 23 0a bd 52 8b 6d 3c
       0.009008082 0.0035101408 -0.033725 0.014498549
000220 20 8d 53 bb 69 95 b4 bc 4e 22 d0 bb 30 57 cf bc
       -0.0032280162 -0.0220439 -0.0063517457 -0.025310129
000230 6f 8d 41 3d 35 ef 1d 3c aa 49 03 bd 3f 17 f0 3a
       0.047254022 0.009639551 -0.032052673 0.0018317475
000240 34 e7 bf 3c 44 b3 a2 bc 09 ac ab bc 1c 5f 85 3d
       0.023425676 -0.019860871 -0.020956056 0.06512281
000250 3f 7d 39 3d 3d 4b f4 39 73 9b 0d 3c f6 b1 44 3c
       0.04528546 0.00046595364 0.008643019 0.01200532
000260 ca f0 e3 3c 98 59 01 3b 23 90 25 3b ff 01 c4 bc
       0.027824778 0.001973724 0.0025262914 -0.023926733
000270 99 76 89 3c 63 7f 0a bb b6 d8 a4 bb ad 51 47 bd
       0.016780185 -0.0021133057 -0.005030717 -0.048661876
000280 ce c9 89 bc bf 61 34 3c 63 dc 91 bc c7 89 b5 3d
       -0.01681986 0.011009633 -0.017805284 0.088641696
000290 cd dd 16 3d 98 3d 47 bc f7 02 20 bc d8 f2 a4 bc
       0.03683262 -0.012160681 -0.009766332 -0.020135328
0002a0 2f 98 34 3b f6 e7 bc ba 3b 5a 50 3c 3c 09 c1 bc
       0.0027556529 -0.0014412391 0.012716825 -0.023563974
0002b0 92 9d dc 3c 67 01 b6 3d fb 8e 97 3d 35 55 7e 3c
       0.026930604 0.08886986 0.07400318 0.015523245
0002c0 d9 fa 68 3c 91 fb d5 bc f7 4b 02 bc b9 61 3f bb
       0.014219963 -0.026120933 -0.007952682 -0.0029202534
0002d0 c2 3e 98 3b 52 89 22 bd 69 95 be 3c 89 d2 6f bc
       0.004646153 -0.03968174 0.023264604 -0.014637598
0002e0 0c 9f 88 ba 96 97 5a bd 42 29 a1 3d 81 c6 83 3a
       -0.0010423376 -0.05336722 0.078691974 0.0010053666
0002f0 e6 e4 7c 3d 05 f1 70 3b 97 28 fb 3b 3d d1 25 bc
       0.061741732 0.0036764753 0.007664751 -0.010120687
000300 e3 15 6c bc ba 81 e6 bc 5d c3 de bb d8 56 34 bc
       -0.014409515 -0.02813803 -0.0067981915 -0.011007033
000310 a5 e0 b0 3c a2 16 ee 3c 1a 64 a4 3c 0a e6 ca 3c
       0.021591494 0.029063527 0.020067263 0.024767894
000320 2c f4 d5 3b 85 55 13 bc 51 3a 3f 3c 34 8f 17 3c
       0.0065293517 -0.008992557 0.011671619 0.009250451
000330 b5 9b 3d 3d e0 13 27 3d 4c 92 6f bc 4a 48 a0 3c
       0.046291072 0.04079044 -0.014622282 0.01956572
000340 a5 fe 5f 3d f8 a7 48 3d ff ed 66 3d fd 9a 19 bb
       0.054686207 0.048988312 0.056379315 -0.0023438327
000350 34 5c 74 b8 c8 2e 99 bc 52 7b ff bb bb 27 08 bc
       -5.8260004e-05 -0.018699065 -0.0077966833 -0.008310254
000360 9e e4 d3 bc 8c 66 5d 3c ae 85 60 3d 8c 2f cd b9
       -0.02586585 0.013513219 0.054814987 -0.00039136072
000370 13 e3 8d bb 2f 04 83 3b 18 02 9b bc f9 e8 c8 ba
       -0.004330048 0.0039983015 -0.018921897 -0.001532822
000380 03 fc 22 3c 55 66 f9 3c e8 c7 52 bb 3b 69 b2 3c
       0.00994778 0.030444304 -0.003216261 0.021778693
000390 dd 28 c6 bc 34 e8 12 bb 52 7e 55 3c f4 36 84 3d
       -0.024189407 -0.0022416236 0.013030605 0.06455794
0003a0 bf b3 21 3d ef f6 56 bd c2 14 55 bb 29 d8 3b bd
       0.03947806 -0.052481588 -0.0032513593 -0.045860443
0003b0 e1 32 39 3d 4d cb 46 bd fc 59 ed 3b db 9f 64 3b
       0.045214538 -0.048533726 0.007243393 0.003488532
0003c0 74 db fb 3b fa 28 4d bb 85 e0 87 3c c6 10 4e 3d
       0.007686073 -0.0031304942 0.016586551 0.050308965
0003d0 07 0c a5 b9 04 ac 50 3c 0d c0 92 bc a6 d2 0f bb
       -0.00031480214 0.012736324 -0.017913843 -0.0021945625
0003e0 30 80 47 3d d1 bd 82 3d 2c 52 fc 3b 56 20 29 3c
       0.048706234 0.06383861 0.0077002253 0.010322651
0003f0 28 38 a0 3c 9d 39 01 3d 44 a0 9d bb 28 39 4b 3c
       0.019558027 0.031549085 -0.004810365 0.012403764

model.1.running_var f4 [512]
000000 43 b8 57 3f 17 b9 60 3c a7 80 09 3d 5f 18 31 3e
       0.84265536 0.013716004 0.033569958 0.17294453
000010 0b bd b5 3f b0 fe 80 3a 79 cb 1d 3f 95 4f e1 3a
       1.4198316 0.0009841528 0.616386 0.0017189855
000020 bd 96 f5 3c 0a 45 2f 3e a8 ca 8d 3b da 65 0a 3e
       0.029979104 0.1711618 0.004327137 0.13515416
000030 5e 93 54 3e 76 a9 85 3c 6f f4 8c 3d 0c 0e e5 3b
       0.20759341 0.016316157 0.068825595 0.0069902
000040 34 9c 1f 3e 87 48 2e 3c 1f 06 26 3c 0b 81 47 3e
       0.1558693 0.010637409 0.010133295 0.1948282
000050 9e 60 65 3e fb 42 af 3f ad 4d 1e 3d ff 13 38 3e
       0.22400138 1.3692316 0.038648296 0.17976378
000060 1b db 30 3d 84 4a 7b 3e e0 74 c9 3e f1 0d 06 3d
       0.043177705 0.24540144 0.3934698 0.03272814
000070 40 03 3f 3d ad 8c 4f 3c f6 6b 59 3e 57 06 96 3c
       0.04663396 0.012667817 0.2123259 0.01831357
000080 96 c8 32 3e 43 d5 81 3c 2c ad 7a 3f 37 6f 48 3e
       0.1745933 0.015848761 0.9792049 0.19573675
000090 02 74 4b 3e d1 74 79 3d f6 7f b6 3b 65 c3 c8 3c
       0.19868472 0.06090242 0.0055694534 0.024507234
0000a0 e3 95 3b 3c 64 73 b0 3c e8 c6 67 3e 25 e5 10 3d
       0.01144931 0.021539398 0.2263447 0.03537478
0000b0 30 64 bf 3c 9a 81 28 3e 78 1c 10 3e 0b a6 62 3e
       0.023363203 0.16455689 0.1407336 0.22133653
0000c0 e8 c5 c0 3e f6 51 de 3d ea fc ca 3c cd 2c 63 3f
       0.3765099 0.108554766 0.024778802 0.88740236
0000d0 fd 08 4b 3e e8 93 59 3e c6 b0 5b 3e 6e ba 2c 3e
       0.19827648 0.21247828 0.21454152 0.16867992
0000e0 30 6e 0d 3e 68 b8 a7 3c c2 9e 38 3e c2 7a 68 3f
       0.13811564 0.020473674 0.18029311 0.90812314
0000f0 7b 59 29 3f 9d 42 3e 3e cc c7 44 3c 0e f9 3b 3e
       0.6615216 0.18580098 0.012010526 0.18356726
000100 41 11 f6 3b 0e 52 70 3a a0 c8 7b 3d 95 69 ad 3c
       0.007509381 0.00091675005 0.061470628 0.02116851
000110 7c 13 47 3e ee 98 3a 3c e9 37 9e 3c 3f 25 6d 3e
       0.19441026 0.011389 0.01931377 0.2315874
000120 fd be 66 3e 9d df 15 3c 28 f0 46 3e 76 f2 00 3e
       0.22533794 0.009147552 0.1942755 0.12592492
000130 97 50 2b 3d 6c d8 78 3c d7 dd 99 3c 84 53 8b 3d
       0.041824903 0.015188318 0.01878254 0.06803039
000140 3b 8b 47 3f fc bc 4c 3e e8 5b 8b 3c 5d 1a d3 3b
       0.77946824 0.19993967 0.017011598 0.0064423517
000150 a2 ea cb 3a ea 54 f4 3b 3f 69 7d 3c 90 9f 57 3e
       0.0015557597 0.0074564116 0.015466987 0.21056962
000160 37 7d 9b 3c d5 b4 c8 3e 17 3d 1b 3f d8 2a 23 3e
       0.018980606 0.39200464 0.6064009 0.15934312
000170 36 3f 5c 3c bc 5f ed 3d 4b 7b cd 3a 33 ab 55 3e
       0.013442805 0.115905255 0.0015677003 0.20866089
000180 e7 3d ee 3e 39 95 80 3d e1 41 33 3b 36 c6 51 3e
       0.46531603 0.06278462 0.00273525 0.20485768
000190 f1 d9 5e 3e 3b c2 3b 3b d1 66 22 3d 37 03 ef 3e
       0.21762826 0.0028649706 0.039648835 0.4668214
0001a0 ef 48 a5 3c 33 3d ef 3c 60 c5 2d 3c 56 6c 15 3d
       0.020176379 0.029203987 0.01060614 0.03648027
0001b0 18 00 a0 3c f3 58 4c 3b 46 d7 12 3d a5 1b 12 3d
       0.019531295 0.0031180948 0.035849832 0.035670895
0001c0 26 39 1a 3e de d2 ce 3b c1 de 68 3b 95 0b 82 3c
       0.15060863 0.0063117584 0.0035533162 0.015874663
0001d0 31 28 9c 3d 50 b3 18 3e 7d 5b b7 3c fa 5c 45 3e
       0.076248534 0.14912152 0.022382492 0.19273749
0001e0 ec ce cf 3b 0e 6f 88 3b 4c dc 6f 3c 19 c9 cb 3b
       0.0063418057 0.0041636294 0.014639925 0.006219041
0001f0 f6 44 45 3e 56 08 95 3e df 3e a8 3b be ab 25 3c
       0.19264588 0.29107922 0.005134448 0.010111747
000200 26 8d ff 3f 7b fd 48 3c f1 2d 5d 3b eb 9a 8a 3e
       1.996495 0.012267466 0.0033749307 0.27071318
000210 9e 55 5e 3c bc 75 1c 3e 0c 7f 57 3e 67 c7 22 3d
       0.013570217 0.15279287 0.21044558 0.039740946
000220 73 e0 b3 3b 84 5b 82 3d 8a df 05 3c 8f e3 01 3e
       0.005489403 0.063651115 0.008170972 0.12684463
000230 89 00 7f 3e 72 cd 75 3e 0c 04 d3 3c a5 cf 77 3a
       0.24902548 0.24004152 0.025758766 0.00094532437
000240 28 16 72 3d 4c ab 38 3f 9d c7 ae 3c fb 86 6f 3e
       0.05910316 0.7213638 0.021335417 0.23391335
000250 a9 0b 96 3e a0 25 67 3a 1d e7 35 3d be e2 58 3e
       0.2930577 0.0008817557 0.04440986 0.21180245
000260 e6 f3 75 3e 6f 4c 95 3c 52 14 fa 3a e3 ce 08 3e
       0.24018821 0.018224923 0.0019079542 0.13360171
000270 bc 74 bb 3c 1d 06 d2 3b 11 de 42 3c ac fc 5a 3e
       0.022882812 0.00640942 0.011893765 0.21385449
000280 95 b0 07 3d 41 11 2d 3c c2 0b 1f 3e d4 0b 10 3e
       0.033127386 0.010563196 0.15531829 0.14067012
000290 68 8f de 3c 86 aa de 3d 5b b4 b7 3b 6c 81 28 3e
       0.02716799 0.108723685 0.005606217 0.1645562
0002a0 72 2d a9 3f 88 bd 3e 3e 42 5e 0c 3c ea ba 2a 3e
       1.3216994 0.18626988 0.008567395 0.16672865
0002b0 f7 75 1c 3e f4 f7 5b 3f 08 2f 78 3f a1 90 8c 3d
       0.15279375 0.8592522 0.96946764 0.06863523
0002c0 71 a0 6b 3c fc e8 1a 3d 55 33 0a 3c f5 34 c6 3a
       0.014381514 0.037819847 0.00843509 0.0015121984
0002d0 4b 87 71 3c 6c d4 13 3e ba 0c 93 3f a3 25 18 3e
       0.014741729 0.14436501 1.1488259 0.14858107
0002e0 6d 80 85 3b f1 5c 78 3e 9d 42 c3 3e a2 6b 52 39
       0.0040741474 0.24254204 0.3813676 0.00020067257
0002f0 e3 11 c9 3e 99 15 50 3b 34 fc e1 3b 22 60 85 3c
       0.3927146 0.0031751154 0.00689652 0.016281191
000300 b7 44 1b 3d 5e 94 fd 3c 8c c8 51 3c 95 a4 3e 3e
       0.03790733 0.030954536 0.012804162 0.1861747
000310 c6 82 c1 3c b1 49 42 3e 14 b0 2d 3e 00 5d e3 3c
       0.023621928 0.18973424 0.169617 0.027754307
000320 fa ad e1 3b f1 c7 56 3e 36 89 1e 3c fc 14 87 3e
       0.0068871947 0.20974709 0.009676268 0.26383197
000330 20 5a 26 3e a9 95 b5 3c 85 31 8e 3e 87 b1 9e 3c
       0.16245317 0.02216609 0.27772155 0.019371761
000340 26 18 02 3f 8d 18 05 3f 6c 90 be 3e 13 e7 0a 3c
       0.508181 0.51990587 0.3721956 0.008477944
000350 aa 03 74 3c bc 4a 80 3c b2 67 36 3e 5e d9 52 3e
       0.014893452 0.015660636 0.17812994 0.20590732
000360 7b e4 18 3d 4a 47 21 3c 71 2f ca 3f 89 60 37 3c
       0.03732727 0.009843657 1.5795728 0.011192449
000370 45 34 cd 3e 9e 50 05 3e ae 3e 8a 3c d4 0b 05 3c
       0.4007894 0.13019034 0.016875591 0.008120496
000380 98 9a bd 3e 52 e8 4b 3c 41 89 4d 3e 54 bb fc 3b
       0.37032008 0.012445526 0.2007189 0.007712761
000390 b4 fe 0b 3e 04 25 a0 3b 50 05 29 3c 1a 1a d7 3e
       0.1367138 0.004887225 0.010316208 0.420121
0003a0 23 c3 33 3d 81 a7 10 3e 7b 6a 41 3c 75 45 25 3e
       0.04388727 0.14126398 0.011805172 0.16139777
0003b0 a6 03 db 3d f7 31 5b 3d 77 32 55 3e eb cb e6 3c
       0.10694055 0.053514447 0.20820032 0.028173408
0003c0 f3 a3 68 3b 9d 8a e7 3c 7a ab 97 3c ff b6 3e 3d
       0.0035498112 0.028264338 0.018514384 0.046561237
0003d0 7f 18 36 3d e1 bf a1 3c 90 6d 45 3e de 3e a4 3c
       0.044456955 0.019744815 0.19280076 0.020049509
0003e0 ce 04 36 3d 99 0b b0 3e 5e 39 4a 3f cb 80 53 3e
       0.044438176 0.34383848 0.78993785 0.206546
0003f0 9c 6e 4f 3d 06 94 28 3d ab 75 a1 3b 6c fc 3c 3f
       0.050642595 0.04115679 0.004927357 0.73822665
