ml_service/best_mlp_model_weighted_2_8_2025_1.pt (torch, 874909 bytes, 19 tensors)

model.0.weight f4 [512, 75]
-0.00042087334 -0.00038032408 -0.0018535289 0.001751836 0.0022999446 0.00015310482 -0.0006949057 -0.0011012502
0.00089919224 0.0019077818 0.0014199798 0.0026496872 0.00046637875 -0.00015376504 -0.0006016982 -0.003550467
0.0028227656 2.8816783e-05 -0.0007187245 0.0019188966 0.0021975187 0.0015785043 0.0032580832 -0.0009894852
0.0016655024 -0.0017550689 -0.0054585785 4.4939577e-05 -0.0006391839 0.00029137233 -0.00064296357 -0.0031625538
-0.0016846089 -0.0004615487 -0.0004190802 -0.00012011655 -0.002744531 -0.0010172508 0.0006639084 -0.0009872632
0.0006025501 0.00060863025 6.8168694e-05 -0.0017908553 0.0010666722 -0.0019162525 -0.0015723959 0.0006220875
0.0028190662 0.00051416305 -0.001520522 0.0017016941 -0.0014262202 -0.0011264046 -0.00016299362 0.0041332515
-0.0009894852 0.001751836 0.0030988564 -0.00988033 0.00089919224 0.0026577897 0.00029137233 -0.008613707
-0.014317778 -0.010241008 -0.008919232 0.0007799243 0.006697853 -0.0008911982 -0.013426707 -0.010962875
0.010816302 -0.005725581 -0.0048792884 -0.0032963813 0.0007114556 -0.014996983 0.010356891 -0.011132996
-0.021903973 0.008498876 0.008768143 0.014902226 -0.009152098 0.008681568 -0.006525543 0.0265598
0.0077488287 0.018921178 0.00532558 0.0008640966 0.05469563 0.0033184784 0.024926959 -0.012705552
-0.025622154 0.005131297 0.009024896 -0.043591507 -0.01727852 -0.002729397 0.0068414724 -0.00959886
-0.008936718 0.0034488682 -0.017114416 0.0010440744 0.0031918853 -0.02144959 -0.005575162 0.0023367465
0.007821484 -0.016069971 -0.044436492 -0.0037212258 -0.012612612 0.008144344 -0.0056729503 -0.0023581502
0.020555355 0.03283188 -0.009912491 0.0033107062 0.05181764 -0.012264175 -0.037666377 -0.0041052713
0.059536144 0.051517867 -0.022370566 0.009024896 0.010356891 0.019642897 -0.019059725 0.014902226
-0.010955845 -0.008936718 0.008252782 -0.0034731575 0.1924225 0.1883955 -0.11695915 0.08520176
0.018816428 0.19498517 0.027154574 0.022159513 0.0234661 -0.04871169 0.009064222 0.0014618493
0.026341455 -0.017303253 -0.07186916 -0.030006 -0.01155428 -0.048251875 0.0403651 0.021432603
-0.023004213 0.02519241 -0.02304714 -0.06443184 -0.0290348 -0.01989379 0.045576252 0.062413037
0.00654794 0.014029106 -0.032792896 0.050404977 -0.02812761 0.028940836 0.029111037 0.033739015
-0.014753049 0.040965043 -0.035937294 0.01909987 0.035695605 0.02346648 -0.06682825 -0.0071293777
0.021033816 -0.023465106 0.034527034 -0.038909778 -0.050486077 -0.029051017 -0.0041700397 0.03215575
0.050785627 -0.019504579 -0.012858211 0.012371675 0.0020699515 0.06612075 0.07867743 -0.0139914015
-0.013556428 -0.025998577 0.029972965 0.026270224 0.010039387 -0.028292682 0.028940836 -0.017303253
0.016212786 -0.015129791 0.0403651 -0.026029846 0.01909987 0.01171569 -0.04352078 0.17899236
0.13011174 -0.17687431 0.266523 0.089222886 0.32377192 0.035472173 -0.01220627 0.0746614
-0.03187435 1.6664413e-05 -4.4376623e-07 3.214164e-05 3.990793e-05 1.3233796e-05 -0.00014028 -2.9596344e-05
1.0615427e-05 -1.1795868e-05 2.1128313e-05 1.9490883e-05 -1.6587823e-05 5.49599e-05 -8.359626e-05 1.2084119e-05
-2.499178e-05 -1.2340077e-05 1.44100095e-05 8.770291e-06 -5.2047562e-05 7.868393e-05 9.36586e-06 3.5066092e-05
-6.980597e-06 9.884564e-05 -3.8487513e-05 -0.00015554299 3.5445893e-05 -2.4355208e-05 5.7107013e-06 1.233713e-05
00000000: aaa8 dcb9 3c66 c7b9 1cf2 f2ba dd9d e53a
00000010: abba 163b c38a 2039 552a 36ba d357 90ba
00000020: c5b7 6b3a 890e fa3a 9e1e ba3a 60a6 2d3b
00000030: 4c84 f439 fd3b 21b9 48bb 1dba f4ae 68bb
00000040: 26fe 383b 92bb f137 c968 3cba 7c83 fb3a
00000050: 3f04 103b d1e5 ce3a 9185 553b 9db1 81ba
00000060: fd4c da3a 570a e6ba e0dd b2bb 817d 3c38
00000070: e88e 27ba 55c3 9839 8e8c 28ba d942 4fbb
00000080: 18ce dcba 05fc f1b9 feb7 dbb9 15e7 fbb8
00000090: 97dd 33bb 4655 85ba 230a 2e3a 0e67 81ba
000000a0: 74f4 1d3a 7c8c 1f3a caf5 8e38 22bb eaba
000000b0: 94cf 8b3a c42a fbba da18 ceba 9613 233a
000000c0: 15c0 383b e6c8 063a 414c c7ba 610b df3a
000000d0: 02f0 baba dea3 93ba 44e9 2ab9 3a70 873b
000000e0: 9db1 81ba dd9d e53a 2f16 4b3b 1ce1 21bc
000000f0: c5b7 6b3a 502e 2e3b 55c3 9839 8120 0dbc
00000100: 1d95 6abc e7c9 27bc f821 12bc d573 4c3a
00000110: aa79 db3b 4c9f 69ba b1fb 5bbc a19d 33bc
00000120: dc36 313c a89d bbbb 70e2 9fbb 1a08 58bb
00000130: fa80 3a3a e8b5 75bc f3af 293c 2b67 36bc
00000140: f66f b3bc df3e 0b3c 42a8 0f3c 7728 743c
00000150: aef2 15bc 233d 0e3c 39d4 d5bb f093 d93c
00000160: e3e9 fd3b 9600 9b3c 3482 ae3b 8b84 623a
00000170: 8608 603d d47a 593b 9f33 cc3c f32a 50bc
00000180: 8de5 d1bc 7024 a83b 28dd 133c 028d 32bd
00000190: af8b 8dbc afdf 32bb 6e2e e03b 8944 1dbc
000001a0: 506b 12bc 6806 623b 8833 8cbc 53d9 883a
000001b0: f32e 513b 0db7 afbc d9af b6bb 1a24 193b
000001c0: ae25 003c 2ca5 83bc 0a03 36bd cfdf 73bb
000001d0: 21a5 4ebc db6f 053c 28e4 b9bb 328b 1abb
000001e0: b463 a83c b97a 063d 0068 22bc 6ff8 583b
000001f0: bc3e 543d aeef 48bc 0f48 1abd 8385 86bb
00000200: 2cdc 733d 6604 533d 7a42 b7bc 28dd 133c
00000210: f3af 293c 24ea a03c 2423 9cbc 7728 743c
00000220: 2580 33bc 506b 12bc ad36 073c ea9d 63bb
00000230: 670a 453e c0ea 403e 4788 efbd 437e ae3d
00000240: e924 9a3c 31aa 473e 4573 de3c de87 b53c
00000250: fb3b c03c e985 47bd 1a82 143c 869b bf3a
00000260: 09ca d73c 8dbf 8dbc 2330 93bd 25cf f5bc
00000270: 2a4e 3dbc c2a3 45bd e055 253d 6d93 af3c
00000280: 5573 bcbc 5060 ce3c 5bcd bcbc d7f4 83bd
00000290: 64da edbc 4df8 a2bc 2aae 3a3d d0a4 7f3d
000002a0: 1a90 d63b 56da 653c d851 06bd 7375 4e3d
000002b0: e06b e6bc 5515 ed3c 457a ee3c ec31 0a3d
000002c0: c6b6 71bc f6ca 273d fc32 13bd 5577 9c3c
000002d0: 8e35 123d c73c c03c 40dd 88bd 8e9d e9bb
000002e0: 1c4f ac3c e539 c0bc 386c 0d3d dc5f 1fbd
000002f0: 7dca 4ebd 66fc edbc d4a4 88bb bfb5 033d
00000300: 9704 503d 11c8 9fbc 3fab 52bc 91b2 4a3c
00000310: 06a8 073b 516a 873d a221 a13d 313c 65bc
00000320: c81b 5ebc f8fa d4bc dd89 f53c a734 d73c
00000330: 3e7c 243c 0ec6 e7bc 5515 ed3c 8dbf 8dbc
00000340: add0 843c f1e2 77bc e055 253d 8b3c d5bc
00000350: 5577 9c3c 2af3 3f3c d842 32bd c649 373e
00000360: 033c 053e 8a1e 35be b475 883e 7dba b63d
00000370: 6fc5 a53e 454b 113d cffc 47bc 13e8 983d
00000380: ae8e 02bd 8eca 8b37 c43e eeb4 d3cf 0638
00000390: d062 2738 b906 5e37 2018 13b9 aa45 f8b7
000003a0: e918 3237 dee6 45b7 b53c b137 5a80 a337
000003b0: 1426 8bb7 be84 6638 6650 afb8 e5bc 4a37
000003c0: 70a5 d1b7 3a08 4fb7 85c2 7137 1d24 1337
000003d0: a54d 5ab8 1d03 a538 1022 1d37 ee13 1338
000003e0: df3a eab6 594b cf38 a76d 21b8 4119 23b9
000003f0: bdab 1438 694e ccb7 8d9e bf36 92fb 4e37

model.0.bias f4 [512]
2.1885747e-08 -1.0583041e-05 -1.6104561e-05 -2.878501e-10 1.3577956e-08 -2.917208e-06 8.63453e-08 2.3711344e-07
3.819654e-08 7.5803896e-06 -1.1646475e-08 8.153197e-10 -2.3882544e-08 2.7446722e-06 1.0102495e-06 -1.5106632e-08
2.7413355e-10 -1.484256e-07 1.5136018e-07 8.8877624e-07 -4.502557e-12 2.4225218e-07 -4.881422e-09 -1.4887911e-07
-2.5645678e-08 -4.4703163e-10 -4.9489547e-08 3.930225e-07 -1.0940877e-08 -1.2359793e-05 -2.6751849e-08 -3.282118e-06
2.1631295e-06 -8.7753574e-07 4.3364665e-08 -2.0626914e-08 -7.6130063e-10 1.2043142e-05 -2.2952506e-11 -1.1706063e-05
5.831946e-08 3.6888978e-05 -5.0960196e-09 1.6627701e-09 -8.7714325e-06 6.1091128e-09 6.987046e-08 3.4315453e-06
1.7092243e-09 2.3405163e-07 -2.5975409e-12 -6.7263045e-08 1.8830898e-08 -3.5415144e-06 3.8653766e-07 -8.8712156e-08
-3.273054e-09 3.8372505e-06 -6.068627e-08 -3.733598e-06 8.3524e-06 2.5171014e-06 -1.4872712e-06 8.43014e-09
3.0891123e-09 1.5121111e-08 -1.7320128e-06 1.5045704e-06 1.4337873e-08 -4.5584693e-06 -1.3632255e-06 4.8826337e-06
-1.261241e-06 -4.0393212e-07 6.401775e-06 -3.5099933e-06 -2.9766412e-07 -2.208125e-06 -1.3420741e-06 2.595717e-08
-3.3361208e-10 4.6729716e-07 -1.5823753e-08 -3.4226425e-05 -1.6167853e-06 -2.5193663e-07 -3.793192e-12 -7.444698e-12
5.7247135e-08 9.2446335e-09 1.7414308e-09 3.0508327e-06 5.12737e-09 4.871275e-10 -7.295073e-08 1.1827686e-10
2.3964435e-09 1.2358059e-06 3.5773557e-08 -1.5769926e-12 2.2386139e-05 1.6314131e-07 -3.4411685e-06 -4.385439e-06
2.3954351e-08 2.3330592e-06 1.0231931e-07 1.7004298e-08 -6.6330574e-07 5.326006e-08 -6.6066864e-06 1.0120773e-08
1.4321247e-08 5.0714757e-08 -2.7520574e-08 -4.449159e-08 -1.5024709e-06 4.441839e-06 -2.72488e-10 -3.27281e-07
-4.8595894e-07 1.1438071e-06 8.346195e-07 -2.5391563e-08 1.5188901e-09 -2.6958423e-07 2.5122198e-12 1.1645641e-12
-2.2837426e-08 2.8945633e-09 4.392657e-08 -8.780726e-07 1.0313582e-08 -4.19634e-08 -2.4186722e-09 3.267058e-09
9.2391883e-10 -5.592458e-07 -5.466672e-08 -3.6330402e-08 2.5455018e-08 -8.6763826e-08 -1.8606375e-08 1.917038e-08
2.9448022e-10 -1.8335274e-11 -3.360087e-07 1.3493539e-07 2.0965124e-06 2.1842242e-08 -4.4677866e-09 -2.851539e-12
-2.4425917e-10 1.9341904e-08 6.630621e-08 9.7903495e-08 -1.3122478e-06 5.2518892e-08 1.5092138e-11 1.4414382e-09
1.4531063e-05 2.3774106e-07 -1.2318522e-07 7.6135684e-08 6.471167e-09 8.62005e-10 1.2206073e-07 2.5927474e-08
-3.1895922e-08 5.204826e-07 -6.0746634e-06 2.7336961e-08 -3.9868892e-10 1.666322e-06 2.6210088e-08 -6.34385e-08
1.5581654e-07 2.9677592e-06 -2.274334e-08 -2.2265613e-08 -5.4591464e-08 -5.9817734e-11 -3.4700115e-08 2.775629e-09
-2.4776773e-07 1.6617624e-09 6.178199e-11 6.831005e-08 -1.0811353e-07 1.5849121e-06 1.8056055e-10 4.5561684e-08
5.887147e-10 1.7600643e-06 -5.4149623e-09 -2.9983937e-06 -5.923702e-06 -2.904536e-06 -2.6558859e-05 9.46813e-08
3.5380662e-08 4.134878e-09 4.8071565e-06 3.5576227e-06 -5.8279536e-08 -4.320822e-06 -4.363502e-08 2.176304e-08
-3.1534753e-08 4.5515675e-16 7.482287e-08 -1.646467e-08 -1.5447928e-07 -6.7681566e-10 1.815084e-08 5.8046626e-06
-3.5477805e-07 6.433317e-06 4.6946408e-14 6.674812e-08 -2.5646907e-08 4.5178213e-06 1.6944584e-07 1.5678244e-09
2.3889677e-07 -2.1776211e-08 4.3543574e-07 -8.911549e-06 -8.825834e-09 -1.9657842e-09 1.9896362e-08 -1.0498101e-09
-5.2716487e-08 2.1030022e-08 -2.6252218e-07 5.3533636e-06 -1.1786067e-07 3.930814e-09 -1.1779558e-09 5.9049654e-08
4.6257828e-08 1.7009817e-05 -4.6198073e-10 -6.806179e-09 -2.6791179e-08 -7.073195e-09 8.0668457e-07 8.278e-08
6.1410907e-09 -8.572539e-08 3.132954e-08 -9.240951e-08 -2.2434044e-07 4.1724117e-08 -1.2292627e-12 -3.8253438e-07
00000000: 44ff bb32 d18d 31b7 4818 87b7 4d3f 9eaf
00000010: 7b44 6932 40c5 43b6 d56c b933 3f99 7e34
00000020: 8a0d 2433 0d5b fe36 bd15 48b2 061d 6030
00000030: 4526 cdb2 1c31 3836 e997 8735 d6c3 81b2
00000040: deb4 962f eb5e 1fb4 9285 2234 3d94 6e35
00000050: 6e6b 9eac e30e 8234 71b9 a7b1 94db 1fb4
00000060: 714b dcb2 1cc2 f5af 558e 54b3 9a00 d334
00000070: 7cf6 3bb2 e85c 4fb7 f0cb e5b2 5c42 5cb6
00000080: 482a 1136 cc8f 6bb5 f43f 3a33 102f b1b2
00000090: c543 51b0 e70c 4a37 73e4 c9ad 2865 44b7
000000a0: ed7a 7a33 3db9 1a38 1019 afb1 8687 e430
000000b0: 0429 13b7 53e8 d131 b10b 9633 8049 6636
000000c0: fce9 ea30 9f4f 7b34 23c9 36ac 4072 90b3
000000d0: 95c1 a132 c1aa 6db6 5585 cf34 0682 beb3
000000e0: 2dec 60b1 bbc1 8036 a152 82b3 ba8e 7ab6
000000f0: 4921 0c37 79eb 2836 409e c7b5 26d4 1032
00000100: 3d48 5431 ade3 8132 8277 e8b5 a5f0 c935
00000110: a252 7632 f4f4 98b6 12f8 b6b5 81d5 a336
00000120: e947 a9b5 02dc d8b4 d4ce d636 3a8d 6bb6
00000130: a5ce 9fb4 4c2f 14b6 5121 b4b5 6cf8 de32
00000140: ba67 b7af d5e0 fa34 cdec 87b2 588e 0fb8
00000150: 5200 d9b5 e841 87b4 0976 85ac f0f7 02ad
00000160: e4df 7533 54d2 1e32 2657 ef30 e8bc 4c36
00000170: d32c b031 8de6 0530 17a9 9cb3 fa0b 022f
00000180: aeae 2431 f8dd a535 71a5 1933 25f1 ddab
00000190: dec9 bb37 f12b 2f34 d3ee 66b6 a226 93b6
000001a0: 2dc4 cd32 a791 1c36 a3ba db33 d910 9232
000001b0: 060e 32b5 0ec0 6433 01af ddb6 a1df 2d32
000001c0: 8309 7632 77d1 5933 6266 ecb2 0517 3fb3
000001d0: 82a8 c9b5 1b0b 9536 47cd 95af 28b5 afb4
000001e0: d872 02b5 ea84 9935 9e0a 6035 a31c dab2
000001f0: 32c1 d030 60bb 90b4 21c8 302c d8e5 a32b
00000200: 082c c4b2 b2e9 4631 c6a9 3c33 b1b4 6bb5
00000210: 9d2f 3132 3f3b 34b3 bb35 26b1 b182 6031
00000220: 02f7 7d30 141f 16b5 b2ca 6ab3 b309 1cb3
00000230: 2da8 da32 eb52 bab3 dad3 9fb2 1dac a432
00000240: 68e4 a12f 5e47 a1ad af64 b4b4 c2e2 1034
00000250: cfb1 0c36 999f bb32 1183 99b1 c3a8 48ac
00000260: 6c48 86af 4c25 a632 3964 8e33 043f d233
00000270: 7e20 b0b5 2291 6133 79c0 842d 191c c630
00000280: 71ca 7337 c445 7f34 e544 04b4 0980 a333
00000290: fd58 de31 36f2 6c30 cc0f 0334 1eb7 de32
000002a0: f0fd 08b3 4bb7 0b35 f6d4 cbb6 9dd2 ea32
000002b0: 7a2e dbaf 63a6 df35 9824 e132 af3b 88b3
000002c0: 864e 2734 b729 4736 225d c3b2 9a42 bfb2
000002d0: f377 6ab3 648a 83ae 2e09 15b3 62bd 3e31
000002e0: f004 85b4 1164 e430 2bdc 872e d9b1 9233
000002f0: 0b2c e8b3 2ab9 d435 4787 462f 9aaf 4333
00000300: 1dd3 2130 593b ec35 830e bab1 0338 49b6
00000310: 36c4 c6b6 8ceb 42b6 b7ca deb7 9853 cb33
00000320: 73f5 1733 c612 8e31 294d a136 7ebf 6e36
00000330: 074f 7ab3 94fb 90b6 3669 3bb3 6ef1 ba32
00000340: d470 07b3 a430 0326 4fae a033 316e 8db2
00000350: f1de 25b4 ab0a 3ab0 1fea 9b32 acc5 c236
00000360: 5378 beb4 c6dd d736 866d 5329 2b57 8f33
00000370: 254e dcb2 ca97 9736 ebf0 3534 eb7a d730
00000380: b941 8034 650e bbb2 d5c5 e934 d082 15b7
00000390: 6ea0 17b2 7116 07b1 90e8 aa32 e948 90b0
000003a0: 646a 62b3 82a5 b432 c6f0 8cb4 0ba1 b336
000003b0: 971a fdb3 ce0f 8731 a3e5 a1b0 c89d 7d33
000003c0: 05ad 4633 4eb0 8e37 02fa fdaf c9db e9b1
000003d0: 6d22 e6b2 7b08 f3b1 f18a 5835 c9c4 b133
000003e0: 9b01 d331 0818 b8b3 328f 0633 aa72 c6b3
000003f0: 3be2 70b4 2734 3333 db00 adab 205f cdb4

model.1.weight f4 [512]
0.0014222189 0.18032214 0.5969784 -0.00015972299 2.6587624e-05 0.29704645 0.002199276 -0.022140348
0.0012696008 0.27862766 -0.00093822804 6.0758295e-05 -0.0020004667 0.39485812 -0.026900623 0.0006750156
0.0018863603 0.009356784 -0.0028100638 0.010823759 -3.48073e-05 -0.008136913 0.00038834516 0.0055136248
0.00073051814 0.0003952041 -0.00025034125 0.10884998 0.0012686187 0.37405074 -0.008432955 0.7240347
0.25314823 0.19984558 0.00406991 0.0022709407 0.00031215468 0.76238227 0.00014164578 0.24515088
0.0029690827 0.6420461 -0.00044472248 -0.0022430855 0.6237532 -0.0007894961 -0.0066936333 0.35889873
-0.00011679823 0.013094053 2.9603309e-05 0.0018650172 0.0001558623 0.4857278 0.017811317 0.018978475
-0.0005857013 0.31381813 0.004183098 0.24099408 0.52590644 0.2730216 -0.02430596 -0.00234969
-0.0004019285 0.0027058278 0.34753162 0.15465869 0.0007893195 0.23688096 0.29215503 0.28916892
0.29296812 0.013178559 0.47614798 0.25439057 0.008369327 0.0353095 -0.016525786 -0.0023996101
0.0001704008 -0.004510468 0.0045110057 1.0106744 -0.01602125 -0.02180214 -7.301767e-06 2.4582803e-05
0.011745723 0.004107456 0.00025379047 -0.05848804 0.00012329135 -0.00015138659 -0.0026857806 3.7002716e-05
0.0017102751 0.042034052 -0.0044371816 3.3748507e-05 0.6365252 0.008200915 0.37881964 0.43782532
0.0056869565 0.1401542 -0.0029354652 0.0002746046 -0.01151364 -0.008766869 0.22730392 -0.00094024977
-0.00079244975 -0.001659832 0.0044035623 0.004910234 0.24093588 0.3683955 -0.00013245137 -0.018221462
0.19139792 0.66300154 -0.011289038 -0.0014965392 -0.00014470282 0.015192662 4.678071e-05 1.834168e-05
-0.0014363095 0.0013519903 0.014790842 0.010677587 0.0015391681 -0.004432859 0.00011801992 -0.0008631612
-0.0025527019 -0.026102921 -0.0058500683 0.00091240444 0.0021449877 -0.008924938 -0.000117756725 0.004296953
0.00028532027 7.942145e-05 0.019131254 -0.012627762 0.26344746 -0.0008726665 -0.00091702613 1.5704682e-05
-0.00021067653 0.0053736446 -0.0014643903 -0.0056905863 0.1703574 -0.011909061 1.9407977e-07 0.00039230118
0.61773664 0.005198767 -0.005971398 0.23143573 0.004818843 0.0002810427 0.005561645 -0.0015014919
0.0022448262 0.00781563 0.23236755 0.0020500103 0.0008341839 -0.04792024 -0.00082044816 -0.002233203
-0.0056358473 0.23056358 -0.00028956073 0.0014803092 0.0054278597 1.9537427e-05 -0.004318487 0.0022513801
-0.0065355287 -0.0015883279 2.1980568e-05 0.008253269 0.5066726 0.28708053 -2.3322302e-05 0.002292353
-4.4085355e-05 0.1347962 -0.00065998174 0.239406 0.31068873 0.12986018 0.48026085 0.00044101023
-0.0016327379 -0.00030545925 0.29806572 0.29143906 -0.0021092168 -0.032680996 0.00070690474 0.007940748
-0.0028047732 -1.513856e-07 0.19962336 -0.001595615 0.010102562 -0.0060722 -0.0015489896 0.53840715
0.011089525 0.32603872 5.686639e-07 0.023440687 0.0001250977 0.36210468 -0.008509718 1.5845828e-05
-0.008593558 0.0013241874 -0.03308501 0.30004752 -3.1043548e-06 -0.0002643053 0.000758808 -0.00026758137
0.0037548405 -0.002328307 0.02097218 0.23037092 -0.026786687 0.00087314 -0.0008440427 0.0042383317
0.0017779218 0.28617293 -2.9578307e-05 -0.0013213645 -0.005516326 0.0010069035 0.0127770305 0.0022183366
0.0009733149 -0.0029519647 -0.0017950198 -0.001937682 0.0044058003 -0.006441763 6.747757e-06 0.014541149
00000000: bf69 ba3a 5ea6 383e 94d3 183f 507b 27b9
00000010: 7d08 df37 7916 983e ba21 103b ad5f b5bc
00000020: bc68 a63a 49a8 8e3e 6bf3 75ba b9d6 7e38
00000030: 431a 03bb d82a ca3e b25e dcbc 88f3 303a
00000040: c03f f73a 324d 193c 0c29 38bb 2356 313c
00000050: 0efe 11b8 b050 05bc ce9a cb39 a3ab b43b
00000060: 3e80 3f3a 6533 cf39 3c40 83b9 bdec de3d
00000070: c847 a63a 9483 bf3e 602a 0abc 575a 393f
00000080: a59c 813e 52a4 4c3e e15c 853b 10d4 143b
00000090: b1a8 a339 7c2b 433f c086 1439 d508 7b3e
000000a0: f194 423b 225d 243f a429 e9b9 bb00 13bb
000000b0: 4aae 1f3f 30f6 4eba 4456 dbbb 93c1 b73e
000000c0: 92f1 f4b8 7088 563c 9f54 f837 9873 f43a
000000d0: f86e 2339 50b1 f83e 0ae9 913c bf78 9b3c
000000e0: c089 19ba c5ac a03e 5f12 893b 27c7 763e
000000f0: cea1 063f 7dc9 8b3e 4b1d c7bc 42fd 19bb
00000100: eeb9 d2b9 4254 313b aaef b13e d95e 1e3e
00000110: 56ea 4e3a ec90 723e 5895 953e f30d 943e
00000120: ebff 953e e2ea 573c abc9 f33e 7b3f 823e
00000130: 801f 093c b2a0 103d 1661 87bc c742 1dbb
00000140: 9ead 3239 8ccc 93bb 0fd1 933b c75d 813f
00000150: ff3e 83bc 679a b2bc b301 f5b6 2b37 ce37
00000160: 2271 403c d797 863b 2e0f 8539 2891 6fbd
00000170: c547 0139 87bd 1eb9 ec03 30bb 5d33 1b38
00000180: 4f2b e03a e62b 2c3d c765 91bb 2f8d 0d38
00000190: 51f3 223f 215d 063c a6f4 c13e a42a e03e
000001a0: a659 ba3b 9584 0f3e ef60 40bb cef8 8f39
000001b0: b5a3 3cbc eaa2 0fbc 5cc2 683e 187b 76ba
000001c0: 67bc 4fba b88e d9ba c24b 903b 07e6 a03b
000001d0: e5b7 763e 569e bc3e a5e2 0ab9 2d45 95bc
000001e0: d1fd 433e 78ba 293f a8f5 38bc 8627 c4ba
000001f0: 5ebb 17b9 a5ea 783c 6836 4438 75dc 9937
00000200: 8d42 bcba 4435 b13a 4a55 723c 0cf1 2e3c
00000210: e9bd c93a 8441 91bb 7681 f738 c545 62ba
00000220: 3b4b 27bb cbd5 d5bc eeb1 bfbb 6d2e 6f3a
00000230: ec92 0c3b e739 12bc 29f4 f6b8 74cd 8c3b
00000240: 0a97 9539 118f a638 26b9 9c3c ace4 4ebc
00000250: 96e2 863e a8c3 64ba 9564 70ba 8cbd 8337
00000260: 0de9 5cb9 6615 b03b c9f0 bfba 1978 babb
00000270: 2c72 2e3e 391e 43bc 3e64 5034 c6ad cd39
00000280: fd23 1e3f 6b5a aa3b b8ab c3bb 7dfd 6c3e
00000290: 63e7 9d3b ea58 9339 763e b63b b5cd c4ba
000002a0: ef1d 133b 210d 003c c2f1 6d3e 7759 063b
000002b0: 22ad 5a3a 0348 44bd 5813 57ba ee5a 12bb
000002c0: eaac b8bb dc18 6c3e 2fd0 97b9 ef06 c23a
000002d0: 30dc b13b 4ee4 a337 1882 8dbb e48b 133b
000002e0: fd27 d6bb 712f d0ba e962 b837 b838 073c
000002f0: 4cb5 013f 38fc 923e 43a4 c3b7 4d3b 163b
00000300: 4ae8 38b8 0408 0a3e a002 2dba d926 753e
00000310: 9812 9f3e 11fa 043e c0e4 f53e 6437 e739
00000320: 9801 d6ba 0c26 a0b9 129c 983e 8037 953e
00000330: c93a 0abb 82dc 05bd 934f 393a e919 023c
00000340: 49d0 37bb 8f8c 22b4 116a 4c3e f423 d1ba
00000350: 3785 253c 4ef9 c6bb 7707 cbba 0dd5 093f
00000360: d7b0 353c 8cee a63e 49a6 1835 af06 c03c
00000370: a82c 0339 c965 b93e 586c 0bbc a8ec 8437
00000380: ffcb 0cbc 5b90 ad3a 2684 07bd d49f 993e
00000390: 6954 50b6 7592 8ab9 beea 463a 2a4a 8cb9
000003a0: c513 763b 8296 18bb d9cd ab3c 5be6 6b3e
000003b0: c16f dbbc 6fe3 643a bf42 5dba b4e1 8a3b
000003c0: 2809 e93a 4285 923e ee1e f8b7 a331 adba
000003d0: 4cc2 b4bb 13fa 833a c056 513c 8361 113b
000003e0: 0f26 7f3a c075 41bb df46 ebba d2f9 fdba
000003f0: 885e 903b 6d15 d3bb cb6a e236 003e 6e3c

model.1.bias f4 [512]
-0.0045879497 -0.012298427 -0.4482264 -0.0005581668 -0.08712056 -0.20698902 0.0035467525 0.01204592
-0.041289292 -0.060636245 -0.020763468 6.192487e-05 0.002587952 -0.18594596 0.045005094 -0.003338384
0.0016731936 -0.010191314 -0.057040825 0.09785473 -2.7226065e-06 0.051989153 -0.0007495058 -0.011927975
-0.0024330518 0.001040576 -0.00087356113 -0.102598876 0.033349503 -0.21459623 -0.021958075 -0.24830736
-0.1654826 -0.06181333 0.0080736065 0.0019868473 0.0013438355 -0.3421882 0.00015590874 -0.03519298
0.02743291 -0.38495123 -0.0008105111 0.011223806 -0.43038827 0.00086241576 0.047307435 -0.09568666
-0.00017570118 0.015966387 1.6191116e-05 -0.010634835 -0.0039643594 -0.38597825 -0.06510542 -0.09954087
0.027264977 -0.0886172 0.029260887 -0.11466319 -0.28456038 -0.14319769 0.045739114 0.0017930168
0.00021317654 -0.035261318 -0.17944175 -0.05841608 -0.0018352326 -0.11145744 -0.13421026 -0.095803164
-0.0802896 0.052252166 -0.23768595 -0.042307183 -0.07245354 0.1134235 0.026579669 -0.0040019904
0.0007255085 0.09208072 -0.053214204 -0.68140227 -0.08749018 -0.050858706 -7.627053e-06 -3.473228e-05
-0.055543844 -0.0067964518 -0.004529606 -0.0818365 -0.00035870523 0.00018935183 -0.021552963 3.8095848e-05
0.018332772 0.031048391 -0.0046027116 2.857086e-05 -0.41682214 0.043104507 -0.20740022 -0.23198082
-0.0025262951 0.022756018 0.0055431398 0.049923833 0.06293406 0.0042974334 -0.0072633796 -0.0046928274
0.00027401547 -0.014691415 0.00036047 -0.0027956222 -0.08780679 -0.13328125 -0.0007392606 0.05487174
-0.017688097 -0.48232377 0.07423463 0.01821027 0.00060663745 0.009556972 0.00015987686 -5.7215755e-07
0.017610267 0.00028886276 0.0063593774 0.0434576 0.046778213 0.032748718 0.00020437209 0.0008099154
-0.0040793633 -0.04769504 0.012454771 0.0014072013 -0.0027293917 0.025519941 0.013614444 -0.0669056
0.00033759186 0.000121052144 0.09537191 0.0611659 -0.1110506 -0.008112901 0.00012647694 2.3109699e-06
-0.004092378 -0.06255545 -0.043850504 -0.0016028676 -0.028136205 0.003695237 -4.0035473e-05 -0.0003640988
0.04358469 0.08353115 0.034293167 -0.08413549 0.005966026 0.0003961757 0.02040245 0.0010316445
0.00026759104 -0.0243187 -0.099430114 0.0011690219 0.00019882357 0.06896718 0.0045185736 0.0072370754
0.021054579 0.0039176936 0.0054188063 -0.0018013649 0.02228378 4.4145774e-05 -0.011976858 -0.003161067
-0.051821772 0.004082175 0.000103773426 -0.057716765 -0.22279796 -0.014924202 0.00033563396 -0.021499647
0.0005497365 -0.119546145 -0.05866236 -0.12437071 -0.065412715 -0.106513165 -0.15216589 -0.006639573
-0.0018180176 0.043803733 -0.11098786 -0.12028944 -0.076479465 -0.1331541 -0.016102832 -0.006085205
0.004812404 -2.5131326e-08 -0.1395192 0.00077717105 0.0747363 0.025615526 0.007845562 0.090265356
0.05492953 -0.2226385 9.315951e-07 -0.04370387 -0.0069515696 -0.18966722 -0.018445557 0.0007089609
0.07498289 -0.00016537013 -0.068971224 -0.06359572 -0.020204695 0.002247436 0.00035637626 -0.00064093986
-0.009107883 0.05935715 -0.015274849 -0.1090378 -0.014087399 -0.0012906111 -0.018897079 -0.00041401846
-0.0028696475 -0.13740872 -8.099154e-05 0.0067898254 0.015790632 0.0039847293 -0.034868788 0.00012848861
-0.0009330204 -0.0065058894 -0.004970585 0.043561082 -0.031601604 -0.045887202 1.5755364e-06 -0.04467669
00000000: 8356 96bb 577f 49bc ee7d e5be f151 12ba
00000010: 446c b2bd eef4 53be a270 683b 405c 453c
00000020: f61e 29bd b65d 78bd 2618 aabc a9dd 8138
00000030: a19a 293b 9e68 3ebe 4357 383d cac8 5abb
00000040: 104f db3a 78f9 26bc a4a3 69bd 1068 c83d
00000050: 06b6 36b6 94f2 543d 7c7a 44ba 8e6d 43bc
00000060: d673 1fbb f063 883a b2ff 64ba 5c1f d2bd
00000070: 7d99 083d 1dbf 5bbe 6ce1 b3bc 4944 7ebe
00000080: 4574 29be f92f 7dbd 2947 043c c435 023b
00000090: a323 b03a 4b33 afbe 6f7b 2339 8426 10bd
000000a0: fbba e03c 5418 c5be 7b78 54ba 0ee4 373c
000000b0: da5b dcbe be13 623a 71c5 413d 5ef7 c3bd
000000c0: 6d3c 38b9 f1cb 823c 28d2 8737 bb3d 2ebc
000000d0: 75e7 81bb f19e c5be fe55 85bd 15dc cbbd
000000e0: cd5a df3c ef7c b5bd 87b4 ef3c 89d4 eabd
000000f0: e6b1 91be 6aa2 12be f058 3b3d a903 eb3a
00000100: 2488 5f39 2c6e 10bd 94bf 37be b345 6fbd
00000110: 308c f0ba cc43 e4bd 6a6e 09be 7334 c4bd
00000120: e06e a4bd 5e06 563d f263 73be 4c4a 2dbd
00000130: 8662 94bd 944a e83d 9bbd d93c 2123 83bb
00000140: 0d30 3e3a d194 bc3d 23f7 59bd 6170 2ebf
00000150: 0d2e b3bd 3851 50bd e3eb ffb6 80ad 11b8
00000160: f181 63bd c5b4 debb 176d 94bb e599 a7bd
00000170: 9a10 bcb9 bf8c 4639 d78f b0bc 1bc9 1f38
00000180: 9c2e 963c 3259 fe3c 58d2 96bb 74ab ef37
00000190: b669 d5be 5a8e 303d b960 54be 618c 6dbe
000001a0: 3390 25bb d46a ba3c 3aa3 b53b ef7c 4c3d
000001b0: 93e3 803d 7cd1 8c3b a501 eebb 4ac6 99bb
000001c0: bca9 8f39 43b4 70bc 77fd bc39 c236 37bb
000001d0: 0cd4 b3bd e17a 08be f0ca 41ba 31c1 603d
000001e0: a1e6 90bc 24f3 f6be 5308 983d b42d 953c
000001f0: c006 1f3a d994 1c3c 9ea4 2739 5e96 19b5
00000200: 6843 903c 8172 9739 5362 d03b 9900 323d
00000210: 839a 3f3d 8523 063d b74c 5639 8150 543a
00000220: 2eac 85bb e05b 43bd 190f 4c3c d771 b83a
00000230: 98df 32bb 320f d13c 1e0f 5f3c ce05 89bd
00000240: d0fe b039 60dd fd38 5952 c33d 1889 7a3d
00000250: 7f6e e3bd f9eb 04bc e59e 0439 2916 1b36
00000260: 5b19 86bb 121d 80bd 969c 33bd 5017 d2ba
00000270: e67d e6bc ca2b 723b c3eb 27b8 84e4 beb9
00000280: dc85 323d 6112 ab3d fe76 0c3d 3a4f acbd
00000290: a77e c33b cdb5 cf39 0a23 a73c 3f38 873a
000002a0: 764b 8c39 0338 c7bc 04a2 cbbd de39 993a
000002b0: 4c7b 5039 aa3e 8d3d 8b10 943b fd24 ed3b
000002c0: a77a ac3c ff5f 803b 3e90 b13b c71b ecba
000002d0: 798c b63c 2a29 3938 953a 44bc e729 4fbb
000002e0: 1143 54bd c4c3 853b efa0 d938 6a68 6cbd
000002f0: 2625 64be a484 74bc 07f8 af39 0720 b0bc
00000300: 311c 103a 9cd4 f4bd f147 70bd 12b6 febd
00000310: 1af7 85bd 9323 dabd 60d1 1bbe c690 d9bb
00000320: 8c4a eeba 8b6b 333d 9a4d e3bd 4f5a f6bd
00000330: 44a1 9cbd 8c59 08be 16ea 83bc 6666 c7bb
00000340: 5fb1 9d3b 5fe0 d7b2 1fde 0ebe 11bb 4b3a
00000350: 580f 993d a7d7 d13c ac8a 003c 0bdd b83d
00000360: c9fd 603d 59fb 63be ba12 7a35 d402 33bd
00000370: fec9 e3bb 2038 42be 231b 97bc 90d9 393a
00000380: a190 993d 3567 2db9 c940 8dbd 793e 82bd
00000390: 5184 a5bc b849 133b 03d8 ba39 bf04 28ba
000003a0: 3b39 15bc 7c20 733d 5c43 7abc 364f dfbd
000003b0: d5ce 66bc b929 a9ba 0cce 9abc 9e10 d9b9
000003c0: b210 3cbb dfb4 0cbe 00da a9b8 2f7d de3b
000003d0: 5b5b 813c 5592 823b 93d2 0ebd e6ba 0639
000003e0: f095 74ba 5b2f d5bb 4ae0 a2bb 1b6d 323d
000003f0: af70 01bd 38f4 3bbd 0577 d335 e8fe 36bd

model.1.running_mean f4 [512]
-0.0069367923 -0.0045503355 -0.0012630627 0.0043274285 0.0031992954 0.011972778 -0.00073351554 0.021928836
0.008400612 0.022008458 0.007989327 0.0018081507 -0.00044701272 0.016924782 0.021349497 -0.00044409814
0.0005997662 0.0054936456 0.006670021 -0.00072695187 -1.0550191e-06 -0.0013390505 -0.0015786756 3.9171442e-05
0.008469716 -0.0004138472 -0.0014496167 -0.019603763 0.0007619834 0.007093434 -0.0034967232 0.052583527
-0.019862793 -0.00234124 0.005599809 -0.00013247474 0.001186306 0.017267909 1.9815181e-05 -0.05295491
-0.0010706583 0.024397299 -0.0004777271 0.0174836 -0.010254094 -2.0542664e-05 -0.0007165844 -0.05017521
-3.892983e-05 0.026665948 -3.0983954e-06 0.017583545 -6.607235e-06 0.0041122334 0.004262674 -0.008362686
0.00070218154 0.020532968 0.0037004848 -0.03795887 -0.012664347 -0.014140936 -0.004564059 -0.001818264
-0.00037350165 0.015815234 -0.0024089804 0.020438679 -0.00011618531 0.02843001 0.04714664 -0.038002934
-0.04638428 0.021867909 -0.0125006335 -0.026385704 -0.0011861577 0.0036633164 -0.003407929 0.00040168533
-0.00031067038 -0.0073376843 -0.0125882 0.010620143 -0.009158342 0.00096881605 2.713212e-07 -7.331695e-07
0.0028111688 -0.0061772084 0.0009259449 0.067022786 2.9770115e-06 9.525168e-05 -0.0011477545 -0.00019309447
-2.3602099e-05 0.030095858 0.0009993762 2.4156168e-06 0.026985284 -0.002383777 0.015219374 -0.02642937
0.0037612007 0.02053169 -0.0029954505 0.00417031 -0.0072915982 0.0013948621 0.04138365 0.006850136
-0.00018517941 0.00033916807 0.004494307 0.000607492 -0.022537889 -0.028183758 -5.5992994e-05 -0.0013799946
-0.006561295 0.035353225 0.0025786993 0.012668394 -0.00048305947 0.008010463 -0.0016552061 -3.1878076e-07
-0.0036877277 -0.0021596795 -0.0008984766 0.0043969904 -0.0015380206 -0.0014628605 -0.0013064923 -0.0019446844
-0.0025779298 -0.024737438 0.011762519 0.000121941746 -0.0020347545 0.00050016405 -0.0050660605 0.0013510605
-0.00027833856 -0.0038294299 0.009720723 -0.019561922 -0.036695413 -2.868065e-05 -0.00014551533 1.1336573e-07
-0.008231914 0.0004062274 0.022792436 0.0012166679 0.009439392 -0.0004750182 -7.5961334e-06 -0.0011960797
0.03456727 0.007102277 0.0040404545 -0.030559584 -0.0006127839 0.00037015075 0.0044168415 0.0007932196
-0.00055035553 0.0026291125 0.010365003 -0.0018830898 -5.664029e-05 -0.035098337 0.0019754923 0.003664354
0.0178632 0.016909864 0.0048609152 0.0012195767 0.005353078 5.0199946e-05 -0.0032251203 -0.0008433075
-0.008333131 -0.0046546953 1.4487927e-05 -0.011819577 -0.00600774 -0.008071536 0.00015706288 0.0046004294
0.00068486325 0.0041007954 0.004839288 0.0056136376 -0.004633899 -0.029016864 0.037017673 -0.0026162812
-0.0019935211 -0.006632414 -0.01908858 -0.02362219 0.003763681 0.017050792 0.0011642207 -0.009176439
0.0021972994 -2.1685796e-10 -0.031082312 0.0063462784 0.012682085 -0.002431791 0.010699808 0.024653316
0.00565945 -0.003277907 5.536808e-09 6.185472e-05 -0.000813653 -0.027003622 -0.0074741 3.8300404e-05
0.016275896 -0.0012112943 0.014332198 -0.033518862 3.145716e-05 0.0011178559 0.00030098687 -0.00011816383
-0.0032327052 0.0032408966 0.013494142 -0.043382816 -0.038015712 0.0020536105 0.0020049557 0.0076967864
-0.001803758 -0.009905311 -2.90892e-06 0.017043972 -0.019147849 0.0005799254 0.007006362 -0.0006732666
0.00042581788 -0.001035083 -0.003773646 0.000748351 0.0044426736 0.0026940873 -2.7186923e-07 0.008527427
00000000: 084e e3bb fb1a 95bb 5a8d a5ba 1acd 8d3b
00000010: 45ab 513b 7829 443c 6549 40ba 1aa4 b33c
00000020: b8a2 093c 154b b43c abe5 023c 78ff ec3a
00000030: 085d eab9 d7a5 8a3c 24e5 ae3c d8d5 e8b9
00000040: a139 1d3a 0a04 b43b 3190 da3b ea90 3eba
00000050: 2e9a 8db5 1483 afba 90eb ceba 044c 2438
00000060: 90c4 0a3c a2f9 d8b9 1101 beba 1298 a0bc
00000070: d7bf 473a 0a70 e83b 4829 65bb d361 573d
00000080: 4cb7 a2bc 7d6f 19bb 9a7e b73b ebe8 0ab9
00000090: d37d 9b3a 6e75 8d3c c738 a637 3fe7 58bd
000000a0: 5555 8cba d8dc c73c 7277 fab9 c439 8f3c
000000b0: ca00 28bc 0953 acb7 2ad9 3bba 8584 4dbd
000000c0: 9648 23b8 8c72 da3c 07ee 4fb6 5e0b 903c
000000d0: b7b3 ddb6 eabf 863b e7ad 8b3b a603 09bc
000000e0: 9b12 383a c134 a83c d583 723b c37a 1bbd
000000f0: 1f7e 4fbc 62af 67bc 1a8e 95bb d152 eeba
00000100: 8bd2 c3b9 f38e 813c fcdf 1dbb 046f a73c
00000110: 83a8 f3b8 0de6 e83c d61c 413d f7a8 1bbd
00000120: 71fd 3dbd 5424 b33c 75cf 4cbc d526 d8bc
00000130: d978 9bba 4014 703b 9057 5fbb 4b99 d239
00000140: 79e1 a2b9 f570 f0bb bd3e 4ebc 1c00 2e3c
00000150: df0c 16bc 25f8 7d3a 1aaa 9134 06cf 44b5
00000160: 963b 383b 2e6a cabb 1cbb 723a 3e43 893d
00000170: abc8 4736 dbc1 c738 4070 96ba 6779 4ab9
00000180: 1ffd c5b7 978b f63c 80fd 823a fb1b 2236
00000190: 3e10 dd3c 2439 1cbb ae5a 793c 6882 d8bc
000001a0: 7a7e 763b 1332 a83c 524f 44bb 19a7 883b
000001b0: 5cee eebb ced3 b63a e781 293d 1b77 e03b
000001c0: b82c 42b9 5ed2 b139 fb44 933b 1940 1f3a
000001d0: 61a1 b8bc a0e1 e6bc 05da 6ab8 efe0 b4ba
000001e0: 2200 d7bb 8bce 103d 65ff 283b 188f 4f3c
000001f0: 2543 fdb9 513e 033c 80f3 d8ba e524 abb4
00000200: cead 71bb 6989 0dbb be87 6bba a114 903b
00000210: 6897 c9ba 74bd bfba 9b3e abba c8e4 feba
00000220: 7cf2 28bb 2ba6 cabc 95b7 403c faba ff38
00000230: 8459 05bb 711d 033a 3201 a6bb 1116 b13a
00000240: f8ed 91b9 2cf7 7abb ab43 1f3c 5340 a0bc
00000250: ee4d 16bd 3a97 f0b7 7995 18b9 7873 f333
00000260: 26df 06bc ebfa d439 34b7 ba3c 9a78 9f3a
00000270: aea7 1a3c dd0b f9b9 4ae2 feb6 c6c5 9cba
00000280: 6996 0d3d 38ba e83b ca65 843b 1858 fabc
00000290: 3ba3 20ba cb10 c239 27bb 903b 11f0 4f3a
000002a0: bc45 10ba 304d 2c3b f9d1 293c 02d2 f6ba
000002b0: 0c91 6db8 46c3 0fbd 4377 013b a925 703b
000002c0: d855 923c 8e86 8a3c 5048 9f3b 34da 9f3a
000002d0: df68 af3b c88d 5238 8a5c 53bb 6911 5dba
000002e0: af87 08bc 6a86 98bb 2c11 7337 e6a6 41bc
000002f0: 93dc c4bb 7a3e 04bc 3fb1 2439 33bf 963b
00000300: 6588 333a f75f 863b e492 9e3b 9bf2 b73b
00000310: f6d7 97bb c6b4 edbc d89f 173d ea75 2bbb
00000320: bca5 02bb b954 d9bb a75f 9cbc 5383 c1bc
00000330: 17a8 763b 1aae 8b3c c498 983a c658 16bc
00000340: 9100 103b 1770 6eaf 55a0 febc 71f4 cf3b
00000350: 85c8 4f3c af5e 1fbb 3f4e 2f3c c0f5 c93c
00000360: e872 b93b 27d2 56bb 473e be31 00b8 8138
00000370: 544b 55ba b336 ddbc 4ce9 f4bb bfa4 2038
00000380: 0755 853c 4bc4 9eba 98d1 6a3c 134b 09bd
00000390: def0 0338 0585 923a c6cd 9d39 b9ce f7b8
000003a0: cbdb 53bb 3965 543b 8916 5d3c 2eb2 31bd
000003b0: 5db6 1bbd de95 063b 9365 033b 5335 fc3b
000003c0: 136c ecba e349 22bc dd36 43b6 cd9f 8b3c
000003d0: f3db 9cbc 2306 183a a095 e53b 287e 30ba
000003e0: 4f40 df39 9fab 87ba 464f 77bb fc2c 443a
000003f0: d993 913b 498f 303b 6cf5 91b4 9fb6 0b3c

model.1.running_var f4 [512]
0.0021918174 0.2833859 0.47384146 0.0025838607 0.011046292 0.54801226 0.00012512249 0.010550056
0.020159924 0.38842258 0.009159753 0.0006299105 0.00083208055 0.3682337 0.02932119 0.0007109589
0.00024573412 0.0027526915 0.007726794 0.04262113 5.6195065e-10 0.0052901343 0.00014024855 0.0037719253
0.0092680445 2.202059e-05 0.00018016502 0.21920149 0.0038437438 0.075100325 0.013111008 0.051404625
0.37866002 0.32254675 0.003685546 0.0010507555 0.00034811583 0.074226364 1.7230511e-06 0.34330213
0.0027563814 0.116252564 5.9188107e-05 0.025576957 0.5372078 0.00043440354 0.007953335 0.5264285
5.465456e-07 0.025710404 6.873132e-08 0.007996588 8.2772397e-07 0.08975801 0.02823775 0.04514693
0.00390736 0.37948114 0.01107417 0.40791002 0.5133672 0.46815088 0.02464683 0.008015451
0.00013691968 0.04342176 0.48531452 0.21967402 3.867956e-05 0.38186318 0.31364322 0.4806233
0.3973044 0.009658227 0.6132838 0.39561194 0.014390999 0.061964117 0.0035802443 0.00059982756
5.578005e-06 0.044617288 0.009788955 0.17186305 0.008934116 0.047799684 1.3787113e-11 1.5264637e-10
0.029309519 0.0036082412 0.002533041 0.12426359 1.7181859e-06 0.00015658082 0.0029787722 2.1416998e-05
0.01519008 0.06604168 0.00818153 5.304386e-10 0.11376715 0.0382405 0.3330276 0.57811445
0.0018772925 0.20614362 0.0016930732 0.0036403132 0.028547246 0.0028675706 0.26872268 0.0073075625
9.293058e-05 0.003944455 0.0025039942 0.019483767 0.436459 0.5152866 4.291731e-05 0.017088482
0.2987007 0.5147644 0.046837445 0.021281475 0.00012143989 0.009497115 0.0001717891 1.1715451e-10
0.0058857016 0.00093326217 0.043880362 0.007089472 0.004582158 0.008738571 5.623701e-05 0.00017878697
0.0023973226 0.021715298 0.028079323 4.468192e-05 0.0022727826 0.011797678 0.03324728 0.037956983
0.00021956966 0.004395306 0.036259867 0.058806974 0.4396339 0.00089452014 0.0005544992 4.0914633e-11
0.0071865115 0.0076680672 0.016559662 0.00068508444 0.24624057 0.006523529 7.516237e-10 0.00089158805
0.0302545 0.034347612 0.005530334 0.34945446 0.00092262577 0.00021079635 0.003691292 0.00032453268
0.00030407496 0.0021432044 0.28486022 7.623792e-05 0.005450982 0.057648584 0.0012527277 0.00084660016
0.026640808 0.3650776 0.001339281 0.00063604256 0.0073230523 4.327351e-06 0.00087565585 0.0069816266
0.017839096 0.0026708706 7.264652e-08 0.022229979 0.53299725 0.5479488 1.7864995e-05 0.008287618
1.91223e-05 0.14568347 0.0057124035 0.3658576 0.54817986 0.26723754 0.060339782 0.00092719565
0.00086477934 0.018608844 0.40855747 0.38786787 0.052481674 0.03367999 0.0010300456 0.009791162
0.0043355413 3.455464e-18 0.29375148 0.0055142087 0.052830745 0.0142920865 0.003206067 0.028316531
0.0052285115 0.40614852 1.258712e-13 0.033997677 0.0004824774 0.40462887 0.006568261 3.7077104e-06
0.04793836 0.00082652504 0.09201765 0.52462924 0.00925205 0.0006312866 4.4587712e-05 0.00032460736
0.0013740044 0.009614544 0.03969921 0.37308398 0.06620016 0.0010990853 0.007529885 0.0039031887
0.0002494712 0.46248803 4.6877247e-08 0.013654059 0.016275924 0.0014161048 0.00588929 0.00031144914
0.00016784198 0.0016702132 0.00076423783 0.011445795 0.00812467 0.012479883 4.252583e-11 0.020266034
00000000: 98a4 0f3b f517 913e 599b f23e fd55 293b
00000010: 82fb 343c 884a 0c3f 5033 0339 24da 2c3c
00000020: 6d26 a53c 53df c63e ca12 163c 9420 253a
00000030: fb1f 5a3a 2189 bc3e fe32 f03c a55f 3a3a
00000040: e0d5 8039 8066 343b 0c31 fd3b 7e93 2e3d
00000050: c377 1a30 dd58 ad3b af0f 1339 6832 773b
00000060: ffd8 173c dbb8 b837 aeea 3c39 5b76 603e
00000070: 52e7 7b3b 33ce 993d 8ecf 563c a88d 523d
00000080: badf c13e d924 a53e 3489 713b 81b9 893a
00000090: 5183 b639 fe03 983d 9643 e735 4cc5 af3e
000000a0: 68a4 343b d315 ee3d bf40 7838 c486 d13c
000000b0: 7386 093f a8c0 e339 b44e 023c 05c4 063f
000000c0: 54b6 1235 a09e d23c 7199 9333 1f04 033c
000000d0: c230 5e35 0cd3 b73d db52 e73c fdeb 383d
000000e0: 5009 803b 5a4b c23e 6f70 353c 95d9 d03e
000000f0: 086c 033f 79b1 ef3e 26e8 c93c 3d53 033c
00000100: 1992 0f39 04db 313d 257b f83e 3af2 603e
00000110: dc3b 2238 9283 c33e d895 a03e 4214 f63e
00000120: 7b6b cb3e 8a3d 1e3c 2b00 1d3f a68d ca3e
00000130: 3ac8 6b3c 16ce 7d3d 88a2 6a3b bf3d 1d3a
00000140: b32a bb36 9ec0 363d da61 203c defc 2f3e
00000150: 6660 123c 9ac9 433d a38b 722d 22d6 272f
00000160: 841a f03c 3e78 6c3b 6001 263b e97d fe3d
00000170: 6b9c e635 d82f 2439 8137 433b a7a8 b337
00000180: d0df 783c dc40 873d d30b 063c 4cce 1130
00000190: c0fe e83d 12a2 1c3d 9882 aa3e 4fff 133f
000001a0: 7c0f f63a 5017 533e 1cea dd3a 5292 6e3b
000001b0: eadb e93c daed 3b3b 0596 893e 4774 ef3b
000001c0: bae3 c238 7d40 813b 0d1a 243b 6c9c 9f3c
000001d0: 8e77 df3e d3e9 033f 1c02 3438 25fd 8b3c
000001e0: 4cef 983e 9ac7 033f 9fd8 3f3d 7d56 ae3c
000001f0: 8bad fe38 ca99 1b3c 4922 3439 10d0 002f
00000200: d8dc c03b 2aa6 743a e5bb 333d cd4e e83b
00000210: ed25 963b 392c 0f3c 08e0 6b38 c378 3b39
00000220: 661c 1d3b 48e4 b13c 9c06 e63c d968 3b38
00000230: f7f2 143b 0c4b 413c 4d2e 083d c878 1b3d
00000240: 483c 6639 8006 903b 3a85 143d 95df 703d
00000250: b217 e13e 3b7e 6a3a d05b 113a c8f1 332e
00000260: d47c eb3b 6944 fb3b 21a8 873c 3d97 333a
00000270: 7d26 7c3e 54c3 d53b d19a 4e30 76b9 693a
00000280: 49d8 f73c 15b0 0c3d ce37 b53b b2eb b23e
00000290: 5edc 713a 3709 5d39 9ae9 713b 0a26 aa39
000002a0: 406c 9f39 0175 0c3b 33d9 913e ece1 9f38
000002b0: 279e b23b ec20 6c3d 9132 a43a 60ee 5d3a
000002c0: d33d da3c 74eb ba3e d08a af3a 18bc 263a
000002d0: 37f6 ef3b a933 9136 458c 653a 21c6 e43b
000002e0: 4c23 923c c609 2f3b d901 9c33 a51b b63c
000002f0: 8272 083f 5f46 0c3f c9dc 9537 cac8 073c
00000300: d468 a037 0c2e 153e 1d2f bb3b b051 bb3e
00000310: 8455 0c3f 5cd3 883e d926 773d 0c0f 733a
00000320: 5cb2 623a 9371 983c 722e d13e 9e96 c63e
00000330: 06f7 563d 07f4 093d 9802 873a 1c6b 203c
00000340: 2811 8e3b dff7 7e22 9866 963e 89b0 b43b
00000350: 0d65 583d 5b29 6a3c e11c 523b 12f8 e73c
00000360: ef53 ab3b b3f2 cf3e e7b7 0d2a 2641 0b3d
00000370: 05f5 fc39 842b cf3e 913a d73b fbd1 7836
00000380: 045b 443d 28ab 583a c073 bc3d 1a4e 063f
00000390: e995 173c ed7c 253a b103 3b38 1030 aa39
000003a0: f017 b43a 5286 1d3c a49b 223d dd04 bf3e
000003b0: f393 873d 2f0f 903a 41bd f63b a4cc 7f3b
000003c0: 75cb 8239 3bcb ec3e 1456 4933 46b5 5f3c
000003d0: 1655 853c 989c b93a f2fa c03b ff49 a339
000003e0: bdfe 2f39 0eeb da3a 2257 483a 2587 3b3c
000003f0: 561d 053c 6c78 4c3c d407 3b2e f404 a63c

model.4.weight f4 [256, 512]
-0.0048889425 -0.02302837 0.022000331 -0.0004607886 -0.0004181287 0.055443436 0.00067667937 0.013709999
0.0044373325 -0.028803933 -0.0065925084 -0.00065414206 0.0028898532 0.0056307428 0.008649647 6.697516e-05
0.0009366322 0.007661504 -0.0049101864 0.006524009 5.30148e-07 0.01280315 -0.00086452765 -0.0012818016
0.001795078 0.00058069016 0.002739613 0.008374112 -0.004257646 0.021222781 -0.0065866243 0.028453764
0.042655908 -0.061327443 -0.007159002 0.00045372604 0.0004825875 0.072719015 1.4724173e-05 0.060200248
0.0010427241 0.014965188 -0.000634597 0.0027574326 0.053998496 3.2427357e-05 0.0010153562 0.06689648
0.000117871496 -0.028356066 1.1506857e-05 -0.010244758 0.001829534 0.041661344 0.008700375 0.00845919
0.006652022 0.023071466 -0.004091172 -0.0063541336 0.024039421 0.06365043 0.029216874 -0.0018362744
-0.00015474879 0.016785879 0.07657817 0.027208738 0.00037518743 0.06873155 0.011715011 0.014614057
0.038571242 0.025472347 0.035777852 0.035025757 0.019008134 0.028732883 -0.016537864 -0.0034054762
0.00023768295 -0.030522035 -0.027100416 0.073521815 -0.028054722 -0.009469697 3.5273054e-06 1.4953034e-05
-0.002474744 -0.0034526687 -0.0013357799 0.002943216 0.00023833237 -0.00040863504 -0.0002746445 -2.5481842e-05
0.00087236613 -0.03311666 -0.0025362738 1.560678e-05 0.0018270661 -0.008802066 -0.0074290624 0.06195054
-0.006620031 -0.029282656 0.0014906867 -0.0044135824 0.0041759755 -0.007310017 -0.013346099 0.004368531
0.00127622 -0.0022154178 -0.001331575 0.0011728818 0.025349654 0.0694398 0.0006661647 0.036657043
0.03311317 -0.010523296 -0.04702362 -0.006919263 -0.00019493722 -0.008436383 0.0005971793 1.1242396e-06
0.0018639421 0.00075404503 0.007791975 -0.026781911 -0.023970343 -0.002763668 0.0003455997 -0.000836013
0.007069784 -0.030732797 -0.0027193106 -7.9812315e-05 0.0027315316 0.008450329 -0.014451382 0.011914248
-0.00069740735 -4.940818e-05 0.03724051 -0.017302705 -0.0063849953 -0.0011787175 -9.0979775e-05 2.12432e-06
-0.0041466868 0.0055300863 -0.0034432153 -0.0013032878 0.04501685 0.005538033 -9.226622e-05 7.8030156e-05
-0.011031867 -0.015565847 -0.009479607 0.04365892 -0.0019477771 0.0009953935 -0.012838748 -0.0001538802
0.004915547 -0.009711311 0.081205465 0.0019082787 0.001005482 0.0048287082 0.0004491179 0.0030080143
-0.026401674 -0.023359753 -0.0038965268 -0.0001668653 0.0033184977 -3.3301618e-05 0.0024475432 -0.005477395
0.008624221 0.0019310311 3.414355e-05 -0.007793454 -0.008670888 0.092260696 1.346137e-05 -0.0033952943
-0.00061621045 0.02083331 -0.004737128 0.042278994 0.06053999 0.034092896 -0.0077173957 0.001155111
-0.0014635774 -0.030875893 0.07739158 0.040879052 -0.02394632 -0.061339196 -0.0034911493 -0.0058642235
0.0060644336 2.3772984e-07 0.05038553 -0.006191669 0.0058511025 0.017878214 0.0023895798 -0.045234352
0.008192089 0.054956503 3.3327594e-06 0.0039054132 0.0007279277 0.12670866 0.00013277713 -7.283035e-05
-0.02678017 0.002858825 -0.013435372 0.07170265 -0.0028483833 4.2189225e-05 -0.00039761083 -0.0003755038
-0.0015344098 0.017687494 -0.006246441 0.06519465 -0.0029052277 -0.00056621525 0.007860386 0.01014752
0.0029608952 0.08325184 -0.00013146797 -0.008854914 -0.0005074184 -0.0043627657 -0.0048586703 0.0023011544
0.0020794154 0.0011793467 -0.005363718 -0.01268423 0.0010369063 0.008660963 6.3501175e-06 -0.039379496
00000000: 6c33 a0bb fea5 bcbc 0a3a b43c 0096 f1b9
00000010: 4938 dbb9 a818 633d 2f63 313a e79f 603c
00000020: 0b67 913b 3af6 ebbc f805 d8bb bb7a 2bba
00000030: b163 3d3b 1882 b83b 40b7 0d3c 0475 8c38
00000040: 5388 753a 5b0d fb3b a1e5 a0bb 5bc7 d53b
00000050: 7e4f 0e35 4ec4 513c 78a1 62ba 2002 a8ba
00000060: d348 eb3a 7539 183a 148b 333b 9233 093c
00000070: b983 8bbb 66db ad3c 9cd4 d7bb de17 e93c
00000080: f6b7 2e3d 7c32 7bbd 1096 eabb 14e2 ed39
00000090: cc03 fd39 b5ed 943d d707 7737 8994 763d
000000a0: 04ac 883a 8c30 753c 155b 26ba 0bb6 343b
000000b0: 872d 5d3d 9c02 0838 b315 853a 0601 893d
000000c0: c731 f738 fb4a e8bc 930d 4137 a1d9 27bc
000000d0: f9cc ef3a 16a5 2a3d 058c 0e3c 6a98 0a3c
000000e0: 34f9 d93b 5f00 bd3c 3d0f 86bb 5636 d0bb
000000f0: 52ee c43c 285b 823d 3a58 ef3c 25af f0ba
00000100: 1044 22b9 8a82 893c 04d5 9c3d dce4 de3c
00000110: ceb4 c439 20c3 8c3d 51f0 3f3c cc6f 6f3c
00000120: e1fc 1d3d 62ab d03c cc8b 123d 2b77 0f3d
00000130: f2b6 9b3c 3961 eb3c 6a7a 87bc 692e 5fbb
00000140: 883a 7939 5909 fabc b101 debc 9b92 963d
00000150: 04d3 e5bc ca26 1bbc a5b6 6c36 cbde 7a37
00000160: 512f 22bb 2b46 62bb 5615 afba f8e2 403b
00000170: dce8 7939 113e d6b9 29fe 8fb9 d7c1 d5b7
00000180: 80af 643a 56a5 07bd 9d37 26bb 4eeb 8237
00000190: 2a7a ef3a 8a36 10bc 7e6f f3bb d9bf 7d3d
000001a0: d8ec d8bb 2ee2 efbc 2563 c33a d09f 90bb
000001b0: 9fd6 883b de88 efbb 99a9 5abc e525 8f3b
000001c0: d646 a73a 8b30 11bb 3e88 aeba 62bb 993a
000001d0: 14aa cf3c 7436 8e3d 8ea1 2e3a b225 163d
000001e0: ada1 073d e769 2cbc d79b 40bd fcba e2bb
000001f0: 1068 4cb9 c138 0abc 068c 1c3a 94e4 9635
00000200: 854f f43a 1bab 453a d353 ff3b bd65 dbbc
00000210: 745d c4bc a81e 35bb 9b31 b539 e227 5bba
00000220: a6a9 e73b 59c3 fbbc 7636 32bb e960 a7b8
00000230: 7f03 333b 4073 0a3c 7dc5 6cbc fa33 433c
00000240: 37d2 36ba a13b 4fb8 8189 183d 67be 8dbc
00000250: 3939 d1bb 327f 9aba 65cc beb8 8a8f 0e36
00000260: eee0 87bb ba35 b53b 91a7 61bb 15d3 aaba
00000270: 9763 383d 6378 b53b 0d7f c1b8 1fa4 a338
00000280: 01bf 34bc e507 7fbc 5b50 1bbc b2d3 323d
00000290: 8e4c ffba dd77 823a 9d59 52bc e75a 21b9
000002a0: 9912 a13b 311c 1fbc 0d4f a63d 351f fa3a
000002b0: 61ca 833a 243a 9e3b 9677 eb39 1b22 453b
000002c0: 5348 d8bc f45c bfbc df5c 7fbb 90f8 2eb9
000002d0: 277b 593b 57ad 0bb8 f666 203b b87b b3bb
000002e0: 9b4c 0d3c a71a fd3a 5c35 0f38 3b60 ffbb
000002f0: 5710 0ebc 2df3 bc3d 25d8 6137 9683 5ebb
00000300: 2f89 21ba 9eaa aa3c e939 9bbb bd2c 2d3d
00000310: c8f8 773d fea4 0b3d 35e2 fcbb 1867 973a
00000320: 82d5 bfba 71ef fcbc 7a7f 9e3d cb70 273d
00000330: 132b c4bc cf3e 7bbd c4cb 64bb ac28 c0bb
00000340: 28b8 c63b ae42 7f34 0f61 4e3d 7ce3 cabb
00000350: 9bba bf3b 5575 923c 7f9a 1c3b a847 39bd
00000360: 1d38 063c 121a 613d 5fa8 5f36 f6f1 7f3b
00000370: 67d2 3e3a eabf 013e 173a 0b39 7fbc 98b8
00000380: 1662 dbbc 205b 3b3b 0920 5cbc d7d8 923d
00000390: f1ab 3abb 56f4 3038 6c76 d0b9 44df c4b9
000003a0: 401e c9ba 5de5 903c f2ae ccbb c684 853d
000003b0: a265 3ebb 106e 14ba d9c8 003c c941 263c
000003c0: 940b 423b f17f aa3d aada 09b9 3414 11bc
000003d0: 4604 05ba 88f5 8ebb 7b35 9fbb f7ce 163b
000003e0: cd46 083b 4f94 9a3a 21c2 afbb 84d1 4fbc
000003f0: cde8 873a b6e6 0d3c 1813 d536 654c 21bd
