ml_service/best_mlp_model_weighted_reverse_1.pt (torch, 872833 bytes, 19 tensors)

model.0.weight f4 [512, 74]
00000000: a62b 9fbc 092b abbc c346 32bc 3c18 35bc
00000010: 13a8 383c 2750 673d 6ca9 863d ff8e 58bc
00000020: 31fe c6bc c533 1abc c6cf dcba c6fb 0ebd
00000030: da6d d83c a86d 1ebd a334 fd3c de65 73bc
00000040: 08d7 713d 2f4e 72bc 563b 9f3c f144 003d
00000050: 2782 fcbc 71a8 e8bc fe16 7bbd be7d fd3c
00000060: 4a11 513d af35 c1bb 6c70 2f3d bcbd 8d3d
00000070: 5a1a 0d3c e1b7 cc3c 0b56 2fbd 1835 38bd
00000080: 4f1b 5b3d ea24 bb3a 9585 bfbc 19ab 7c3d
00000090: 547a 13bb c720 fc3c d48a abbc ef36 c9bb
000000a0: 90c2 b1b9 4ae5 24bc fdda b43c b402 66bd
000000b0: 4352 803d c6ce 153d 8e1b 81bc a686 743c
000000c0: 922b 15bd c2c0 d13c 9cf2 08bd cf19 4fbc
000000d0: 7ec0 2ebc f45d 72bc 35fe 243d 0e2b 81bb
000000e0: 5d56 553d 6767 3ebc 7961 a63c b7de babd
000000f0: f97f 54bc 563d ba3a 05a3 f63c df2f 0ebc
00000100: 921b ffbc 7bf6 fc3d 4eef c0be d5c1 0f3e
00000110: cd29 81bc 916a cd3e b06a cebd 6a52 213d
00000120: a431 74bb eea5 8dbb 8579 863d 0a9f 513c
00000130: 6707 6bbd dea4 5ebc 4502 4e3d deb0 483b
00000140: b7c9 f73c 9b49 b03d 7a21 573d 40f9 0abd
00000150: 95bb ff3c bc27 1e3d c57f b23d 4d94 ff3a
00000160: ce4a 53bd 67a4 e9bc 2393 76bd fa74 533a
00000170: 711a e23b 7c6f 1abc be01 f83b e927 733d
00000180: 4c0d 5a3d efb3 a13b f5a6 793c bdd6 cb3c
00000190: 8a36 c33c 002b d33d 8709 0fbc 2227 553d
000001a0: d015 033e cd1b aabc 0448 183b 25f6 763c
000001b0: 18c0 eb3c c96a 373d a24e 713c 9c2b 7c3d
000001c0: 1858 8a3d 1890 22bd 4cc3 9abb a861 8b3d
000001d0: cc00 e93c 1c69 ab3c b4a0 8d3b 1d42 473c
000001e0: e2e3 843c 3431 103d 5737 323d 85b0 133c
000001f0: a42f 06bd 3e3e a13d 968f a03d d138 1f3d
00000200: f452 ac3d 39c6 143d 32d5 a3bc 338e 8cbc
00000210: 12e1 a2bc ff43 adbc dc86 5a3b 936c d3bc
00000220: 7530 3abd 9449 66bc a381 37bc ec97 49bc
00000230: d315 dabd 04ad 9c3e c03f b4bc b10e 713e
00000240: d008 ddbe 4895 ef3c 2b18 983d fc3c c8bb
00000250: 42f9 61bd 4dae 02bd dc00 e03b b258 4b3d
00000260: 7858 213d 78e3 003d 84e8 2fbc 65b7 783d
00000270: d933 a33c 520b 5dbd 50d3 8e3d a413 813c
00000280: 0fff 1fbc c5bc 083d 787c 903d 4dc0 d33a
00000290: 053a ccbc ce64 45bd ec7b 30bd 89d6 eebc
000002a0: e9e5 a5bc b55b b5bd f123 89bd 6e0d 903a
000002b0: 384b 89bc 7883 3d3c d93b 05bd 07bf 77bd
000002c0: 00fc a23d 1554 0dbd 044f 213b a2a3 2c3d
000002d0: 8d73 153d 5674 adbd bffc b33d 37be 3f3d
000002e0: 16a4 883d c593 19bd 96f1 093d 724e 073d
000002f0: 1cf0 f7ba f5fd 8d3c 50c3 37bd 8727 1cbd
00000300: 1b6a f53b a7a3 ca3d cf95 653c a5c0 80bd
00000310: f485 403c f3bc 9c3c ca49 1fbc 6119 a2bb
00000320: ccb9 a73d 1f89 843d aa57 af3c 6611 ac3c
00000330: 8c5d d43c e68f f7bb 247a f4bc 4375 3bbd
00000340: 2667 053d c6ce 8c3d c36e 46bd 7879 f53b
00000350: 86a8 a33c 3a94 6e3d 9837 c4be 724d 08bd
00000360: 7cdc 44bc 2aa7 973e ac49 b93d 8290 05bd
00000370: f6e7 4a3d fc21 ea3c 337b e7b9 c807 1a3e
00000380: e4c6 1bbd 49e2 f4bc a85f 44bc e138 e63c
00000390: 9d0f 7abc 0aac df3c b4e3 93bc 53c6 d73c
000003a0: 211e 15bc 11c4 adbc f17b 8a3c b186 923d
000003b0: 5c3c 0bbc 02c1 5f3d 43b5 47bc 0c57 8fbb
000003c0: ce84 60bc 4ae8 913c 4a30 103c e14b df3c
000003d0: 5b8d 563d 7a39 30bc b9d7 cb3c 7fa1 2abd
000003e0: 76b5 f93b beff 81bd 9224 ea3b b0dc b2bb
000003f0: 6dcf 793b b551 13bd 056f 2e3d 639b de3c
-0.019429993 -0.020894544 -0.010881129 -0.011053141 0.011270541 0.056472924 0.065752834 -0.013217687
-0.02429113 -0.009411757 -0.0016846589 -0.03490808 0.026419569 -0.038678795 0.030908888 -0.01485583
0.05904296 -0.014789148 0.019437473 0.031315748 -0.03082378 -0.028400632 -0.061301224 0.030943748
0.05104188 -0.005896292 0.042831823 0.069209546 0.00861224 0.024990024 -0.042806666 -0.04497251
0.05349284 0.0014277969 -0.023379127 0.06168661 -0.0022503333 0.030777348 -0.020940222 -0.006140582
-0.0003390503 -0.010064432 0.022077078 -0.05615492 0.0626569 0.036574148 -0.01576021 0.014924681
-0.036418505 0.02560461 -0.033434495 -0.012640431 -0.010666011 -0.014792908 0.040281493 -0.0039419
0.052084316 -0.011621333 0.02031015 -0.09124511 -0.012969964 0.0014208953 0.03010703 -0.008678406
-0.031141076 0.123517 -0.37682575 0.14038785 -0.015767002 0.40120366 -0.10078943 0.039385237
-0.0037261033 -0.004322759 0.06566147 0.0127942655 -0.057380106 -0.013589112 0.050295133 0.0030623
0.030247552 0.08607789 0.05252216 -0.03392911 0.031217376 0.038612112 0.08715776 0.0019499153
-0.05158501 -0.028520776 -0.060198914 0.0008066442 0.0069001247 -0.009425994 0.007568567 0.059364233
0.053235337 0.00493478 0.01523756 0.024882669 0.023829717 0.10310936 -0.008730299 0.052039273
0.1280129 -0.02076521 0.0023236284 0.015073334 0.02877812 0.044779573 0.01472822 0.061565027
0.06755084 -0.0396882 -0.0047229882 0.06805736 0.028442763 0.020924143 0.004322136 0.012161759
0.016221944 0.035203174 0.043509807 0.0090142535 -0.032760277 0.078732 0.07839887 0.038872544
0.084142596 0.036321852 -0.01999912 -0.01715765 -0.019882713 -0.021150587 0.0033344543 -0.025808608
-0.04545637 -0.014055628 -0.011200341 -0.012304287 -0.10648694 0.3060075 -0.022003055 0.2354076
-0.43170786 0.029245988 0.07426485 -0.0061107855 -0.05516935 -0.031904507 0.00683604 0.049645133
0.03939101 0.03146693 -0.010736588 0.060721774 0.019922184 -0.053965874 0.069738984 0.015756436
-0.009765401 0.03338315 0.070549905 0.0016155333 -0.02493001 -0.048191838 -0.04308693 -0.029155033
-0.020251231 -0.08855382 -0.066963084 0.001099033 -0.0167595 0.011566989 -0.03252778 -0.060484912
0.079582214 -0.034504015 0.0024613747 0.04214824 0.03648715 -0.08469455 0.08788442 0.046812262
0.06671922 -0.03749444 0.03367766 0.033033796 -0.0018916163 0.01733301 -0.044864 -0.038123634
0.0074894554 0.098944955 0.014012768 -0.06286744 0.011750687 0.019133067 -0.0097221825 -0.004946873
0.08189735 0.06471466 0.021404106 0.02100439 0.025923513 -0.007554996 -0.029843397 -0.045766126
0.032569073 0.068753764 -0.048445474 0.007491287 0.01997782 0.05824683 -0.38323665 -0.033276983
-0.012015458 0.29619724 0.09047255 -0.032608517 0.04953762 0.028580658 -0.00044151544 0.15042031
-0.038031474 -0.029893057 -0.011985697 0.028103294 -0.015262512 0.027303714 -0.018052913 0.026339686
-0.009101422 -0.021211656 0.016904803 0.071545966 -0.0084982775 0.054627426 -0.012189212 -0.0043743905
-0.013703538 0.01781096 0.0088005755 0.027257862 0.0523809 -0.010755891 0.024883138 -0.04165792
0.007620509 -0.06347607 0.007145473 -0.005458437 0.003811802 -0.035966594 0.042586345 0.027173704

model.0.bias f4 [512]
00000000: 3b8f 56b5 dc5a 3738 b104 28b8 73a3 b737
00000010: 8582 0cb8 feae ccb7 5778 5bb7 6498 0d37
00000020: 221c b836 5232 7037 8fc7 9236 8770 9c37
00000030: d701 68b7 8fb8 05b7 ee5c 0737 176e be37
00000040: 123c 5f37 1e99 62b7 c42c ebb7 02a1 9f37
00000050: e603 6cb7 e05c 18b8 ac32 ef37 0f78 d637
00000060: ce2b f4b6 c2e3 9834 ed14 3b38 c7ce 5a37
00000070: 3bc7 1eb7 7d3b 6136 c054 b8b6 2437 c6b7
00000080: 517b 8237 ce63 6f38 ecb5 3c37 4468 67b6
00000090: df32 18b8 75f9 c237 b04a 1436 4687 1137
000000a0: 6303 31b7 7dde c3b6 8271 f136 d478 9db7
000000b0: 4074 c837 cf47 5238 d8ed e136 7f6e 2837
000000c0: 725b 8db7 4e0f 1e37 b3dd 5cb7 3cf0 6137
000000d0: bc1c 7c38 441e 01b7 cae4 4fb7 f570 f737
000000e0: ebb9 0b37 2884 7637 0923 e537 7980 24b8
000000f0: 04a8 0438 fad2 d5b7 c0a4 42b8 6fd7 39b8
00000100: 7953 58b8 50e5 85b7 cd85 9937 4e6a 49b6
00000110: 88e8 0e37 f39a 22b7 70b2 8937 02a9 76b4
00000120: faa8 8136 6c6e bc37 b32c ddb6 4d1a a7b7
00000130: dbcd 6f36 73fd 4437 86d4 cd34 4159 bbb5
00000140: 9dbf c936 9cf3 cdb7 e453 4238 b6f7 0138
00000150: e445 5838 d688 42b9 930c ef35 f379 ffb8
00000160: eb78 e235 91b6 4d37 ad29 0e38 4456 4937
00000170: 166e 2fb6 85cb 8237 516d 4bb5 41b7 1a36
00000180: bf7e fcb5 0300 0737 c0dd 1937 bf3f ee35
00000190: c320 2a33 9953 07b8 b7e3 a038 3b7c 48b7
000001a0: 0674 65b7 c80e e3b8 fedc bfb5 ef2a e136
000001b0: 3966 40b6 fd6b f337 fceb abb8 1d3e 87b7
000001c0: 66b1 47b8 4c67 f236 e11e 84b4 b003 2537
000001d0: dfb8 82b7 4bc6 4437 c390 0236 2e1f 9937
000001e0: 765e a9b7 be9e 4cb8 67c2 92b7 13b8 0537
000001f0: af10 1ab8 277f 8eb6 034e adb7 a215 2738
00000200: ed4e a9b4 164e ccb7 1b1f a536 caff 78b6
00000210: 169b 28b8 a4b4 08b8 a1cc e537 ad73 1ab5
00000220: f473 3037 24b7 e9b7 ac26 a0b8 e3dc 89b7
00000230: 7aaa 88b6 092a 1db7 5f0f 0db8 94cb 35b8
00000240: ee33 03b8 8eff 9337 d597 5237 0518 9b38
00000250: 7418 0138 18c5 8537 ff18 f034 af1f 8f38
00000260: 1d54 56b8 193f 03b7 6893 3fb8 cb30 2537
00000270: 3df6 8338 7a32 40b8 a230 b037 c3cb 37b7
00000280: 73cc 1c38 230f d138 4595 b437 1c4a 0538
00000290: 52ff 3a37 062d cfb7 0140 c136 f560 89b6
000002a0: ba82 2cb7 222f 1c36 e5bf 1eb8 d02f 9837
000002b0: d3c9 ea37 38fc 6d36 5579 7636 64b2 ba37
000002c0: 0548 a437 b7c1 bfb6 478d 6d37 cdce 4538
000002d0: 8533 89b7 8a19 1037 54dc 66b8 c527 60b6
000002e0: 26a8 bf37 ff4c 4bb8 7c84 0038 7db7 b137
000002f0: e23c f3b5 1069 1337 26f6 b137 c7ea 5cb8
00000300: bce4 6eb7 9e03 8e37 b7d2 5e36 816d ceb8
00000310: 7d67 8738 fd1b efb6 167d 09b8 4a5b df37
00000320: 4e2a a037 ba2b ca37 ef83 75b7 491a 1bb6
00000330: 5374 dfb7 9de5 0f38 a196 9cb7 84c7 56b8
00000340: 4725 5537 f0ae c437 c954 0c37 98ff 0eb8
00000350: 2875 6238 4beb b037 f06f 8737 5349 d238
00000360: 57c2 adb7 cb4f 4537 5913 84b7 20bf e737
00000370: d3bd aab7 aece 6636 f155 efb7 49b4 71b8
00000380: 65c8 9737 e6f9 11b8 1f68 9936 225e 3437
00000390: 1940 bfb5 2255 a6b7 02de 5a36 c9f7 3137
000003a0: 3964 5837 d0f3 cb36 a58a 19b8 eb85 aeb7
000003b0: 3bb4 c9b4 3e5e 79b7 3a4e 22b7 e95a 0437
000003c0: a29b 5d37 82d4 13b7 fb67 b337 6beb 1539
000003d0: 160f 4c37 b7c1 0fb8 79d1 c2b7 16f1 b437
000003e0: 7a01 8837 d5af 09b5 6381 6db8 d530 0db5
000003f0: 624f bb36 728e 9d37 23cf c635 5d2e 41b8
-7.992964e-07 4.371522e-05 -4.005869e-05 2.1891412e-05 -3.3500157e-05 -2.4400182e-05 -1.3081436e-05 8.439736e-06
5.4869024e-06 1.4316831e-05 4.3743707e-06 1.8649049e-05 -1.3828706e-05 -7.970389e-06 8.068264e-06 2.270103e-05
1.3305822e-05 -1.35063e-05 -2.8035029e-05 1.9029252e-05 -1.4067604e-05 -3.632612e-05 2.8514616e-05 2.5566695e-05
-7.276866e-06 2.8477922e-07 4.4603763e-05 1.3041957e-05 -9.463921e-06 3.356224e-06 -5.4934935e-06 -2.3629116e-05
1.5554631e-05 5.707499e-05 1.124803e-05 -3.4482373e-06 -3.6287e-05 2.3242765e-05 2.2097192e-06 8.674169e-06
-1.0550811e-05 -5.837354e-06 7.1955737e-06 -1.8772123e-05 2.3895991e-05 5.013478e-05 6.733211e-06 1.0039307e-05
-1.6851092e-05 9.421097e-06 -1.316464e-05 1.3466979e-05 6.0108243e-05 -7.696046e-06 -1.2391431e-05 2.9497294e-05
8.328333e-06 1.4693513e-05 2.7315242e-05 -3.9220296e-05 3.162773e-05 -2.5489822e-05 -4.640664e-05 -4.4308075e-05
-5.1576153e-05 -1.5961617e-05 1.8301327e-05 -3.0013211e-06 8.518e-06 -9.692029e-06 1.6414764e-05 -2.297202e-07
3.864171e-06 2.2462766e-05 -6.591517e-06 -1.9920199e-05 3.57336e-06 1.1741521e-05 3.8338857e-07 -1.3958562e-06
6.0125735e-06 -2.4551344e-05 4.6331334e-05 3.0986695e-05 5.1563504e-05 -0.00018552257 1.7810547e-06 -0.00012182062
1.6873504e-06 1.2261459e-05 3.3894252e-05 1.2000619e-05 -2.614111e-06 1.5591979e-05 -7.578247e-07 2.3054456e-06
-1.8812351e-06 8.04663e-06 9.171141e-06 1.7750934e-06 3.9611006e-08 -3.2264365e-05 7.67181e-05 -1.1949854e-05
-1.36764775e-05 -0.00010826957 -1.4294926e-06 6.7105207e-06 -2.866973e-06 2.9018143e-05 -8.197871e-05 -1.6122178e-05
-4.7610512e-05 7.2241874e-06 -2.4609383e-07 9.835625e-06 -1.5583295e-05 1.1728679e-05 1.9455772e-06 1.825354e-05
-2.0190357e-05 -4.878523e-05 -1.7495082e-05 7.970276e-06 -3.6732e-05 -4.2467323e-06 -2.0659534e-05 3.983605e-05
-3.153613e-07 -2.4355057e-05 4.9210043e-06 -3.7103769e-06 -4.0198756e-05 -3.259316e-05 2.7394215e-05 -5.75378e-07
1.0517415e-05 -2.7861046e-05 -7.636598e-05 -1.6434531e-05 -4.072962e-06 -9.367716e-06 -3.3631335e-05 -4.334336e-05
-3.1281197e-05 1.7642767e-05 1.2552327e-05 7.39545e-05 3.077877e-05 1.5946614e-05 4.472167e-07 6.824673e-05
-5.1099913e-05 -7.8228995e-06 -4.567523e-05 9.846127e-06 6.292432e-05 -4.5823377e-05 2.1003481e-05 -1.0955092e-05
3.7383707e-05 9.968716e-05 2.1527181e-05 3.177869e-05 1.114591e-05 -2.4697289e-05 5.7592993e-06 -4.0942055e-06
-1.0282436e-05 2.3273246e-06 -3.784885e-05 1.8142076e-05 2.7988955e-05 3.5462563e-06 3.672748e-06 2.2255997e-05
1.958386e-05 -5.714795e-06 1.41591945e-05 4.716106e-05 -1.6355663e-05 8.589015e-06 -5.504147e-05 -3.340175e-06
2.2847275e-05 -4.847068e-05 3.0640964e-05 2.1185488e-05 -1.812263e-06 8.786345e-06 2.1214666e-05 -5.267074e-05
-1.4239162e-05 1.6929404e-05 3.320323e-06 -9.843242e-05 6.456578e-05 -7.1260133e-06 -3.277984e-05 2.6626181e-05
1.9093186e-05 2.4100638e-05 -1.4633856e-05 -2.31121e-06 -2.663784e-05 3.43077e-05 -1.8666791e-05 -5.120739e-05
1.2704469e-05 2.3446482e-05 8.364391e-06 -3.409348e-05 5.399171e-05 2.1090402e-05 1.6145379e-05 0.00010027238
-2.0713704e-05 1.1760693e-05 -1.5744636e-05 2.7626345e-05 -2.0353973e-05 3.4392974e-06 -2.853104e-05 -5.762678e-05
1.8093919e-05 -3.480343e-05 4.5718766e-06 1.0750753e-05 -1.4249264e-06 -1.9828385e-05 3.2613757e-06 1.0607714e-05
1.2897938e-05 6.078255e-06 -3.6607165e-05 -2.0804777e-05 -3.7570302e-07 -1.4863499e-05 -9.674166e-06 7.88898e-06
1.3208863e-05 -8.811361e-06 2.1386883e-05 0.00014297447 1.216286e-05 -3.4274268e-05 -2.3224145e-05 2.1569937e-05
1.6213151e-05 -5.1292346e-07 -5.6625704e-05 -5.2597653e-07 5.5822757e-06 1.878219e-05 1.4812434e-06 -4.6057965e-05

model.1.weight f4 [512]
00000000: 070f 1c3f 19b2 643f f53d 2e3f 4130 2d3f
00000010: 8694 0b3f d3d1 6f3f 1315 853f 0845 593f
00000020: 8b59 8f3f 10fd 253f e3df 4b3f 3b55 5a3f
00000030: d649 0c3f 2a07 073f 115c 3d3f 8fe1 0e3f
00000040: 6847 403f 6beb 443f 26d9 773f 8434 743f
00000050: b242 d23e adb2 383f 65e5 4c3f 983c 4f3f
00000060: 0466 123f 6d7f d2bb 96ca ef3e 2e5d 2f3f
00000070: e084 143f 01cc 2c3f d0fb 4b3e 42bb 373f
00000080: f3e3 493f 3200 843f 939c 423f 8066 813f
00000090: cd8d 403f 0316 223f bb6c ee3e 66eb 2e3f
000000a0: 802f 9a3f 1b4e 723f 3d68 e33e b1f1 fc3e
000000b0: 574b 7b3f 13c1 563f 30bd 9e3e 4f3f 2a3f
000000c0: 44ec 053f cbff 543f 9a01 9b3f 861d 2d3f
000000d0: 1a67 4f3f 8c78 613f df3d 243f 687f f73e
000000e0: dd76 8f3f 2a8e 5a3f 5224 513f 4fdd 433f
000000f0: ed36 4a3f 8c6b 3c3f 2d02 343f e20a 673f
00000100: e600 453f 696a 233f 5894 8e3f 3ba9 a23e
00000110: 123d 6d3f c5af 643f 5097 343f 422f 103f
00000120: 80c6 443f 84f6 463f b424 743f 22aa 243f
00000130: a29f 573f 1f29 9a3f 5b40 933e 3aa9 a93e
00000140: 21c1 8a3f 4996 d63e 6f7b 333f 7539 a13f
00000150: d760 173f aeb1 893f c9b0 6c3f dfe6 963f
00000160: 0441 4b3f 2200 4d3f f950 7d3f 6543 513f
00000170: 9609 873f 4044 f53e 87a4 353f 6afc 473f
00000180: 8974 543f 98c5 3c3f 9b81 293f b8de 633f
00000190: 64ac 663c 29e9 303f 2c3f 8d3f a5b1 0d3f
000001a0: 5205 1f3f 1b1a 933f f6c6 0a3f 6a03 053f
000001b0: 0d54 583f daf9 6c3f 573b 823f cfce 093f
000001c0: 98bb 593f f4b4 453f afb2 403f 747f 643f
000001d0: f8a8 313f e665 7b3f 8724 8b3e f9f4 273f
000001e0: d55a 853f 9fd7 f73e daf7 603f 43ff 293f
000001f0: 5c16 883f 94ab 3e3f f466 273f c7c7 803f
00000200: 7bb3 0b3d e70e 213f 1653 ca3e 4b30 6f3f
00000210: d649 ea3e 3b3a 923f 619d 4f3f a1bb 0a3f
00000220: 7f3b 0e3f 56c0 073f 2ea8 643f 72ee 983f
00000230: be4d 863f 442b 3a3f eff6 f53e 33b4 7d3f
00000240: 3745 873f 18f1 293f 9a22 2b3f 6d6f 863f
00000250: 76a3 753f 2ca9 483f 203e 4a3f 1d8d 723f
00000260: 13d2 993f 7de6 863f 9ef6 723f 90d1 3c3f
00000270: 3a48 333f c7f3 573f d496 6e3f 6385 023f
00000280: 9671 483f 00df 4e3f 9cc1 4f3f cbbc 3c3f
00000290: 35bd 523f 65f0 313f ffff 243f e69f 1e3f
000002a0: 1861 773f b631 423f ed3d 9c3f 4add 793f
000002b0: 3898 803f 3497 393f 28bf e93e 73b9 1a3f
000002c0: 6ee7 633f 8f64 693f 5847 8c3f 32a6 ff3e
000002d0: 3d58 453f 4b51 d93e c2d3 6d3f 2d99 633f
000002e0: cd6e 893f 5a27 613f 1c9b 013f e030 473f
000002f0: 322b 5f3f 448c 4b3f ec41 373f f59f 893f
00000300: a6af 243f 1b63 8c3f 7a2f 7c3e a229 3d3f
00000310: 19b5 473f 237d 423f 90bf 963f 7f4d 8f3f
00000320: 4ae7 fc3e e03d 493f b97d 863f fad0 0f3f
00000330: 526d 913f cb75 b53e 3ee8 7b3f 8c14 603f
00000340: a739 5e3f b472 973f 8bb0 393f 7349 123f
00000350: 1777 4e3f d63c 373f b773 3d3f 7f28 1b3f
00000360: ad4c 173f ab83 f13e 25d2 1d3f 3562 533f
00000370: 7201 1a3f 6ce3 333f 0496 413f d738 8e3f
00000380: f623 5f3f 0e60 4f3f 0bc7 7d3f 92d3 163f
00000390: cecc 313f 4098 533f c827 7a3f 7372 843f
000003a0: 254b 633f b3ce 893f 26b0 553f ebb1 303f
000003b0: d90e 583e 16a6 533f 99bf 273f 8064 6b3f
000003c0: 6b6f 1e3f b44a 453f b6d6 5f3f 83e4 6c3f
000003d0: 6c31 763f 1ddc 443f 1c30 443f e426 813f
000003e0: 7be2 193f 569e 7b3f 2ad8 173f 5b80 733f
000003f0: f251 433f c625 923f 6940 493f 4f57 6b3f
0.6096043 0.89334255 0.6806329 0.67651755 0.54523504 0.9367954 1.0397056 0.8487096
1.1199201 0.6483927 0.796385 0.852863 0.54800165 0.52745306 0.7396861 0.55812925
0.7510896 0.7692172 0.9681572 0.9539263 0.4106651 0.7214764 0.8003753 0.80951834
0.57186913 -0.0064238817 0.46834248 0.68501556 0.5801525 0.67498785 0.19920278 0.7177011
0.7886345 1.031256 0.76020163 1.0109406 0.7521637 0.6331484 0.4656733 0.6832794
1.2045746 0.9465043 0.44415465 0.49403146 0.98161834 0.8388836 0.31003714 0.6650285
0.5231364 0.8320281 1.2109864 0.67623174 0.81016695 0.88074565 0.6415691 0.4833939
1.1208149 0.85373175 0.81696045 0.76509565 0.7899006 0.73601604 0.7031582 0.9025098
0.76954496 0.63834244 1.1139021 0.31769738 0.9267131 0.89330703 0.70543385 0.5632211
0.76865387 0.77719903 0.95368505 0.643221 0.84227955 1.2043799 0.28760037 0.33136922
1.0840188 0.41911533 0.7011022 1.259566 0.5913214 1.0757349 0.9245725 1.1789206
0.7939608 0.8007833 0.9895168 0.8174346 1.05498 0.47903633 0.70954174 0.7811953
0.8299032 0.73739004 0.6621339 0.89011717 0.014079187 0.69105774 1.1034904 0.5534919
0.62117493 1.1492342 0.5420984 0.51958334 0.8450325 0.92568743 1.0174359 0.5383119
0.8505187 0.7722924 0.7527265 0.8925698 0.6939845 0.9820236 0.27176306 0.65608174
1.0418345 0.48406693 0.8787819 0.66405123 1.0631824 0.7448056 0.6539147 1.0060967
0.034106713 0.62913364 0.39516515 0.93433064 0.45759457 1.142402 0.81099516 0.5419255
0.55559534 0.53027856 0.8931912 1.1947768 1.0492475 0.7272227 0.48039958 0.9910309
1.0567998 0.66383505 0.6684967 1.0502754 0.95952547 0.78383136 0.79001045 0.9474657
1.2017235 1.053909 0.9490756 0.73757267 0.70032084 0.8435635 0.93198895 0.5098478
0.7829832 0.8080902 0.811548 0.73725575 0.82319957 0.6950744 0.6445312 0.61962736
0.9663253 0.758571 1.2206398 0.97603285 1.0046453 0.7249634 0.45653653 0.60439223
0.8902501 0.91169065 1.0959272 0.49931484 0.77087766 0.42444834 0.9290124 0.889056
1.0736939 0.8795067 0.50627303 0.7780895 0.87175286 0.79510903 0.71584964 1.075194
0.6433052 1.0967745 0.24627486 0.7389165 0.7801071 0.75972193 1.177721 1.1195525
0.4939521 0.7861004 1.0507118 0.5617825 1.1361487 0.3544143 0.9840125 0.8753135
0.8680672 1.183188 0.7253501 0.57143325 0.80650467 0.71577203 0.7400469 0.6060867
0.5910137 0.47170767 0.6164878 0.8257173 0.60158455 0.70268893 0.7561953 1.1111096
0.8716425 0.8100594 0.9913184 0.5891658 0.6945313 0.8265419 0.9771695 1.0347427
0.88786536 1.0766205 0.83471906 0.6902148 0.21099414 0.826753 0.6552673 0.91950226
0.6188876 0.7706711 0.87437 0.9253618 0.9616916 0.76898366 0.7663591 1.0089993
0.60111207 0.98288476 0.59314215 0.9511773 0.76296914 1.1417778 0.7861391 0.919301

model.1.bias f4 [512]
00000000: 4574 a3be c6c5 2a3e 78a6 11bf 5f06 ecbe
00000010: 8641 a3be 5867 0fbf 4d86 22bf f75a c9be
00000020: 8d67 33bf 1c27 03bf 8dab 95be 27b9 c6bb
00000030: 99fe a73d 2ae9 64be 5517 15bf f993 23be
00000040: f29c 06bf 9d0d 19bf d3f0 0abf 406a 27bf
00000050: b760 25be e475 a6be 5f2c a5be 5e77 2bbf
00000060: de89 e1bc e7b6 30bd 8340 893c 05f9 05bf
00000070: 3bc0 b5be a513 bcbe 4d75 67bd 791b 85be
00000080: e1fc ddbe 50e3 f9be a859 02bf 2544 1dbf
00000090: d631 0ebf fad8 08bf beaa 76be 756a 6cbe
000000a0: d484 11bf 094b 3dbe dc7a 4cbd 92ea 6cbe
000000b0: 13c2 23bf 3e09 4fbe e52e cbbd cc48 ddbe
000000c0: 3bd8 99bd 157d e8be 0aac 49bf ff84 00bf
000000d0: fd33 04bf 1acb a4be 5dce 9dbd fc3b a93d
000000e0: 7943 38bf 9075 efbe 4507 06bf d381 0ebe
000000f0: 78bb d6be 25ac 0fbf c008 6dbe 1803 8b3d
00000100: e6c6 0ebe 2f9c f3be 25d5 34bf e7a6 09be
00000110: d933 06bf 1140 0ebf 6ae8 9dbe 3425 d9bd
00000120: c2b9 81be 1ee9 1dbf 19a6 c3be 78d6 bdbd
00000130: 1685 2fbf 9dff 09bf 40ed 8dbd 8f21 15be
00000140: 6bd9 1abf 227d a7bb 3f12 0bbf 03f1 23bf
00000150: 4cd6 073d 68e3 cbbd 9c13 febe 4318 3ebf
00000160: 750c 14bf 9658 d1be 98af ebbe 0f65 07bf
00000170: 8904 dcbe bc16 ebbb 9cda c9be f93c 03bf
00000180: 7563 20bf 7f3e c0be 5a5e 27be 6ccb f1be
00000190: 6516 debc 1420 06bf 9d23 2fbf e126 44be
000001a0: cc61 b8be a46b 6bbd 1bd2 9cbe 96c4 9bbe
000001b0: 40b9 dabe 775e d7be 234e e8be 9a2b 873c
000001c0: 2424 14bf c6dd b4be f9fd 07bf 778f 7abe
000001d0: e471 d7be 7aef 1dbf 7acb 40be 97e2 6cbe
000001e0: a4f8 34bf e09f f1bd 05ff e5be e86b 16bf
000001f0: 21a1 0cbf 6d1b debe 689c cdbd 2ed5 08bf
00000200: f3f7 76bd bcda dcbe a4e6 7ebe d7b4 39bf
00000210: e9a0 9ebd 571b 40bf ba6d aebe 0168 53be
00000220: 9d21 dfbc a060 c4bc 8e08 71be f192 48bf
00000230: abf2 27bf 796b 0cbf 6b02 2ebe 0af3 b8be
00000240: 8b98 36bf 7fd2 83bc 083d 16be 0008 46bf
00000250: 7f00 20bf a951 94be 0a6b adbe 8f1d 0cbf
00000260: 8195 43bf a53c 23bf a03e bbbd 1d4b 0cbf
00000270: 25a6 0ebf a4a5 0ebf 26da f3be c61b 80be
00000280: c5dc 31bf 97f6 c4bd 3f08 aabe ee34 22bf
00000290: c936 eebe c8bd 03bf 5231 f5be 5b47 00bf
000002a0: 4644 04bf 1484 d0be 615e e9be 54f0 16bf
000002b0: bcc6 b4be 9cad e6be ffff 1abe e14c db39
000002c0: b67b 88be d08c 22bf 27a6 11bf 86c2 923c
000002d0: e11a d2be 8a76 adbe 34e3 22bf eaa8 07bf
000002e0: 1c3a 193d 3cfc 81bc 0d7e 4fbe c526 0dbf
000002f0: c113 b7be e216 17bf abaa 05be 8f26 cdbe
00000300: f273 b7be 2ead 30bd b799 41be 0625 91bc
00000310: 2832 47be 3d1b 04bf e3e2 36bf 5641 26bf
00000320: faf6 06bd 7b7f b2be 0c6c 17bf b611 90be
00000330: 6959 4abf cee4 a4bd ca90 1dbf f8d0 d3be
00000340: 65cd 42be 6a2f 3bbf ecf7 dbbe 1100 dcbe
00000350: 5f47 8ebe 0f30 d5be 58d0 1bbf 5c9d 90bd
00000360: 306d b0be 9118 e4bd eda4 abbe 71cf 09bf
00000370: 1cdf f3be 6cf3 cfbe 3751 78be 8b03 28bf
00000380: 590f 33bf 5eed 0ebf a621 05bf c5fe c8be
00000390: 461f bdbe a7f4 11bf d4bf 16bf 557b 17bf
000003a0: f4fa b3be eff1 eebe 880d 67be 1811 a3be
000003b0: 6f81 32be 054c 91be ddd2 83be ee17 fabe
000003c0: bf84 81be daf4 4fbe 39a2 09bf 6395 01ba
000003d0: 72c9 38bf ae10 78be 356c f5be 0c5f 07bf
000003e0: 1d46 98be feac 14bf 9de4 453c 079b d9be
000003f0: b139 43be 2666 27bf 29ab fabe 7cbf 093d
-0.31924644 0.16677007 -0.56894636 -0.4609861 -0.31885928 -0.56017065 -0.63486177 -0.39327213
-0.7007988 -0.5123155 -0.29232445 -0.0060645523 0.082028575 -0.2235457 -0.58238727 -0.15974416
-0.5258323 -0.597864 -0.5427372 -0.653965 -0.16150175 -0.32511818 -0.32260415 -0.66979015
-0.02753156 -0.04314318 0.016754394 -0.523331 -0.35498223 -0.36733738 -0.05650835 -0.25997522
-0.43356994 -0.48806238 -0.50918055 -0.61432105 -0.55544794 -0.5345608 -0.2408857 -0.23087485
-0.56843305 -0.18485655 -0.049921855 -0.23136356 -0.6396801 -0.2021837 -0.09921054 -0.43219602
-0.07511946 -0.4540793 -0.78778136 -0.50202936 -0.5164183 -0.32186204 -0.07705376 0.08263394
-0.71977955 -0.4676938 -0.5235484 -0.13916712 -0.41939902 -0.56122047 -0.23147869 0.067876995
-0.13943061 -0.47580096 -0.7063773 -0.13442574 -0.52422863 -0.5556651 -0.3084138 -0.10602799
-0.25337034 -0.61683834 -0.3821266 -0.09269422 -0.6856245 -0.5390566 -0.069300175 -0.14563583
-0.60488003 -0.0051113525 -0.54324716 -0.6403963 0.033163354 -0.09955484 -0.49624336 -0.7425577
-0.5783151 -0.40887898 -0.46032405 -0.5288858 -0.4297221 -0.007174341 -0.39424598 -0.5126491
-0.6265176 -0.3754768 -0.16344586 -0.4722551 -0.027110288 -0.523927 -0.68413717 -0.19155456
-0.36012113 -0.0574757 -0.30629048 -0.3042342 -0.4271946 -0.42064258 -0.45372114 0.016500283
-0.57867646 -0.3532545 -0.53121907 -0.2446879 -0.4207908 -0.6169354 -0.1882762 -0.23133312
-0.70691895 -0.11798072 -0.44921127 -0.587584 -0.54933363 -0.433803 -0.10039598 -0.53450286
-0.060295057 -0.4313563 -0.2489267 -0.72541565 -0.07745535 -0.7504172 -0.3406809 -0.20645143
-0.027237708 -0.023971856 -0.2353842 -0.78349215 -0.65604657 -0.5485149 -0.1699311 -0.36122924
-0.7132651 -0.016091583 -0.14671719 -0.7735596 -0.62500757 -0.28968552 -0.33870727 -0.547326
-0.764 -0.6376441 -0.09142804 -0.54802114 -0.55722266 -0.557215 -0.47627372 -0.2502119
-0.6947749 -0.09617346 -0.33209416 -0.63362014 -0.46526173 -0.5146146 -0.4788919 -0.5010888
-0.51666677 -0.40725768 -0.45579818 -0.5896046 -0.35307872 -0.45054328 -0.15136717 0.00041828214
-0.26656884 -0.6349611 -0.56894153 0.017915022 -0.41036132 -0.338795 -0.63627934 -0.5299212
0.037408933 -0.015867345 -0.20262928 -0.5513728 -0.3575726 -0.5901929 -0.13053386 -0.4006848
-0.35830647 -0.043133907 -0.18906294 -0.01771785 -0.19452727 -0.5160406 -0.7143995 -0.64943445
-0.03295038 -0.34862885 -0.5914924 -0.28138512 -0.7904268 -0.080514535 -0.61549056 -0.41370368
-0.19023664 -0.73119223 -0.42962587 -0.429688 -0.27788827 -0.41638228 -0.6086478 -0.07061264
-0.34458303 -0.11137498 -0.33524266 -0.53832155 -0.47631156 -0.40615404 -0.24249731 -0.65630406
-0.69945294 -0.55830944 -0.5200447 -0.39256874 -0.36937922 -0.57013935 -0.58886456 -0.59172565
-0.351524 -0.46668956 -0.22563756 -0.3184898 -0.17432187 -0.2837831 -0.25746813 -0.48846382
-0.2529659 -0.20308247 -0.5376316 -0.000494322 -0.7218238 -0.24225113 -0.47934118 -0.52879405
-0.29740992 -0.58076465 0.012078431 -0.4250109 -0.19064976 -0.6539024 -0.4895871 0.03362988

model.1.running_mean f4 [512]
00000000: 4c0a 80bd cf8a aaba a0ab e8bc 3680 593d
00000010: 87d6 5cbc 26b0 613d 7690 6abc a859 203c
00000020: c443 7ebc 0991 343d 1c19 98ba bc85 47bc
00000030: cf14 213d e047 a43a c190 28bd 3243 e23c
00000040: 6d08 83ba ab10 613d 23af 5dbd d4e7 03bb
00000050: 0766 bb3a cb50 413d a65d 693b 8630 e3bc
00000060: 3977 79bc 0abe c13a f93c e93d 863f 093c
00000070: 03c8 3abc 317e 99bc 8cc8 48bb dcfc d8bc
00000080: b1f5 3b3d 4f8a 26bd d36b 613c 0fd7 87bc
00000090: e45c a43c 9b1f ecbc 163a 3b3d f847 f03c
000000a0: 522d d5bc cb04 873d 90ec ca3c f998 d6ba
000000b0: d26a a33c 088e e8bc 7c77 c3bc b916 46bc
000000c0: 18b0 c43c 72b0 b13a 3f15 11bc 6c41 1d3d
000000d0: 6daf 203d 437c 313d 6576 bf3c 80da 8c3b
000000e0: 1f78 353d a7bc e5bc 1142 703d 5927 133d
000000f0: 5430 9d3c fff2 8c3d 6cf4 243d 0397 41bb
00000100: d818 b53c ce6c 363d 2bb1 aa3b 2e24 243d
00000110: 142a 133d 8298 5c3c 6645 fc3c 516c d63b
00000120: 3f79 1c3b 2898 04bd e312 223c 6dcc 823b
00000130: 02ae d03c 56c3 b63c 02bc 3ebc 92cd 783b
00000140: a30f 203b b3a9 42bb cc51 9d3d d02d 5fbd
00000150: fdc9 de3c 1e87 823d 54ff 973d ce43 173d
00000160: fd6c 293b 015c 0f3d eacb 4a3c 2f09 9b3d
00000170: 3bd9 123d 4ea9 423d bd96 92bc d63f 8d39
00000180: 09c8 7b3d 4c34 81bc 7f23 2dbc ef5f 39bd
00000190: c40f 6cbb c8bf d73c 053d 37bc a4cc 493c
000001a0: 523e 173d 1a54 ed3c 3093 003c bd0a 583c
000001b0: 9aec 6f3d aba8 11bb 0d0a cd3c fcbb 433d
000001c0: 03f7 0d3d fd60 623d 450c 493d 3719 f53c
000001d0: b5fc af3c bb40 e23c 3501 b03c 0962 3cbc
000001e0: 7e7b 35bc 98ba 01bb b737 da3c 9ace a63c
000001f0: c236 8abb db07 033d aae5 313d 11bd 2d3d
00000200: 8d2a 223c 7f19 513d 970c e7bb 713d e2bc
00000210: 028c 0bb9 039a 13bd 2ca0 523b 1434 d63b
00000220: 07ee 3f3d 282d 433d 606a 19bb f744 423c
00000230: 5f2f 21bd 19ac 673c f8a8 24bb d5c3 f73c
00000240: fa79 c0bc 0d60 be3d b828 09bc 920b 91ba
00000250: f625 593c cc29 6c3d a7ed 323d b331 523b
00000260: 811d 523c 7218 40bc 5824 813d 3a71 313d
00000270: 837e 12bc cdea afbc 2849 063c 30c7 ae3d
00000280: f3f6 723d bbb2 553d e86d b0bb 920e 8d3d
00000290: 1e00 24bd 8ebd 95bb 32fc 3f3c 2b2c ce3c
000002a0: 276a 03bd e813 4e3d 7a57 9a3c 5877 853c
000002b0: 4518 a03c 8f33 23bc a098 3dbc 0908 5c3c
000002c0: 4375 d2bc dd2d d23c b71c a0bc 1da0 8ebc
000002d0: a8c1 633a 67e8 713d e0e7 50bd 84b4 023d
000002e0: 088a fb3c c868 aeba 0761 313c 7afc 8c3c
000002f0: f434 c73a a556 533c 5bf7 883b 47ae 10bd
00000300: 0468 9fba a3ba 413b 5802 c4bc e535 153d
00000310: f525 043c 3d1f 073d 6d80 b63a 749d 933b
00000320: e068 2c3d c978 cf3b 4291 ae3c 0834 b53d
00000330: f22d 793d 9b47 22bc 56c7 0b3c 8cb6 2abd
00000340: 065a 5d3c fefa d33c 1642 a53b f7a1 b03c
00000350: 11eb 7fbc 05ce 05ba 1b4f 80bc 5694 c63c
00000360: 3a1c cb3c 65ee 1ebd 8673 5f3c d553 7bbc
00000370: 1357 953c 25dc 953a 80eb ec3c 18a1 2abc
00000380: f6a0 293d f32b 97ba 9fc3 bebc 767f f1bc
00000390: 622f ecbb 9e2a d2bc 5cb9 42bd 6b76 6ebc
000003a0: 603d 453d 1d97 09bb 6ecb ffba 829d 823b
000003b0: c36e 0d3b 75c9 c23c 3570 8fbd 074f 96bb
000003c0: e36f d03c a2b0 ce3c f59a 1dbc b2e4 f63c
000003d0: 3dc8 f63b 95fe ffbc 9bfd f9bc edde d13b
000003e0: 1380 503d 80ef 063d 2c62 863d e6fc ef3c
000003f0: 8d92 c73c e4fa 80bc 4508 c6bc 5ac4 09bd
-0.06251964 -0.0013011339 -0.02840215 0.053100787 -0.013478882 0.05509963 -0.014316669 0.009787001
-0.015519086 0.04408363 -0.0011604163 -0.012177881 0.039326485 0.0012533627 -0.041153673 0.027619932
-0.0009997018 0.054947536 -0.0541221 -0.0020127194 0.0014297374 0.04719619 0.0035608797 -0.027733099
-0.015226179 0.0014781367 0.11388583 0.008376962 -0.011400226 -0.01873693 -0.0030637113 -0.02648776
0.045888606 -0.040659245 0.013758617 -0.01658204 0.020063825 -0.028823664 0.045709692 0.029331192
-0.026022587 0.06592711 0.024771005 -0.0016372494 0.019948397 -0.028388038 -0.023860686 -0.012090378
0.02400975 0.0013556613 -0.008855163 0.03839247 0.0392298 0.043331396 0.023371885 0.004298508
0.04430401 -0.028044058 0.058656756 0.035926197 0.019188084 0.06882285 0.04027216 -0.0029539473
0.022106573 0.044537358 0.0052091083 0.040073566 0.0359288 0.013464095 0.03079481 0.006543674
0.002387598 -0.03237167 0.009892198 0.0039916546 0.025473598 0.02230994 -0.011641504 0.0037964326
0.0024423383 -0.00297032 0.07681617 -0.05448705 0.027195925 0.06373428 0.07421747 0.036929898
0.0025852316 0.03499985 0.012377718 0.07570111 0.0358517 0.047524743 -0.017894143 0.00026941177
0.061470065 -0.015772007 -0.010567545 -0.045257505 -0.003602014 0.026336566 -0.011183982 0.0123168565
0.036924668 0.028970767 0.007847592 0.013186154 0.05857525 -0.0022225778 0.025029207 0.047786698
0.034659397 0.055268276 0.049083967 0.02991925 0.021482805 0.027618757 0.02148495 -0.011497983
-0.011076806 -0.0019795056 0.026637895 0.020362187 -0.0042179534 0.031989913 0.043431915 0.042416636
0.00989784 0.051049706 -0.0070510614 -0.027617188 -0.0001330823 -0.03603555 0.0032138927 0.00653697
0.04685786 0.047650486 -0.0023409352 0.011857263 -0.039351817 0.014140152 -0.0025125127 0.030244747
-0.023495663 0.09295664 -0.0083715245 -0.001106607 0.0132536795 0.057657048 0.043683674 0.003207308
0.012824417 -0.011724578 0.0630576 0.043320872 -0.008941296 -0.021474266 0.008196153 0.08534086
0.05931754 0.052172404 -0.0053841956 0.06887545 -0.040039174 -0.004569716 0.011717843 0.025167545
-0.032083657 0.050311953 0.01884054 0.01629226 0.019542823 -0.009961023 -0.011572033 0.01342965
-0.02569068 0.025656635 -0.019544942 -0.017410332 0.000868822 0.059059527 -0.051002383 0.031910434
0.030705467 -0.0013306374 0.010826356 0.017210234 0.0015198276 0.012899076 0.0041798777 -0.035322454
-0.0012161736 0.0029560707 -0.023926899 0.03642835 0.00806569 0.032988776 0.0013923772 0.004504854
0.042092204 0.0063315374 0.021309499 0.08847815 0.060834832 -0.009904767 0.008531412 -0.041677997
0.013510233 0.025876518 0.0050432784 0.021561606 -0.015620009 -0.00051042467 -0.01566272 0.024240654
0.024793733 -0.03880157 0.013638383 -0.015339811 0.018229997 0.0011433406 0.028920889 -0.010414384
0.04141327 -0.0011533484 -0.023286639 -0.029479723 -0.007207797 -0.025655087 -0.047540054 -0.0145546
0.048154235 -0.0020994612 -0.0019515583 0.0039860616 0.0021580912 0.023777703 -0.07003824 -0.0045870575
0.025443977 0.02523071 -0.009619464 0.030138347 0.0075311945 -0.031249324 -0.030516436 0.0064047487
0.05090339 0.03294325 0.065616935 0.029295396 0.024361873 -0.015744634 -0.024173865 -0.03363452

model.1.running_var f4 [512]
00000000: 5882 c03d 164b 013d fff4 c13d 5e7b d33d
00000010: 2a50 b63d 5b33 853e 1569 9e3e 1e3c 6a3e
00000020: 7c0f a53e 13f0 953e bb12 603e 9dec f73c
00000030: e9b3 e03d a995 213e 076b ba3d 56e6 663e
00000040: 454b b53d f11f 363e ccdf 9f3e 1c59 ca3e
00000050: 5ffd 093e 5c49 a63e cae9 113e 4d6f b93d
00000060: 518e 183d f084 9a3b 5737 0a3d 31ad fb3d
00000070: 121e eb3d 3455 d23d 9dfa 9a3d 89cc 4b3e
00000080: 8f3d 8a3e d13a 9b3e 4e00 8d3e f93d ad3e
00000090: e9ef 003e 3df3 983d 2106 223e 6d47 ae3e
000000a0: cd7d 1a3e f8b6 5b3d 01ed a73d c048 933d
000000b0: e6b7 743e e4da 363e 9e7d ff3d 0e87 163e
000000c0: 8710 453d 7f57 3e3e 01f6 dd3e b9c0 e63d
000000d0: bed6 9a3d da2e 4e3e 78f7 453d 2f89 a13c
000000e0: f5ea e23e 42f9 873e 788e 893e 6112 9c3d
000000f0: b37e ae3e 724d 933d 1c26 613e 76ea e43c
00000100: aad0 0d3e 721a 9f3d 4a61 b53e d636 863d
00000110: 2f73 4e3e cc71 a03e 5786 3c3e b3d5 413d
00000120: f233 453e 52f5 253e 33cb 1b3e d207 413d
00000130: eb48 993d 3975 083e 6ed3 293d 554b 933e
00000140: 70e9 d73e cd79 cd3c 4f54 cd3d dfbd 863e
00000150: fda0 4f3d af49 483d 0ef6 533e dfd0 893e
00000160: fdb5 c73d 65b2 9b3e 7b17 8f3e c4a1 943d
00000170: 8007 ac3d e5d4 e43d e397 723e 05b0 593e
00000180: 4e8e 8b3e 15c6 d53e c807 7d3d 3a67 933e
00000190: e808 9e3c 72ba 9e3d b809 283e 4b83 b53d
000001a0: 10c8 003e 97d0 163d d9e3 983d e0dc 153e
000001b0: f301 083e 4697 643e 5cad 123e e6e5 063d
000001c0: ea35 2d3e 3c45 8f3e 3212 a23d c2fe 053e
000001d0: 183a 983d dc7c 853e 08b5 fd3d 15b0 023f
000001e0: 9867 823e d380 5b3d 5769 b83e 118d ba3d
000001f0: 90c4 c43e 0e6c 523e ce47 2e3e fd3d d43e
00000200: e1d1 0e3d 1299 033e 81f5 cb3d 3015 ba3e
00000210: 153e 573d fbf4 943e f290 9e3d 7062 763d
00000220: 6ec9 fc3c 65ef 6e3d 4251 633d 428c b93e
00000230: df5c d13e 019c ab3d af9e 973d 700d 493e
00000240: 90f3 e33e 2de2 cf3c eb6c 803d 2ff9 9a3e
00000250: f275 813e aac3 903e 5f75 b73e bfe5 803e
00000260: 6e27 493e 5b1f b53e 7574 f83c 01b6 ed3e
00000270: f735 d53d 643c 5c3e 1b29 af3e f0e2 c83d
00000280: 156f ab3d 9364 033d 55f2 a33e a045 a03d
00000290: e449 763e ccbd 813d 5e9e c13d e172 9b3d
000002a0: a396 9f3e e138 f23d cb69 7e3d a264 7f3e
000002b0: 5297 823e 8c56 963e 00e6 af3e 33e4 593d
000002c0: 4f4b 9a3e 5d60 053f 9f8c d73e 9666 083d
000002d0: 6d49 4e3e 2749 653e 69ee 8b3e f495 8f3d
000002e0: 6810 d73c f86d 373d 51d8 a63d e088 1c3e
000002f0: 3e08 4b3e e026 133e 920c 4b3e 68df 963d
00000300: 40b0 b63e 171c 283d 2028 e03d 71da 6d3d
00000310: 9cf6 1f3d 2691 c43e c5ab 793e ecaf 8d3e
00000320: 2cb4 2c3e 5502 b03e c03a 8c3e 94d3 dd3d
00000330: f041 713e 6be7 ae3d 8eed a83e 793a af3e
00000340: 4e7d 5e3e ee52 d33e 5652 743e 4e7e d03d
00000350: dddc db3d 4939 e33d 04c7 c53d 39af 8f3c
00000360: f2ac bf3d d693 833d cb9a 603e 2c07 513e
00000370: b877 043e 1ecc b03e 2a75 913d 93f3 373e
00000380: 97b9 d03e 39a4 513e b9db e63d efdd 8c3d
00000390: 38e1 ae3e 68b1 a73e c89b fe3e 5992 ab3e
000003a0: 2686 823e fe3a 8f3e a8f6 4d3e 09f9 763e
000003b0: 679e e73d 6572 c33d e034 ba3d 26a8 773e
000003c0: 4a3c 953e 45a5 2d3e 8973 813e d8f4 443d
000003d0: 34d8 9c3e 7f52 db3d c5cd 663e bd8b d83e
000003e0: f877 563e f79a bd3e eb81 8b3d e624 613e
000003f0: 7c47 f03d 9bab 4f3e bea8 b63e 3786 023d
0.09399861 0.03156575 0.094705574 0.10326265 0.08902009 0.26015744 0.30939546 0.22874495
0.32238376 0.29284725 0.21882145 0.030264193 0.10971815 0.15779747 0.09102445 0.22548804
0.08852247 0.17785622 0.3122543 0.3952111 0.1347556 0.32477844 0.1424934 0.09054432
0.0372451 0.0047155544 0.033744182 0.12288893 0.11480345 0.102701575 0.07567332 0.19902243
0.2700009 0.3031831 0.27539295 0.33836344 0.12591518 0.07468269 0.1582265 0.3403887
0.15087052 0.05364129 0.08199502 0.0719161 0.23898277 0.17856938 0.124751315 0.14699957
0.048111465 0.18588065 0.4335175 0.11267228 0.0756049 0.2013506 0.048331708 0.019718735
0.44319883 0.26557356 0.26866508 0.07620693 0.3408104 0.07192506 0.21987194 0.027943831
0.1384913 0.07768716 0.35425788 0.06553428 0.20161127 0.3133682 0.18410622 0.04732294
0.19258097 0.16206864 0.15214233 0.0471266 0.07484611 0.13325967 0.0414614 0.2876841
0.42170286 0.025082493 0.10025846 0.26316735 0.05069064 0.048898395 0.20699331 0.26917168
0.097515084 0.30409542 0.27947602 0.07257417 0.08399868 0.11173419 0.23690753 0.21258552
0.27257007 0.41752687 0.061775 0.28789693 0.019291356 0.07750405 0.16409957 0.08862933
0.12576318 0.03682002 0.074653335 0.14635038 0.13281994 0.22323331 0.14323944 0.032934092
0.16915098 0.2798251 0.07913627 0.13085464 0.074329555 0.26071823 0.123880446 0.5104993
0.2546966 0.053589653 0.36017868 0.091089375 0.38431215 0.20549032 0.17019579 0.41453543
0.034868125 0.1285136 0.099589355 0.3634429 0.05254944 0.29093155 0.0774249 0.06015247
0.030857768 0.058333773 0.055497415 0.3623982 0.40891168 0.08379365 0.07403313 0.19634032
0.4452176 0.025376404 0.062707745 0.30268237 0.25285298 0.2827428 0.35831735 0.25175282
0.19643947 0.35375485 0.030328969 0.4642792 0.104106836 0.21507412 0.34211048 0.0980891
0.083707966 0.032078337 0.32020822 0.0782578 0.24051625 0.06335029 0.09454034 0.07590271
0.31169614 0.11827255 0.06211261 0.24940732 0.25506073 0.29362905 0.34355164 0.053196143
0.3013558 0.52100164 0.42099473 0.03330096 0.20145197 0.22391187 0.2733033 0.07011023
0.02625294 0.04478261 0.08146728 0.15286589 0.19827363 0.14370298 0.19829014 0.0736683
0.35681343 0.041042414 0.10945153 0.05806965 0.039053544 0.3839199 0.24381931 0.2767328
0.16865605 0.3437678 0.27388573 0.10831371 0.2356031 0.08540233 0.3299374 0.342243
0.21727487 0.41274208 0.23859534 0.10180341 0.10735486 0.11094911 0.096571 0.017539607
0.093591586 0.06424682 0.21934049 0.20412892 0.12936294 0.3453073 0.071024254 0.1796401
0.40766594 0.20472802 0.112723775 0.06878268 0.34156203 0.32752538 0.49728227 0.33510092
0.25492972 0.27974695 0.20113623 0.24118437 0.1130951 0.095433034 0.09092116 0.24185237
0.2914756 0.16957577 0.2528346 0.048085064 0.306337 0.10709094 0.22539432 0.42294112
0.20944202 0.3703229 0.06811889 0.21986732 0.117323846 0.20280306 0.35675615 0.03186628

model.4.weight f4 [256, 512]
00000000: 4b4f 31bd 5634 76bd 470d 943b 9454 64bd
00000010: 10ab ffbc e2f5 a93d 0e0d 0e3e 00cf 4ebd
00000020: d164 b53d fb60 81bc a782 d23d 4463 acbc
00000030: aa80 323d f21e 37bd 2931 683c 4be4 e4bc
00000040: 562d 58bd 35d7 75bc a561 c43d 8f06 023e
00000050: 2b93 1a3d a952 10bd 8832 1ebd eca9 8dbd
00000060: 31b4 323c 6ad3 0abc 4a3d 75bc 433b 62bd
00000070: 0328 55bd 9b63 1dbb 9a56 0b3c e51b 3a3d
00000080: 4a00 a8bd d9d5 d13d f198 16bd 2c14 ea3d
00000090: d83a dbbc 1326 47bc 7084 89bc 1b22 93bc
000000a0: 8d80 8f3d 344d 403d 7a2d 8e3a 6409 3bbd
000000b0: d4dc 11bd 028b 9d3d bd14 843c e6ef 96bd
000000c0: 9058 c2bd cbd5 bc3d 9753 093e c686 16bd
000000d0: 2db2 a3bc 721e 5d3d 1f2b f13c f0b8 e93a
000000e0: 317d c73d 15a3 b23c 6e68 9dbd 5735 06be
000000f0: d502 92bd 9833 a03b 24da 833d 70dc 2e3d
00000100: e0e7 c53c 0a81 1d3d 5d31 f33d 5dd3 e13c
00000110: ab2f 95b9 0e06 0c3e 58f9 cc3d 5b9a 7cbd
00000120: dcec 7e3d 6d7d 78bd f93c edbc 44e1 86bb
00000130: 6a36 5abd 04a7 823d 1cb0 8c3c b4b7 16bd
00000140: c2b2 c53d feca 043d 6e09 33bc 84c5 44bd
00000150: 1bb2 a8bb 2322 8bbb 8261 8cbd 3850 f1bb
00000160: 2afd 36bd 4e5a 55bc 8648 603c cef6 b5bd
00000170: 1231 2dbd 5cf2 f43c 228f af3d c7c1 703d
00000180: 1bee c9bd 2c96 0c3d 5457 473d dc10 f53c
00000190: e95b 103c e266 283c c562 70bd b269 da3d
000001a0: 4d27 34bd 8265 4f3c a1a9 c53c 852c 94bc
000001b0: fb7e d7bd 8080 043c 3ac8 a1bd 8030 e23b
000001c0: c3a1 293d e75c 7b3d b0e4 5cbd b735 053d
000001d0: 54ad 6a3c eb97 ed3c 61a9 9139 147e 2c3d
000001e0: 427c 5a3d c577 6abd af9c 98bd 4a38 29bd
000001f0: 70ed fc3d b8a7 23bd 4b18 9fbc 8761 d83d
00000200: 2740 15bb 0098 1739 b432 3bbd bd03 e63d
00000210: 1bdf 43bd 1279 20bc feec 83bb 80eb 64bd
00000220: cff4 75bc 70d3 8d3c f1a9 583d 210c bdbc
00000230: b386 f53d faa3 26bd 0fd4 96bd aa9e 0a3d
00000240: 4b90 6cba 6887 03bc bfd2 bdbd acc1 34bc
00000250: 74e1 a63d 1b91 a9bc f9f8 80bd 4850 99bd
00000260: c7d2 923d 54e3 a63d 45da 3a3c be36 2e3c
00000270: a845 a2bc d86e 473d 89be a73d fc4a 4c3d
00000280: 83cb a3bc 52b8 d63c e24f 91bd f694 7bbd
00000290: 5a60 c1ba c11f c7bb f103 f5bc 7b0b fcbc
000002a0: 9582 dd3d bcb0 7bbd c528 b8bd 901f f4bc
000002b0: 7c10 b53d 81f5 ac3d e654 56bc d1ce ccbc
000002c0: b267 033e e6bc ff3d 3f49 b43d 7533 4bbd
000002d0: 0f87 083d af27 9d3c 4d3a cc3b 5194 acbd
000002e0: dc1b 09be 83c0 813c a93e 6fbc f7dd 35bd
000002f0: fc4f 7c3d aaf6 83bd 5d49 813d 2fc1 08bd
00000300: 75de c13d dd67 58bc 9fa5 f43c 97d2 d2bd
00000310: 8798 1bbd 0205 1d3e 0a1e 25bd 32df 843d
00000320: a304 c73d bf3f 8fbc a15f 1ebd 5ea0 42bd
00000330: fd73 8abc dfb4 1dbc ca0e 373d ca0b 893c
00000340: 357c 2c3d 6c22 b83d b40d b5bd 9211 dfbc
00000350: f6b4 30bc 86a9 96bd 0d23 3fbd e84d cd3c
00000360: 920c 81bd fdda 6cbc 84c5 323d e539 81bd
00000370: b569 01bd bd57 c53d 8ebb c7bd fd59 90bd
00000380: 0842 0f3e 59be 2a3c f0e9 91bd 4ccf da3b
00000390: e933 a03c 2eaf dc3c 1d4a ec3d 0684 8e3d
000003a0: ec79 143d 7e46 4e3d bf0c dfbc a652 b53d
000003b0: 8385 b9b9 a78b 21bd 3929 c3bc 1955 ad3d
000003c0: 1ef9 08bc 9a79 a8bc d12c f7bd 0cb6 f5bc
000003d0: 39ff bdbb dd10 9d3c c05f bf3d bde5 cabd
000003e0: 97a3 a3bd ce2b fc3d 229c 813c 060c 103d
000003f0: f71f 983d 4544 76bd 2c1f 1f3e abb3 bebd
-0.04328851 -0.060108505 0.0045181843 -0.055744722 -0.031209499 0.082988515 0.13872167 -0.05049038
0.0885712 -0.015793314 0.10278826 -0.021043427 0.043579735 -0.044707246 0.014171877 -0.02794089
-0.05277761 -0.015004923 0.09588937 0.12697814 0.037738007 -0.03523508 -0.03862241 -0.06917176
0.010907219 -0.008473257 -0.014968226 -0.055232298 -0.05204011 -0.0024015668 0.008504534 0.04543676
-0.0820318 0.10245866 -0.03676695 0.11429629 -0.026761457 -0.012155074 -0.016786784 -0.017960599
0.07006941 0.046948627 0.0010847293 -0.045663252 -0.03561099 0.07692529 0.01612317 -0.07369976
-0.09489548 0.09220465 0.13410793 -0.036749624 -0.019982422 0.053984113 0.029439507 0.0017831605
0.09740675 0.02180628 -0.07685934 -0.13106285 -0.071294464 0.004888963 0.064380914 0.042690694
0.024158418 0.03845314 0.1187465 0.027566606 -0.0002845501 0.13674185 0.10008496 -0.061670642
0.062237605 -0.06066649 -0.028959738 -0.004116209 -0.05327455 0.06379512 0.01717382 -0.036796287
0.09653236 0.03242015 -0.010927541 -0.048039928 -0.005148185 -0.004246013 -0.06854536 -0.007364299
-0.04467503 -0.013022019 0.013689166 -0.08884965 -0.042283125 0.029900722 0.08572222 0.05877855
-0.09859868 0.034322903 0.048667267 0.029915266 0.008810976 0.010278435 -0.058687944 0.10664691
-0.043982793 0.012658479 0.024128737 -0.018087635 -0.105222665 0.008087277 -0.07899518 0.0069027543
0.041414034 0.061367895 -0.05392903 0.03252193 0.014323551 0.029003104 0.00027782752 0.042112425
0.053341158 -0.057243127 -0.0745176 -0.041313447 0.12349975 -0.03995487 -0.019420763 0.10565477
-0.0022773833 0.00014457107 -0.04570265 0.11231182 -0.04782019 -0.00979449 -0.0040260544 -0.055888653
-0.01501198 0.017312735 0.052896444 -0.023077073 0.119885825 -0.040683724 -0.07364666 0.03384272
-0.0009024187 -0.008027889 -0.09268712 -0.011032503 0.081484705 -0.020699074 -0.06297488 -0.074860156
0.07169109 0.08148828 0.011404579 0.010633169 -0.019808605 0.048689693 0.081906386 0.0498762
-0.019994503 0.026210938 -0.070953146 -0.061421357 -0.0014753446 -0.0060767834 -0.029909106 -0.030767193
0.10815922 -0.061447844 -0.08992151 -0.029800206 0.08841035 0.08445264 -0.013081765 -0.025000961
0.12832525 0.124872014 0.08803033 -0.04960962 0.033331927 0.019183962 0.006232536 -0.084267266
-0.13389534 0.015838867 -0.014602342 -0.044401135 0.061599717 -0.06443532 0.06312821 -0.03338736
0.094662584 -0.013208357 0.02986413 -0.10294073 -0.03798726 0.15333942 -0.04031185 0.064878836
0.09717681 -0.017486451 -0.038665418 -0.04751622 -0.01690101 -0.009625643 0.04469184 0.016729254
0.04211064 0.089909405 -0.08840504 -0.027230058 -0.010785332 -0.07356553 -0.046664286 0.025061563
-0.06301226 -0.014456508 0.043645397 -0.06309871 -0.03159495 0.096358754 -0.0975257 -0.07048414
0.13990033 0.010421359 -0.07124698 0.0066775437 0.019556003 0.026939001 0.115375735 0.06958775
0.036249086 0.050360195 -0.027227757 0.088536546 -0.00035385424 -0.039439823 -0.023823367 0.08463497
-0.008360175 -0.020565797 -0.12069095 -0.029994033 -0.005798247 0.01917308 0.09344435 -0.099071
-0.07990187 0.123130426 0.01582152 0.035167716 0.07427972 -0.0601237 0.15539235 -0.09311613
