ml_service/best_mlp_model_2output.pt (torch, 864517 bytes, 20 tensors)

model.0.weight f4 [512, 70]
000000 6c aa 0b bd 3b 3b 15 3d 37 80 f5 3d 3c 22 9c 3d
       -0.034098074 0.03643344 0.11987346 0.07623717
000010 c8 45 00 bd 93 4f ea 3c 85 fa 88 bb 33 2d 9a 3c
       -0.03131655 0.028602397 -0.004180255 0.01882038
000020 57 34 29 bd 2e f0 36 bb 9b eb 83 bd 9f c3 98 bc
       -0.04130968 -0.0027914154 -0.064414226 -0.018647967
000030 14 d2 8d bd aa 22 ae bd aa 4f c7 bb 2f bb be 3d
       -0.06924835 -0.085027054 -0.0060824947 0.09313046
000040 d6 0a a0 3d 89 a8 4d 3d e1 aa 9f 3d 92 2a 09 3d
       0.07814567 0.050209556 0.077962644 0.033487864
000050 74 c7 dc bd e1 f7 a3 3c 6f 51 a5 bd 17 47 25 be
       -0.1078023 0.020015659 -0.08072173 -0.161404
000060 56 90 31 3d 84 81 fa 3d 88 69 36 3c 76 4b c5 3d
       0.04335054 0.122317344 0.011133559 0.09633534
000070 39 78 e7 bc a5 55 8f bc 6d dc 82 bd 33 a3 96 3d
       -0.028255569 -0.017496893 -0.06389699 0.073553465
000080 18 a4 be 3d 13 fa 40 bd ad f6 c5 3c 6c 5e 98 3d
       0.09308642 -0.04711349 0.024165476 0.074398845
000090 96 c9 18 3d 53 7d 06 be 01 0d 23 3c 64 51 13 3d
       0.037301622 -0.13133745 0.009951831 0.035966292
0000a0 83 71 c2 bd 4c fb 0a 3d c2 3b 87 bd 93 60 7e bd
       -0.09494307 0.03393106 -0.06603195 -0.06210382
0000b0 a4 a2 ca 3b 1b 7f c5 3c a0 8b cf 3d 09 60 ea bc
       0.006183939 0.02410846 0.10134053 -0.028610246
0000c0 55 ff a0 bc 8c 6e d0 bd 1c 2d b6 3d 75 66 a7 bd
       -0.019653002 -0.10177335 0.08895323 -0.08173839
0000d0 b3 0a b6 bd 3a 20 9e 3d fb f8 4e 3d 18 46 c3 3c
       -0.088887595 0.077209905 0.050530415 0.023837134
0000e0 59 d7 26 be f0 44 96 3d 62 e7 f0 3d 9b 73 58 bc
       -0.16293086 0.073373675 0.11762883 -0.013211156
0000f0 fa 30 33 bd d9 64 b9 bd d5 e5 6d bc 18 70 c4 bd
       -0.04374788 -0.09052438 -0.014520128 -0.09591693
000100 da 43 6c 3d 2e 4a 3e bf 3b 65 63 3d c5 62 68 3d
       0.057681896 -0.7433194 0.055516463 0.05673482
000110 63 c4 de 3d 85 5c 9c bc 20 db ca bb dc be 13 bb
       0.108773015 -0.019087086 -0.0061906725 -0.002254418
000120 65 0e b7 bb 39 88 bd 3b 2f 50 ff b7 bc af b7 3c
       -0.0055864328 0.0057840613 -3.0435707e-05 0.022422664
000130 e2 69 50 3c 03 69 b1 3b 9d 76 50 3b 45 3a 51 bc
       0.012720557 0.0054141297 0.003180898 -0.01277024
000140 63 8b 8e 3b eb 5c a0 bc fb 87 4b bc e5 a7 57 3b
       0.0043501123 -0.019575557 -0.012422557 0.003290647
000150 94 99 3e bb 6a 2c ad bb 97 3b 08 3b b5 1f a6 3a
       -0.002908324 -0.0052848356 0.0020787471 0.0012674244
000160 a1 e9 3b bc 82 5d a4 bb 78 9c 48 bc d5 69 ab 3b
       -0.011469276 -0.00501603 -0.012244336 0.005231122
000170 1e 41 b1 bb 85 32 b0 3b 10 8b 22 bc ec fd 85 3b
       -0.005409374 0.005377116 -0.00992085 0.0040891077
000180 0b 7e ea bb eb bb 05 bc 95 7a 1f b9 95 71 33 3a
       -0.007156139 -0.008162479 -0.00015209087 0.0006845233
000190 7c c1 a8 39 60 dd 89 ba 5e 6a a4 ba bf 36 76 3c
       0.00032187614 -0.0010518245 -0.0012543907 0.015027701
0001a0 31 01 90 bb 88 81 69 3c cc 5d 91 bb 28 e6 b0 3a
       -0.0043946733 0.014252074 -0.0044362303 0.0013496326
0001b0 c8 71 e8 b9 4e bf 4b ba 58 90 f3 bb 4c 0c 7b ba
       -0.00044335262 -0.0007772342 -0.0074329786 -0.00095767225
0001c0 54 2a 83 3b f4 b9 4b 3a 19 c4 b3 3c 6e 54 59 3a
       0.0040028486 0.00077715446 0.021944093 0.0008290474
0001d0 d2 6a 9f b9 81 22 e7 3b 44 90 82 bb 24 30 bb 39
       -0.0003040643 0.0070536737 -0.003984483 0.00035703287
0001e0 17 d7 b0 bb fe d3 cd b9 2a d9 69 3b 55 b0 ce 3b
       -0.0053967345 -0.00039258593 0.0035682418 0.0063076415
0001f0 5d ec 0d 3b e5 e9 fd 3b 85 32 b0 3b 39 88 bd 3b
       0.0021655776 0.0077488297 0.005377116 0.0057840613
000200 88 8b 8f 3c 96 a1 ea bc 9d 76 50 3b 7e fc 68 3b
       0.017522588 -0.028641503 0.003180898 0.0035550888
000210 95 71 33 3a e5 12 80 bc b4 ee 54 bd 44 f0 aa bc
       0.0006845233 -0.01563401 -0.051985458 -0.02086652
000220 8c 1b 3c bd be 70 c4 bc 69 d7 0d 3d 56 d9 4f bd
       -0.04592471 -0.02397954 0.03462926 -0.050744377
000230 b0 ba 3f 38 43 9c b7 37 8d 5a 23 b8 92 9c 14 b8
       4.5711815e-05 2.1888065e-05 -3.894656e-05 -3.5431767e-05
000240 03 4e 48 b9 4b 12 a7 38 9f 7b c7 38 0e eb 7f b7
       -0.00019102548 7.966588e-05 9.512086e-05 -1.5253912e-05
000250 16 6c 43 38 71 6e 11 b8 fc 35 56 38 72 22 f5 b8
       4.6592286e-05 -3.467355e-05 5.1071853e-05 -0.00011688926
000260 92 84 fb b8 b8 31 c9 38 f3 72 b1 b8 28 52 42 37
       -0.00011993306 9.593688e-05 -8.461429e-05 1.158243e-05
000270 bf c4 96 36 6d fc 3a 37 2d b8 52 b8 fd 16 fc 37
       4.4932526e-06 1.1145236e-05 -5.023943e-05 3.0051446e-05
000280 05 3d 25 b8 27 cc 83 38 9f e0 49 38 4e 2d 89 b6
       -3.9395894e-05 6.284593e-05 4.813133e-05 -4.0881923e-06
000290 88 69 ac b8 16 fc a0 38 0a 7b 7a 38 14 04 e4 36
       -8.221256e-05 7.676349e-05 5.9719234e-05 6.7954043e-06
0002a0 86 2c 02 b7 27 c3 2d b8 3e 01 8e b8 f6 e7 47 b8
       -7.75897e-06 -4.1428164e-05 -6.771319e-05 -4.7661328e-05
0002b0 6d ef 6e 37 8b a6 21 38 7c 85 4d 38 ff a4 08 39
       1.4241651e-05 3.8540496e-05 4.9000126e-05 0.00013031437
0002c0 6f 24 ce b8 bd d8 63 37 b8 d3 84 36 ee d8 cb b8
       -9.829632e-05 1.3580718e-05 3.958554e-06 -9.7202006e-05
0002d0 17 21 3c b8 e8 c7 38 b8 84 99 95 b5 be bf b5 37
       -4.485351e-05 -4.4055196e-05 -1.1146044e-06 2.1666168e-05
0002e0 4c 5d e4 38 09 68 6f 38 59 b4 a2 b6 66 c6 33 38
       0.00010889265 5.707893e-05 -4.8489715e-06 4.28617e-05
0002f0 88 d4 6d b8 6c 4e 25 b8 5c 42 6e b8 9a c5 05 39
       -5.670314e-05 -3.94121e-05 -5.6805424e-05 0.0001275748
000300 90 08 f4 38 8a a7 6c b7 97 04 fb b8 cb 36 99 38
       0.000116364216 -1.4105704e-05 -0.000119694676 7.3058145e-05
000310 4e 2d 89 b6 92 9c 14 b8 0c 9a ca 39 df 9f 0a ba
       -4.0881923e-06 -3.5431767e-05 0.00038643216 -0.0005288105
000320 16 6c 43 38 d1 16 6f 38 27 c3 2d b8 7b 28 02 3b
       4.6592286e-05 5.700329e-05 -4.1428164e-05 0.0019860554
000330 25 d1 b2 3a fc 2c 0b ba 08 17 5e 3b 9e fb df ba
       0.0013642652 -0.00053091324 0.003388824 -0.0017088538
000340 88 d9 7c 3b 6e 6e 27 3a 63 2f 91 bd 9e db 11 3e
       0.0038581807 0.0006387 -0.070891164 0.14243934
000350 d0 12 40 3d 05 a6 a4 bd 32 8d 55 bc 4b ad 71 3c
       0.04689294 -0.08039478 -0.013034152 0.014750789
000360 05 d3 3b bd c8 ec 03 bd c2 89 49 3d ee fe 14 3d
       -0.04585554 -0.032208234 0.04920364 0.036375932
000370 ad d7 77 bd 95 17 95 bc 44 ba 4d 3d 93 0b 97 bd
       -0.06050842 -0.018199721 0.050226465 -0.073752545
000380 15 53 7c 3d 93 aa 58 bb 4c fb 9a 3d 86 3c ab bd
       0.06160267 -0.0033060655 0.07567462 -0.08361153
000390 f2 9b 4c bd 79 93 df bc 3b 58 69 3d af 46 72 3a
       -0.04995341 -0.027292 0.05696891 0.00092421
0003a0 a8 a5 43 bb 8b 8c 41 3d e5 cb 28 3c f4 bf 04 bb
       -0.0029853377 0.047253173 0.0103025185 -0.0020256015
0003b0 5a 68 1f bd b6 0b 9b 3c 0f 4a 42 3d df 17 c6 bd
       -0.038917877 0.018926483 0.04743391 -0.09672522
0003c0 db d0 39 bc 90 38 c4 bc a2 ac 55 3d b4 bd 1b bd
       -0.011341299 -0.023952752 0.05216659 -0.038022712
0003d0 8e 26 59 bd 5b 68 29 b8 5a fc e5 3d aa b2 47 bb
       -0.053015284 -4.038993e-05 0.11229773 -0.0030471482
0003e0 1a 0a a4 3c 68 ec 61 bd 04 b5 12 3d 69 1c 30 3d
       0.020024348 -0.055157095 0.03581716 0.042995844
0003f0 46 17 9e 3c f0 fd 58 bd d0 70 94 3a 33 50 e7 bc
       0.019298207 -0.05297655 0.0011325125 -0.028236484

model.0.bias f4 [512]
000000 c1 cd 15 b8 56 7c 37 35 83 33 e0 b0 00 42 5e b7
       -3.571599e-05 6.8353745e-07 -1.6312786e-09 -1.3247598e-05
000010 7a b1 4c b7 86 ee 8c b7 7b 3c 17 38 0c 6a 9d b7
       -1.22006695e-05 -1.6800372e-05 3.6057532e-05 -1.876524e-05
000020 c1 c7 21 b7 2b cf 8d 37 2e 35 07 37 d4 41 de b6
       -9.642857e-06 1.690498e-05 8.059009e-06 -6.623779e-06
000030 15 c2 6a 33 f7 cf 19 35 85 54 12 35 37 0b ce 33
       5.4658887e-08 5.729957e-07 5.451223e-07 9.5946625e-08
000040 ed 6d f8 34 34 1a 4e b7 a5 a7 6a 34 46 de 26 37
       4.627358e-07 -1.2284658e-05 2.1853937e-07 9.946123e-06
000050 49 1a 5f b5 70 bc 22 b6 6a f4 45 b5 6e 5c b5 b6
       -8.3112224e-07 -2.4249566e-06 -7.374389e-07 -5.4049806e-06
000060 1f fa cc 35 c2 57 a0 37 49 78 b0 b7 b4 0c 04 34
       1.5271979e-06 1.9114352e-05 -2.1036847e-05 1.229808e-07
000070 93 f1 cf b4 48 66 a0 35 a8 a3 29 37 99 7a d2 b4
       -3.8732523e-07 1.1950697e-06 1.0111289e-05 -3.920475e-07
000080 a4 d1 40 b3 18 aa cc 33 90 f7 ec b3 53 80 c6 b7
       -4.489415e-08 9.53043e-08 -1.1034638e-07 -2.3663195e-05
000090 ff 2e a2 36 db 3c f7 b7 a3 6b 8c b7 b3 06 69 34
       4.8334473e-06 -2.9473033e-05 -1.6739423e-05 2.1702253e-07
0000a0 39 c7 a4 b1 26 15 92 b4 3e 86 81 b6 0a 63 22 b6
       -4.795677e-09 -2.7210007e-07 -3.8601274e-06 -2.419753e-06
0000b0 4e c6 df b7 82 e6 fd 35 cd a0 c5 35 cd 0e 0e b6
       -2.6676014e-05 1.8917056e-06 1.4724443e-06 -2.1168264e-06
0000c0 b1 60 1b 36 e1 3d 05 36 1e 5a 11 b7 42 f0 05 37
       2.3153082e-06 1.9854563e-06 -8.6636555e-06 7.983357e-06
0000d0 cc 75 19 35 d9 ea 31 b7 06 86 d9 b5 fa 15 0a 32
       5.716836e-07 -1.0604702e-05 -1.6206766e-06 8.037654e-09
0000e0 21 04 35 b6 f0 10 09 b7 5a 7d 1b b7 c9 17 09 b7
       -2.6973505e-06 -8.16978e-06 -9.267906e-06 -8.171374e-06
0000f0 77 ba d6 33 ff 2e 87 b7 04 87 ce 37 19 b2 39 30
       9.999069e-08 -1.6115138e-05 2.4619985e-05 6.75557e-10
000100 62 68 8a b3 1f 6b f5 36 5d e5 66 36 9a 05 6e 37
       -6.445113e-08 7.3140395e-06 3.4406178e-06 1.418721e-05
000110 5e d8 28 b2 1b 81 8c 36 63 21 5f 32 b7 f2 4a b4
       -9.828083e-09 4.187355e-06 1.29879e-08 -1.8901015e-07
000120 14 f1 92 33 65 78 6e b7 3b 24 3f 35 d4 2d 1a 34
       6.842507e-08 -1.4213937e-05 7.1205767e-07 1.435904e-07
000130 40 b8 01 b4 81 13 97 32 83 01 1e b6 5b 93 6c 33
       -1.2081091e-07 1.7587583e-08 -2.3544715e-06 5.508205e-08
000140 36 60 3b b7 a5 27 a6 b3 f0 34 aa b5 37 28 e2 36
       -1.1168469e-05 -7.737189e-08 -1.2681394e-06 6.7400065e-06
000150 c0 c1 2f 37 db 9d ed 35 bb 8c a8 37 b0 e4 3e 36
       1.0475924e-05 1.7703818e-06 2.0092693e-05 2.844532e-06
000160 28 89 d8 31 82 d4 c6 b6 2f 89 88 35 df 83 12 37
       6.3020202e-09 -5.925599e-06 1.0172715e-06 8.732982e-06
000170 c0 40 bf b7 84 10 c1 37 be e5 14 b8 83 6a 37 35
       -2.2799126e-05 2.3015084e-05 -3.5499914e-05 6.832781e-07
000180 0a a2 0e b3 1e 89 ad b7 6f 02 ae b6 26 1b 78 34
       -3.3209325e-08 -2.0687057e-05 -5.1858874e-06 2.3106676e-07
000190 b1 92 81 b1 14 72 3c b6 14 66 43 33 10 d3 57 37
       -3.771071e-09 -2.8080585e-06 4.5494815e-08 1.286414e-05
0001a0 4e 78 a2 b4 8a 9e 64 37 81 d5 4d 38 bf 55 32 b6
       -3.0262385e-07 1.3626772e-05 4.907465e-05 -2.6573978e-06
0001b0 3a 93 3d b7 34 d1 10 34 ee 78 07 b8 b2 d0 96 b5
       -1.1299557e-05 1.3487153e-07 -3.2299133e-05 -1.1236609e-06
0001c0 cf 1f c0 34 7d 1f b8 36 35 a6 bf 37 4f 17 0e 37
       3.578593e-07 5.487293e-06 2.284637e-05 8.4692865e-06
0001d0 36 7e 2b 36 27 fb 43 b7 ed e8 cc b2 e1 e4 6d 38
       2.555445e-06 -1.1681382e-05 -2.3854648e-08 5.6718363e-05
0001e0 8b 9e 91 33 e2 43 20 38 dd 85 87 37 ca 4b f7 36
       6.7809275e-08 3.8210193e-05 1.6155589e-05 7.3699966e-06
0001f0 c2 1c f7 b5 b3 42 8a 38 0e d5 b5 b1 9c 45 47 33
       -1.8411304e-06 6.5927765e-05 -5.292015e-09 4.6396607e-08
000200 62 6f 3f 38 18 5d c9 b5 7a 01 0b 38 dc db 49 b7
       4.5641682e-05 -1.5002761e-06 3.3141558e-05 -1.2031724e-05
000210 4a 32 ee 31 46 52 2c b7 e8 07 3e b4 f3 57 66 34
       6.932429e-09 -1.0271155e-05 -1.7698005e-07 2.1452415e-07
000220 6a 58 75 37 e9 6f 18 b5 12 ea be b6 1b f9 f9 b6
       1.46237235e-05 -5.6787263e-07 -5.6896906e-06 -7.449778e-06
000230 21 55 40 36 7a 21 a2 b5 4e 6e 0a 34 14 c5 ee 36
       2.865978e-06 -1.2079684e-06 1.289238e-07 7.1158956e-06
000240 00 e4 8b b8 8b df e5 b1 2f 21 00 35 d7 2d 04 38
       -6.670505e-05 -6.690191e-09 4.7732004e-07 3.1513944e-05
000250 d3 d4 bc 35 38 64 13 af 7f 26 84 b6 16 45 ec 36
       1.4069032e-06 -1.3405177e-10 -3.938388e-06 7.0413907e-06
000260 c5 6f 8a b6 cb 56 73 b4 ea aa b7 b7 23 b7 ea b6
       -4.125732e-06 -2.2662714e-07 -2.1894888e-05 -6.9950634e-06
000270 0f 2d 2b 32 d5 df eb b5 2e 9b 61 b7 ab be 08 36
       9.963755e-09 -1.7574008e-06 -1.3447176e-05 2.0376563e-06
000280 32 0d 96 37 c5 71 f0 36 e3 6d b7 37 51 6d 1c b8
       1.7887538e-05 7.165802e-06 2.186647e-05 -3.7295107e-05
000290 3f 77 f2 b3 fa 5d e4 b4 5b c8 e6 35 ac 9e 2c 37
       -1.1290694e-07 -4.2536686e-07 1.7194646e-06 1.0288943e-05
0002a0 40 0e 0b 30 5e 16 1e 36 be ed be b7 e6 31 06 37
       5.0588156e-10 2.3556854e-06 -2.2760472e-05 7.99864e-06
0002b0 26 7e ba b6 f0 4a b6 ad 2d 09 9f b7 10 69 31 b8
       -5.5579176e-06 -2.0724283e-11 -1.895855e-05 -4.2297936e-05
0002c0 71 92 1c 37 fc da 37 b8 f9 ff 9c 35 1a 52 82 38
       9.332421e-06 -4.3834545e-05 1.1697404e-06 6.214176e-05
0002d0 6d ef e4 35 07 5f 60 34 79 21 08 38 a3 94 57 b3
       1.7057006e-06 2.0896196e-07 3.24561e-05 -5.0193773e-08
0002e0 01 48 74 b1 85 ae 04 38 24 01 5e b6 00 24 51 36
       -3.5547603e-09 3.1633786e-05 -3.3081242e-06 3.1164382e-06
0002f0 e5 71 9d 37 88 f7 a8 b6 5f f7 bd 37 f4 c4 c8 37
       1.8768895e-05 -5.0356066e-06 2.2645747e-05 2.3933571e-05
000300 0a 0d f9 b5 96 a7 de 37 e5 0d 52 b6 44 ee 0a 38
       -1.855574e-06 2.65425e-05 -3.1300526e-06 3.3123666e-05
000310 b4 6e 02 37 1a c2 8c 34 71 8b 23 b6 7e d5 b5 b7
       7.774379e-06 2.621826e-07 -2.4370058e-06 -2.1676296e-05
000320 29 d0 0a b9 df 70 ab 37 02 95 a1 b7 51 f5 95 b4
       -0.00013238251 2.0437348e-05 -1.9262083e-05 -2.7931904e-07
000330 49 ea 3d b8 a7 f3 cb b5 1e ba 75 34 76 c4 44 32
       -4.5279307e-05 -1.5195591e-06 2.2885112e-07 1.1453372e-08
000340 3a 9c 22 38 18 91 1a b7 84 3d e8 36 6c ef 08 b6
       3.8769307e-05 -9.212898e-06 6.9213e-06 -2.040494e-06
000350 61 55 b0 32 87 1a 03 b8 26 20 5f 33 bb b7 9e b7
       2.0527922e-08 -3.125754e-05 5.1950472e-08 -1.8920624e-05
000360 39 1f 12 b2 22 9d 8c b7 87 fd 3c 35 c0 17 ee b3
       -8.505418e-09 -1.6762471e-05 7.040439e-07 -1.1087059e-07
000370 1a d3 2c 37 15 49 ac 37 b6 47 41 b4 b8 f0 80 b5
       1.030115e-05 2.053803e-05 -1.8000614e-07 -9.606802e-07
000380 de f5 d0 33 b7 21 4c b7 d7 f9 75 37 77 7c 20 b4
       9.730478e-08 -1.2167197e-05 1.4661308e-05 -1.4946441e-07
000390 e7 69 88 33 9e 71 79 b3 8b 1a 3a b6 ad 7f 2c b6
       6.352257e-08 -5.8078164e-08 -2.773161e-06 -2.5704314e-06
0003a0 a6 df cc 37 8c 90 e3 af 65 57 8e b7 f8 93 7e 35
       2.442284e-05 -4.1393766e-10 -1.6968415e-05 9.4837696e-07
0003b0 ae 7c 8a b6 4c 6a bf b6 13 d2 d2 b5 ac 73 cd 37
       -4.127235e-06 -5.704618e-06 -1.5707359e-06 2.4491768e-05
0003c0 7b ad 3b 34 8a 7f b8 31 6b e8 11 35 d1 55 bd b6
       1.7478844e-07 5.3696043e-09 5.435492e-07 -5.6426293e-06
0003d0 b1 28 6f 38 c6 46 1d 37 18 da 13 37 f1 75 97 34
       5.7019937e-05 9.374407e-06 8.812662e-06 2.8211755e-07
0003e0 8e b2 17 b5 3d 7c 7a b4 d5 56 0f 38 ef 78 f7 37
       -5.6511715e-07 -2.3328262e-07 3.4174725e-05 2.9501009e-05
0003f0 67 2e 76 32 b6 f2 88 33 c2 a6 9d b4 b6 a6 59 33
       1.4329635e-08 6.3771424e-08 -2.936486e-07 5.0675872e-08

model.1.weight f4 [512]
000000 7d 99 2c 3f 5c d2 7e bc 33 2c f5 b8 84 37 09 3f
       0.67421705 -0.015553083 -0.00011690743 0.53600335
000010 9c d1 23 3f 06 47 eb 3e 6f d8 d9 3e d5 28 12 3f
       0.63991714 0.45952624 0.42547938 0.57093555
000020 c0 db 18 3f 42 fa f0 3e dd a0 09 3f 69 ab d9 3e
       0.5971031 0.47065932 0.5376108 0.42513588
000030 6b 29 bc bb ca 8d bb 3b cb 83 b9 3b d1 b3 81 3b
       -0.005742242 0.0057236897 0.005661463 0.0039582034
000040 e3 81 ee 3c 45 54 18 3f 50 89 91 3c 6e c2 2b 3f
       0.02911467 0.59503585 0.017765671 0.6709355
000050 8d 88 0c 3d 75 dc 1d 3f c7 c4 87 3b 31 3e 93 3e
       0.034309912 0.61664516 0.0041433307 0.28758386
000060 35 f5 1e 3f 61 59 44 3f f4 70 cb 3e 4c 48 d6 3d
       0.62092906 0.7669888 0.39734614 0.10463008
000070 ab 71 24 3b 6a a1 13 3f 99 d6 74 3e 80 3a f4 3d
       0.0025092165 0.57668173 0.23909988 0.119252205
000080 d8 11 d1 bb c6 de 04 bd d9 2a cf 3b af b1 2d 3f
       -0.006380301 -0.032439016 0.0063222465 0.6784925
000090 d0 7f 29 3f 7c 0e 08 3f 79 c3 35 3f e2 14 e7 3e
       0.6621065 0.531471 0.7100139 0.4513312
0000a0 9a 77 9e 3a 3e 09 16 3d 40 d5 d5 3e 01 60 c3 3e
       0.0012090087 0.036629908 0.4176426 0.38159183
0000b0 35 2e e4 3e b9 af 6b bc e2 9f 2b 3d 23 a7 08 3d
       0.44566503 -0.014385157 0.041900523 0.03336252
0000c0 0d 60 09 3f 3a ec fb 3e 66 ce af 3e 65 26 d1 3e
       0.53662187 0.49203664 0.34337157 0.40849605
0000d0 ce c8 29 3e ee f9 06 3f 6a 43 8c 3d fa 89 92 b9
       0.16580507 0.5272511 0.06848796 -0.0002795009
0000e0 a2 da 4a 3e 6c 49 2e 3f 80 2b f2 3e 8a 68 f1 3e
       0.19809964 0.6808078 0.47298813 0.4715007
0000f0 df 5f 16 bb 00 e6 33 3f e1 36 01 3f 20 72 33 b9
       -0.0022945327 0.7027283 0.50474364 -0.00017113285
000100 ea ea 95 ba 09 35 0a 3f 3a 5b 31 3e 08 1a 25 3f
       -0.0011437808 0.53987175 0.17319956 0.64492846
000110 ec 23 22 bb 45 40 af 3e 15 9a a6 3a 2e 83 5a 3c
       -0.002474065 0.3422872 0.0012710715 0.01333694
000120 e8 2f 64 3b 06 57 0a 3f 8f 89 d8 3c 61 8d 96 bb
       0.0034818593 0.5403904 0.02643278 -0.0045944904
000130 80 58 d3 3b 54 ee 18 3b 4f 00 e1 3e 50 a6 e9 3b
       0.006449759 0.0023335414 0.43945548 0.0071304217
000140 64 ee 87 3e 50 59 26 bb 47 8b 28 3f 62 bb 32 3f
       0.26549065 -0.0025382824 0.6583752 0.69817173
000150 ee 22 c1 3d 34 72 e1 3c 21 fe 0e 3f d7 5f 84 3e
       0.094304904 0.027520277 0.5585652 0.2585437
000160 22 12 80 39 1a 41 fd 3e d4 88 38 3e 55 b8 09 3f
       0.00024427572 0.4946373 0.18020946 0.53796893
000170 ad 0f e3 3e 26 9d 31 3f fc 39 14 3f 31 b6 39 3c
       0.44347897 0.69380414 0.5790098 0.011334942
000180 21 de 8f 3a 7f 0b 14 3f 14 ae 21 3f d7 61 d7 bb
       0.0010976234 0.5783004 0.6315625 -0.0065729427
000190 05 b6 89 bc 37 88 27 3f ab d9 04 bc b2 41 82 3e
       -0.016810426 0.6544222 -0.008108537 0.25440747
0001a0 18 de 87 bb 35 37 17 3f 2b e8 1f 3f a5 ec 20 3f
       -0.0041463487 0.59068614 0.62463635 0.6286109
0001b0 57 a8 ce 3e e6 41 7f 3c 23 aa 37 3f 62 8c e2 3d
       0.40362808 0.015579676 0.71743983 0.11061932
0001c0 95 1f 0d 3d 08 8e 9e 3e 2e 58 2c 3f a5 77 15 3f
       0.034453947 0.30967736 0.6732205 0.5838569
0001d0 af 2e 2c 3f 47 c7 f5 3e d3 af c8 ba 2a 26 3c 3f
       0.67258734 0.480036 -0.0015311189 0.73495734
0001e0 12 77 0a bb 06 34 42 3f a4 ef fb 3e 10 92 f4 3e
       -0.00211281 0.7586063 0.4920627 0.47767687
0001f0 65 08 1e 3f ef 12 03 3f 25 81 c6 ba 1d 4d df ba
       0.6173156 0.51200765 -0.0015144689 -0.0017036531
000200 a7 7b 19 3f f6 e2 f9 3e 4a 03 11 3f 57 60 36 3f
       0.59954304 0.4880597 0.56645644 0.7124075
000210 89 1f b9 b9 7e c8 26 3f 65 ad 06 3c c3 7f 36 3b
       -0.00035309445 0.65149677 0.008220051 0.0027847148
000220 c1 93 4b 3f 9e d5 20 3f 7f 0b 3d 3f 6a c6 a4 3e
       0.7952233 0.62825954 0.73845667 0.32182628
000230 19 0f 17 3f 5b 90 5d 3e 69 41 35 3f 95 5b fb 3e
       0.5900741 0.21637098 0.7080293 0.4909331
000240 34 52 2e 3f 93 c9 6a ba 1a b5 13 bd 98 9a 45 3f
       0.6809418 -0.00089564285 -0.036061384 0.77189016
000250 6e f6 a8 bb 4c fc 83 39 a6 ff 3f 3f 1d aa be 3e
       -0.00515633 0.00025174243 0.74999464 0.3723916
000260 d8 e9 d7 3e 6d 87 09 3f c9 00 19 3f cf d5 2f 3f
       0.42170596 0.5372227 0.59766823 0.6868562
000270 a9 f9 13 ba 85 43 0e 3e 5a 6c 0b 3f eb 21 12 3f
       -0.0005644807 0.13892944 0.54462206 0.57083005
000280 14 a3 13 3f d9 84 14 3f 8d 63 12 3f ac 2b 16 3f
       0.5767071 0.5801521 0.5718315 0.5866039
000290 19 3d 87 bb c1 96 7d 3c 23 b3 f7 3e 2e 1e 16 3f
       -0.0041271565 0.015477837 0.48378858 0.586398
0002a0 91 30 c7 3a 51 23 12 3f 72 0b ef 3e 95 f7 d2 3e
       0.0015196969 0.5708514 0.4668842 0.41204515
0002b0 63 6d df 3e 5c a7 b5 b7 87 d0 1a 3f a4 dd 1b 3f
       0.43638143 -2.1654814e-05 0.6047444 0.6088507
0002c0 a5 c1 a4 3e 8d e0 35 3f 57 bf 9c 3d 36 ab 22 3f
       0.3217899 0.7104576 0.07653683 0.635425
0002d0 49 c2 08 3f 50 f3 ba 3c 77 fe fe 3e 8b 88 18 3b
       0.53421456 0.022821099 0.49803516 0.0023274745
0002e0 ef 9a 01 3b 18 75 3e 3f ec 92 9b 3e 5e 2c d1 3e
       0.0019776186 0.7439742 0.3038553 0.40854162
0002f0 6d a8 26 3f c3 44 36 3f f8 66 2d 3f 28 7a e6 3e
       0.6510075 0.7119867 0.6773524 0.45015073
000300 ac 34 14 3f ac 01 0b 3f 1a 9c e7 3e e2 27 19 3f
       0.5789287 0.54299426 0.45236284 0.5982648
000310 27 89 fd 3e e8 5d 30 3c 9e 0c 0a 3f c2 e4 02 3f
       0.495187 0.0107645765 0.539255 0.51130307
000320 79 b8 25 3f 06 fe 1f 3f 84 13 1d 3f c8 6f 8f 3c
       0.6473461 0.62496984 0.61357903 0.017509356
000330 d2 22 42 3f 4d 52 b1 3d 93 6a 98 3c 1f ff 6c b9
       0.7583438 0.08658276 0.018605506 -0.00022601754
000340 ac 5f 40 3f 24 0d 28 3f 6e a3 2d 3f 26 8d 5b 3e
       0.75145984 0.6564505 0.678275 0.21440563
000350 be 1e 3a 3b d3 a9 37 3f 64 82 42 3b 78 fc 1d 3f
       0.0028399671 0.71743506 0.002967977 0.6171336
000360 bb 3e 08 bb 34 d3 05 3f 43 2f ef bb f8 e4 41 3d
       -0.0020789343 0.52275395 -0.007299335 0.047337502
000370 db 3b c0 3e 44 e7 2a 3f db 2f e3 3c 04 f4 7a 3e
       0.37545666 0.66759133 0.02773278 0.24507147
000380 bd 2a b4 ba f6 c9 0e 3f 53 27 0d 3f 68 05 ad 3a
       -0.0013745647 0.5577692 0.5513813 0.0013200464
000390 16 6c f7 3b 2d f7 5d 3a cf bb 2a 3f b4 55 0c bd
       0.0075507266 0.0008467313 0.66692823 -0.03426142
0003a0 41 0b 1a 3f 47 5d e0 3a 7e 0c db 3e 6b 9f 3f 3e
       0.6017342 0.0017117643 0.42782968 0.18713157
0003b0 ca 5d 8d 3e 91 d9 a2 3c 0f 9e 8b 3e 9a f5 30 3f
       0.27610618 0.019879134 0.27269027 0.6912476
0003c0 1a c7 8d 3b e8 ae 8b ba 7e 22 3d 3f b9 32 2f 3f
       0.0043267133 -0.0010656985 0.73880756 0.6843677
0003d0 e4 22 0c 3f d7 60 09 3f 27 17 16 3f 8d cd 7e bc
       0.5474074 0.5366339 0.5862908 -0.015551937
0003e0 e4 0c 2c bc 43 90 d0 bb 83 b8 1a 3f 91 ab 17 3f
       -0.01050112 -0.0063648536 0.6043779 0.59246165
0003f0 a8 3f 7e 3a 22 7c 21 bb b2 a5 37 3c 3d ee 9d ba
       0.00096988166 -0.002464064 0.011208938 -0.001204915

model.1.bias f4 [512]
000000 ab 49 17 bf 8f 80 c5 bd 50 16 69 39 72 14 ea be
       -0.59096783 -0.09643661 0.00022228924 -0.45718724
000010 39 52 dc be 11 bf 95 bd 91 c0 28 be 7a f7 b6 be
       -0.4303148 -0.07311834 -0.16479708 -0.35735685
000020 e9 bd e2 be 5e 2e 8e be c9 8f 32 be b1 59 c3 be
       -0.44285515 -0.2776975 -0.17437662 -0.38154367
000030 44 85 87 38 b2 a4 2e be e1 b9 94 bd 88 17 b4 bd
       6.462124e-05 -0.17055014 -0.07262016 -0.08793551
000040 f0 48 21 be 45 5d 6e be 86 90 b3 bd 23 20 80 be
       -0.1575048 -0.23277767 -0.087678 -0.25024518
000050 ae 0e 24 be 21 5e 7f be 5f ee 20 bd c6 45 99 be
       -0.16021225 -0.24938251 -0.03928983 -0.29936045
000060 82 18 ae be c9 c7 9d be 74 d3 ae bd 46 01 6f be
       -0.34003073 -0.30816486 -0.08536425 -0.2334033
000070 da b9 4c 3e 6c ea 1e be c1 cf 08 3e 6c c3 dd ba
       0.19992772 -0.15519112 0.13360502 -0.0016919202
000080 3b ac 48 bd 47 5e ab bc eb 86 9e bc 97 9d e5 be
       -0.048992377 -0.020918978 -0.019351443 -0.44846794
000090 6e d1 14 be 3e 0b 8d be 9f 8a 71 be ff b5 c3 be
       -0.14533016 -0.2754764 -0.23588036 -0.3822479
0000a0 13 3f c9 bc 9d 58 94 3c 34 25 f8 be 74 f9 d5 bd
       -0.024566209 0.01810866 -0.48465884 -0.1044797
0000b0 24 d4 a8 be 94 bc f2 3d 3b ab 66 bd 1c be 21 3e
       -0.3297435 0.11852375 -0.05631564 0.15795177
0000c0 fa 91 ad be b7 7e 9d be b7 f4 7f be 9c 54 44 be
       -0.33900434 -0.30760738 -0.24995695 -0.19172901
0000d0 98 a6 e1 bd 6f ae e3 be 10 a5 11 be 4a 38 96 ba
       -0.11018103 -0.4446902 -0.14223123 -0.0011460867
0000e0 96 8a 10 3d af 84 69 be 26 b0 a6 be 20 55 ac be
       0.035288416 -0.22804521 -0.32556266 -0.33658695
0000f0 c4 05 08 3d 45 a7 75 be 9c 77 12 be 74 95 6c bb
       0.033208624 -0.2398959 -0.1430344 -0.0036099823
000100 1f 0e e7 3c 5b 10 89 be ae bf 9a be d7 ba 3d be
       0.028204976 -0.2677029 -0.30224365 -0.18528305
000110 47 20 2f bd c0 9e 52 be a7 4e bd bc 26 38 b0 bd
       -0.04275539 -0.20568371 -0.023108793 -0.086044595
000120 03 78 74 bc 2e f5 a1 be 22 f2 55 3d 1b d6 00 3e
       -0.014921191 -0.3163237 0.05223287 0.12581675
000130 d0 49 5a 3a 73 03 95 3c 69 bf dd be 13 eb 76 3c
       0.0008327039 0.018190121 -0.43310097 0.0150706945
000140 74 b1 86 bc e8 5a db bd 3e 71 81 be b5 1f 51 be
       -0.016442038 -0.10710698 -0.2528171 -0.20422252
000150 2d 0d 00 be 0d a9 13 be a1 aa e4 be 92 49 91 be
       -0.12505026 -0.14419957 -0.4466143 -0.28376442
000160 0e 10 a9 39 4e 87 06 bd 0a b3 43 be f2 94 cc be
       0.00032246154 -0.03284388 -0.19111267 -0.39957386
000170 d8 03 8e be d3 99 99 be ad f1 89 be 0c 32 6e 3d
       -0.27737308 -0.3000017 -0.26942196 0.058153197
000180 62 96 ea 3a 5b de b2 be f6 db 62 be 07 4f 24 3e
       0.0017897601 -0.3493527 -0.22154221 0.16045772
000190 e2 13 06 be a9 c4 91 be c9 31 40 bd 79 71 8c 3d
       -0.13093522 -0.28470352 -0.04692248 0.06857581
0001a0 12 72 46 be 14 ec 06 3a de 8e ab be 3e 49 56 be
       -0.19379452 0.0005146873 -0.33507437 -0.20926377
0001b0 24 98 aa be 99 4e 62 3c 21 f9 15 bf 30 03 24 bc
       -0.333192 0.013812684 -0.58583266 -0.010010526
0001c0 5c e9 bd 3d 34 ff 74 bc e1 72 b9 be 9a 60 95 bd
       0.092730254 -0.014953423 -0.36220458 -0.07293816
0001d0 b3 fb 19 be 4b b3 a1 be f2 c8 d8 bb 7e 86 92 be
       -0.15037422 -0.31582102 -0.0066157514 -0.28618234
0001e0 cc ad 53 3c 53 79 51 be 41 a5 82 be b4 39 60 3c
       0.012919854 -0.20456438 -0.25516704 0.0136856325
0001f0 de a2 4e be 84 42 8d be 4f 02 a5 3a 49 f4 04 3c
       -0.20179316 -0.2758981 0.0012589189 0.008114883
000200 1a 34 1b bf ae 1b d4 bd 2b bd 44 be c3 84 90 be
       -0.60626376 -0.10356842 -0.19212787 -0.2822629
000210 03 3e 48 3b 16 62 2a be 56 16 77 bd 3a 96 31 be
       0.003055454 -0.1663898 -0.060324036 -0.17342463
000220 b2 ed b6 be dc 68 0b be ab c5 67 be 96 ab 4d be
       -0.35728222 -0.1361422 -0.22633998 -0.20084986
000230 bb 09 5b be 0e f3 ca bd 07 d5 d8 be c6 33 52 be
       -0.2139043 -0.0990964 -0.42350027 -0.20527562
000240 01 c9 19 bf d8 0d d4 bc 66 44 16 3e 98 99 78 be
       -0.6007233 -0.025885507 0.1467453 -0.24277341
000250 e0 f8 cd 3d 5c b4 01 3a 93 75 90 be bb cb d2 bd
       0.10057235 0.0004947835 -0.28214702 -0.10292765
000260 8d 06 43 bd bf 83 51 be f7 7f 3e be 90 c6 1d be
       -0.04761367 -0.20460413 -0.18603502 -0.15407777
000270 d3 4c d3 bb 10 a3 24 be 65 e8 45 be 14 df d7 be
       -0.006448367 -0.16077828 -0.19326933 -0.42162383
000280 86 cd 4e be 79 df ce be d8 58 e8 be cb 6a a9 be
       -0.20195588 -0.4040487 -0.45380282 -0.3308929
000290 7b 39 24 be 8d 18 d8 bd 1d 41 43 be b4 af f3 be
       -0.16037552 -0.10551558 -0.19067807 -0.47594988
0002a0 83 ec c9 ba cd 37 07 bf 74 5f 94 be e0 f3 8f bd
       -0.0015405569 -0.5281952 -0.28979075 -0.07028937
0002b0 61 99 f9 bd 34 f9 25 36 03 f5 cf be 37 57 d8 be
       -0.12187458 2.4731971e-06 -0.40616617 -0.4225404
0002c0 4d 2b fe bd 60 27 13 bf 09 7d 79 be 79 32 e0 be
       -0.12410603 -0.57481956 -0.24364103 -0.43788508
0002d0 37 a7 07 be 1e 78 11 bd ea 53 98 bd 40 af cc 3b
       -0.13247381 -0.035514943 -0.0743788 0.0062464774
0002e0 8d 28 c4 3a 40 16 1b bf 53 b2 84 be f1 9b 9d be
       0.0014965698 -0.60580826 -0.259173 -0.30783036
0002f0 eb b2 9f be 6f 12 26 bf 82 d4 80 be d1 55 ad be
       -0.3119119 -0.6487188 -0.2516213 -0.33854535
000300 93 f6 df be 9a 00 88 be 95 1f ab be b0 91 7d be
       -0.4374281 -0.2656296 -0.33422533 -0.24762607
000310 74 c6 9c be 39 35 39 bd b2 1e 03 bf 8a 7a 81 be
       -0.30620158 -0.045216773 -0.5121871 -0.25288802
000320 0c cc 88 be 92 d0 b5 be 2a 08 36 be b4 49 ee 3d
       -0.26718175 -0.3551069 -0.17776552 0.116351515
000330 21 bd 28 bf cf 86 c9 bd 78 11 db bd cf cc 95 bb
       -0.6591359 -0.09840166 -0.10696691 -0.004571534
000340 c8 f4 c7 be c5 4f f5 be 40 d1 86 be d2 9a 95 be
       -0.3905394 -0.47912422 -0.2633152 -0.2921968
000350 dc cb eb 3d 06 4a fe be f8 f9 ac 3d f3 54 e7 be
       0.115134925 -0.4966585 0.08446115 -0.45182
000360 26 70 86 bb 6c 64 16 be 02 40 1e be 08 93 68 bd
       -0.0041027246 -0.14686745 -0.15454105 -0.056780845
000370 76 33 9c be 59 eb 22 bf fa 08 e3 bd d6 86 8f bc
       -0.30508012 -0.6364036 -0.110856965 -0.01752035
000380 2d 47 e4 3c 58 14 39 be 62 61 01 bf 3c 88 d4 bd
       0.02786597 -0.18074167 -0.5053922 -0.10377547
000390 8b 06 49 3d 96 8a 06 3d 89 bb b7 be ac 11 e2 bd
       0.049078505 0.03284701 -0.35885265 -0.11038527
0003a0 7f 65 4f be d8 08 3b 3d c6 c6 8d be 29 27 8a bd
       -0.20253561 0.04566273 -0.27690715 -0.067457505
0003b0 3f f0 00 be 5f 69 f6 3d c9 e8 1d be e3 09 bf be
       -0.12591647 0.12031817 -0.15420832 -0.3731223
0003c0 15 51 17 bd 68 21 48 3a 16 0a 89 be 02 87 86 be
       -0.03694256 0.00076343725 -0.26765507 -0.26274878
0003d0 bf 98 a0 be ad 85 fb be bd 0c 70 be 4d d3 91 3d
       -0.31366536 -0.49125424 -0.2344236 0.071203806
0003e0 2e 8a 8b 3d c5 3c 62 bd ea 85 09 bf 1f 01 e9 be
       0.06813465 -0.055233736 -0.5371996 -0.45508668
0003f0 e9 11 0c 3d 1c ad be bd bf 43 7d be d9 2b 61 ba
       0.034196768 -0.09310362 -0.24732874 -0.00085896027

model.1.running_mean f4 [512]
000000 55 ee 10 3c 3e c9 ae bc e8 a8 c7 b9 25 84 41 3d
       0.008845885 -0.021336194 -0.00038082083 0.047245163
000010 6d 38 13 3d 65 99 1a bb 99 32 ca bb ce f9 00 3d
       0.035942484 -0.0023589965 -0.0061705825 0.031488232
000020 05 e6 0c 3e 6d 73 1e 3b 31 2e 9a bc ce 12 85 3d
       0.1375962 0.0024177686 -0.018820854 0.06497727
000030 87 fe bd 3b 6a a2 76 3d 03 e2 90 bc 3e 16 6d bb
       0.0057981643 0.060213484 -0.017685896 -0.0036176587
000040 07 c7 80 bc 7c c6 e9 bb 38 66 66 bc 5e 4a b9 3c
       -0.015719904 -0.007134257 -0.014062457 0.022618469
000050 37 51 f2 ba ed 29 7d 3c 61 45 2e 3b 00 3d 05 3d
       -0.0018487339 0.01545189 0.0026591646 0.032528877
000060 71 6e 8e bc 43 71 e6 b9 83 80 7f bc 8c 5a 28 bd
       -0.017386647 -0.00043953405 -0.015594604 -0.041101977
000070 bb e2 72 bc 6d 23 d7 3c d4 28 36 3d d7 50 cf bc
       -0.014824565 0.02626201 0.04447253 -0.025307102
000080 41 d9 14 3c 23 46 19 bd 72 3a 8e 3c bb eb 01 bc
       0.0090850005 -0.037420403 0.017361853 -0.007929738
000090 fd 70 03 bc 7a 36 b0 3c 1e 86 e9 bc 3b 2d 10 3b
       -0.008022544 0.021510351 -0.028506335 0.0021999616
0000a0 40 e8 d4 3b 26 d8 35 bd 72 4a f3 bd 55 b1 45 3c
       0.006497413 -0.04439559 -0.11879434 0.012066205
0000b0 51 e7 45 3d 99 54 e6 3c fe 6b a7 bc 44 fa d6 bc
       0.048316304 0.028116511 -0.020437237 -0.026242383
0000c0 7c 48 f8 3b 13 6c 24 ba a8 aa 9a 3d 63 0c e2 3b
       0.007577 -0.0006272208 0.07552081 0.0068984493
0000d0 a1 23 3e 3d 7e f7 a2 bc 2b c7 59 3c 17 63 ef b9
       0.046420697 -0.019893404 0.013292114 -0.0004565946
0000e0 0a cc e0 b9 51 c5 39 3b 36 93 39 3c 63 e0 0f 3d
       -0.0004287663 0.002834637 0.011326602 0.0351261
0000f0 0a 58 32 b9 01 c2 a2 3b a8 c0 11 3d 4a b4 46 3c
       -0.000170082 0.0049669747 0.035584122 0.012127945
000100 82 97 60 3b 08 a6 9c 3c 21 87 6c 3c 04 3f dc 3c
       0.0034269993 0.019122139 0.014436514 0.026885517
000110 77 1f 0d 3b 25 09 39 3d 82 3b 2f bc f3 8d 64 3c
       0.0021533647 0.045174737 -0.01069534 0.013949859
000120 c0 13 d3 bb 94 73 ff 3c 99 7e 8e 3c a7 e3 0a 3c
       -0.0064415634 0.031183042 0.01739435 0.008477128
000130 83 bf 11 bb 9a 83 ec ba c6 06 2f 3c b1 fa 3b 3c
       -0.0022239394 -0.0018044591 0.010682767 0.011473344
000140 46 a4 ed bb 2f fb cd bc f0 25 f9 3c f6 1c 4c 3c
       -0.007252249 -0.025144188 0.030413598 0.012458077
000150 37 7e 0e bc 7b 2b 42 3b 26 10 db 3c 1f 98 75 3d
       -0.008697084 0.0029627967 0.026741099 0.059959527
000160 3b cd 5f 39 c8 5e f5 ba fd cc 9e 3d 0a 15 43 39
       0.00021343392 -0.0018720264 0.07753942 0.00018604487
000170 c5 94 dc 3c bd a9 19 3d d7 6c b3 3d 59 24 15 bc
       0.026926408 0.03751539 0.08760994 -0.009102904
000180 ce 8c 97 bb 19 79 3c bc 4c dd cd ba 1f 82 16 3c
       -0.0046249395 -0.011503481 -0.001570621 0.009186297
000190 70 f8 4a 3c 9f be ca 3b 74 47 64 bb 2b 93 9c bc
       0.012388334 0.0061872746 -0.0034832628 -0.019113144
0001a0 61 27 eb bc 87 70 bb bc e7 7c ff 3b 5d bd b9 bc
       -0.0287053 -0.022880806 0.007796872 -0.022673303
0001b0 29 e0 a2 3d b9 f2 ee bc df 7c 01 bd 10 31 c4 3c
       0.079529114 -0.029168474 -0.031613227 0.023949176
0001c0 c7 38 1d bd ba 09 91 bc 3f 1f cd 3b 41 97 57 3c
       -0.038384225 -0.017704833 0.0062598283 0.01315862
0001d0 42 1d 56 3b 45 30 60 bc 07 57 7a 3b 09 70 05 bc
       0.0032671248 -0.013683383 0.0038198845 -0.008144387
0001e0 55 35 b2 39 07 2f 50 bd a0 bb a4 3d 69 d7 ec bc
       0.0003399054 -0.0508261 0.08043599 -0.02891131
0001f0 12 52 68 bd 99 02 14 bd e0 46 db ba 21 83 18 3c
       -0.056718893 -0.03613529 -0.0016729496 0.009308607
000200 a4 5e 05 3e 46 fc 16 3b 41 24 90 bb 48 32 80 bc
       0.13024384 0.002303855 -0.004398853 -0.015648976
000210 fe 77 26 bb b4 8d 0b bd 55 bc 17 3c 13 1f 22 bc
       -0.002540111 -0.034070686 0.00926121 -0.009895104
000220 7d 1a 8e bb 79 8d 8c 3c 41 f0 92 bd 15 8b b2 3d
       -0.0043366537 0.017157303 -0.07174731 0.08717934
000230 cb 1f 17 3c f4 29 90 3d 2e 13 6e bc e3 e0 b2 3b
       0.009223889 0.07039252 -0.01453094 0.0054589375
000240 a0 e8 8b 3d 0e 89 af 3c e0 66 46 bd 13 ab 2e 3d
       0.06831479 0.021427657 -0.048437953 0.042643618
000250 7a 9f 8a 3c 99 f8 56 3c bd 35 8f 3b 1f 2c cb 3c
       0.016921747 0.013120794 0.00437042 0.024801312
000260 70 ec 23 3c 25 22 1c 3d 66 48 20 3d 42 de 89 bc
       0.010005102 0.0381185 0.039131545 -0.016829614
000270 59 65 34 3a c3 a0 38 bc b3 1e 32 bd 00 b0 54 3d
       0.0006881557 -0.011268797 -0.04348631 0.05192566
000280 42 86 ce 3c 12 85 15 3d 63 82 a5 3b f3 da 52 bd
       0.025210503 0.03650386 0.0050509437 -0.051478337
000290 e2 0f fb bb d0 c4 59 bc b0 e6 e1 3b b1 4f ce 3d
       -0.0076618055 -0.013291553 0.006893955 0.10073794
0002a0 c8 53 3f bc 35 b9 1f 3d ff f4 20 3d aa 29 43 bd
       -0.01167769 0.038994987 0.039296146 -0.047647156
0002b0 f3 1a 20 bd 1e d7 6b bb e7 a5 70 bd 45 6c 4e 3d
       -0.0390882 -0.0035986374 -0.058751967 0.050396223
0002c0 ca d5 f4 bb 2d bd 10 3c 6f f0 5d bb cf dd da 3b
       -0.0074717747 0.0088341655 -0.0033865233 0.0066792737
0002d0 e3 20 28 bc 5f 59 18 3c 66 e0 bd 3a 61 f1 8e bb
       -0.010261747 0.0092986515 0.0014486432 -0.0043622707
0002e0 72 23 36 3b fc d7 ba bc 3b 3a 32 bc 34 6a 4f 3c
       0.0027792123 -0.022808068 -0.010878141 0.012659598
0002f0 67 dd 36 3d c5 55 fe bc fe ca d7 3d f6 d6 03 bc
       0.04464474 -0.031046757 0.105367646 -0.008046856
000300 95 0a d2 bc 15 d3 36 bd 1d 01 8b 3c 4d f5 fe 3b
       -0.025639812 -0.044634897 0.016968304 0.007780707
000310 14 12 82 3d 75 61 49 3c 83 6a 18 3d 33 40 a4 bc
       0.063511044 0.012291302 0.037210952 -0.020050144
000320 11 d7 b4 3c b7 96 6e 3c f3 bf 8b bc 31 c3 af bc
       0.022075208 0.0145623 -0.017059302 -0.02145538
000330 8e 75 bf 3a 61 c8 9a 3c ef 94 64 bc 4a 86 7c 3b
       0.0014607178 0.018894376 -0.013951524 0.003853219
000340 62 a0 ae bc 6b 50 4f 3d 3e 69 fc bc 74 33 dc bc
       -0.02131671 0.050613802 -0.030811902 -0.026880004
000350 ae 87 b4 bc 6f 0c 40 3d 28 01 30 bd 6a ec aa 3d
       -0.022037353 0.046886858 -0.042969853 0.08345874
000360 01 75 3c bb a3 48 93 3c 76 eb d7 bc b3 df a9 bb
       -0.0028756263 0.017978972 -0.026357394 -0.0051841377
000370 90 e7 33 3d 50 b0 16 bd be 81 a7 3c 97 d1 e5 bc
       0.043922007 -0.03678924 0.020447608 -0.028054042
000380 22 4f 8c bc 90 3e 3e bc 9a 2d 4d 3d 32 18 0c 3d
       -0.017127577 -0.011611596 0.050092317 0.034202762
000390 17 54 7c 3c ca 7f 00 bb 2c 31 65 3d 84 51 b9 3a
       0.015400908 -0.0019607418 0.055955097 0.0014138673
0003a0 52 fd 34 bc 40 16 03 bc 1a 1e 96 bc 14 c3 f3 3c
       -0.011046724 -0.00800091 -0.0183249 0.029756106
0003b0 1c 41 84 3c 7e df 34 3c bb e2 e4 bc 56 60 a7 3d
       0.016144328 0.011039613 -0.027940145 0.081726715
0003c0 73 14 9d 3a 77 fd db ba 87 bb f9 bb 22 33 7c bc
       0.0011984244 -0.0016783912 -0.007621232 -0.01539305
0003d0 12 e6 4e bd 56 dc 86 bd 3a 6a 92 3c 00 01 3c 3c
       -0.05051238 -0.065849945 0.017872918 0.011474848
0003e0 24 2d dc bc 3a 97 16 bc 16 b8 94 bd 86 f6 af 3d
       -0.026876993 -0.009191329 -0.07261674 0.085919425
0003f0 f3 33 0e 3c 55 84 9e bc 96 1c 15 3c a3 88 1c 38
       0.008679378 -0.01935021 0.009101054 3.732055e-05

model.1.running_var f4 [512]
000000 63 c4 0f 3f 02 ff 75 3c df 6b 2c 38 d2 24 c6 3e
       0.5615904 0.015014412 4.110846e-05 0.38699967
000010 77 93 e7 3e 9a 86 98 3e a6 49 86 3e 3c 71 d1 3e
       0.45229694 0.29790193 0.26228064 0.40906703
000020 45 c8 83 3e 19 ce b7 3e 2b 27 b5 3e fa c8 38 3e
       0.2573873 0.35899428 0.35381445 0.18045416
000030 46 0e f8 3a 0e f9 0f 3d 6a e8 8c 3b f1 57 2b 3c
       0.0018925152 0.035149626 0.004300167 0.010457979
000040 47 05 84 3d 1c a4 d7 3e 04 91 82 3c 87 85 26 3f
       0.06446319 0.42117393 0.01593829 0.65047497
000050 4b d8 37 3d e8 f8 b5 3e 00 39 ff 3b e6 05 73 3e
       0.044884007 0.35541463 0.0077887774 0.23732719
000060 3f 76 1b 3f 92 32 f8 3e 54 09 96 3e fb ff ef 3d
       0.60727304 0.48476082 0.29303992 0.11718746
000070 f2 1a f5 3c bb 02 d0 3e 72 23 3e 3e 32 39 ad 3d
       0.029920075 0.40627083 0.18568209 0.08458175
000080 d2 40 45 3c 8c 0d 20 3d 16 fe cb 3c 57 10 21 3f
       0.01203938 0.03907542 0.024901431 0.6291556
000090 d5 03 ed 3e d1 07 0b 3f 68 7c e3 3e 6c af d1 3e
       0.46291986 0.543088 0.44430852 0.4095415
0000a0 df 0c 21 3b 33 ac 1f 3d 74 81 7a 3e 9d 88 92 3e
       0.0024574322 0.03898258 0.24463445 0.28619853
0000b0 44 95 d3 3e cf cb 54 3c e3 4e 05 3d db 2b 50 3d
       0.41324818 0.012988045 0.032545935 0.050823074
0000c0 cf c8 e5 3e 99 ea cc 3e bd ed 90 3e e9 59 aa 3e
       0.44879767 0.40022734 0.2830638 0.3327172
0000d0 ea 82 26 3e ab 0c f7 3e d5 c0 49 3d 8a 93 25 39
       0.16260877 0.48251852 0.049256165 0.00015790589
0000e0 03 5e 29 3e 8f 01 f1 3e 95 e0 d3 3e ec b4 d8 3e
       0.16539769 0.47071502 0.4138228 0.42325532
0000f0 3a d2 9b 3b f5 df de 3e 0a db f9 3e 34 f0 0c 3c
       0.0047552856 0.4353024 0.48799926 0.008602191
000100 a2 ca 3f 3c 3b 7f c1 3e f1 4d 2a 3e 34 17 04 3f
       0.011706026 0.37792382 0.16631295 0.51597905
000110 cf 7a f7 3b 74 d5 75 3e 6b 21 b1 3b fd 9a 8a 3c
       0.0075524817 0.24007207 0.005405595 0.016919607
000120 2b f6 2d 3b 2c 6a a9 3e 29 de e5 3c 7a e1 82 3c
       0.0026544433 0.33088815 0.028060036 0.015976656
000130 1a b1 c5 3b df 37 14 3c f3 e2 be 3e 3a 74 6b 3c
       0.006033075 0.009046524 0.37282524 0.014370972
000140 a3 09 2a 3e 4e b4 20 3c be ba bc 3e e0 bb db 3e
       0.16605239 0.009808613 0.36861223 0.42916775
000150 20 16 60 3d ca 0a f6 3c 28 26 0b 3f 03 5f 2f 3e
       0.0547086 0.030034442 0.54355097 0.17126088
000160 da 30 01 38 fc 95 ac 3e 4d 3d e1 3d 13 44 de 3e
       3.0801493e-05 0.3370818 0.1099802 0.43411312
000170 21 d7 a6 3e dd 2d c3 3e dd 98 e5 3e ae ed 3a 3c
       0.32586005 0.38120928 0.44843188 0.011409206
000180 4c 99 d2 3a 6a 47 06 3f 64 b7 c8 3e 9d 8d df 3c
       0.0016067415 0.5245272 0.39202416 0.027289206
000190 76 d9 d5 3c 15 f3 dd 3e e9 56 b5 3b 27 c6 7c 3e
       0.02610467 0.4334952 0.005534042 0.24684964
0001a0 5e f0 b6 3c d8 4d da 3e d9 ea 1c 3f ef 17 ec 3e
       0.022331413 0.42637515 0.6129585 0.4611201
0001b0 bf 13 a1 3e 64 94 6e 3c a8 ff 13 3f 03 9d a1 3d
       0.31460378 0.014561746 0.57811975 0.07891276
0001c0 f0 6b 0f 3d 65 0a 88 3e 6e ae 10 3f 84 f6 bd 3e
       0.035015047 0.2657043 0.5651616 0.3710214
0001d0 13 cd ab 3e 48 dd 95 3e 64 af eb 3b 62 9f ef 3e
       0.33554897 0.29270387 0.007192539 0.46801287
0001e0 99 28 95 3b 79 5f fc 3e 0c ad f4 3e 45 c9 b3 3e
       0.0045519588 0.4929159 0.47788274 0.35114494
0001f0 e2 c9 fc 3e a8 be e0 3e 29 db 1d 3b fb c2 f9 3a
       0.49372774 0.4389546 0.0024086928 0.0019055301
000200 5b d1 c1 3e ca d5 96 3e 8f 59 d7 3e 0d 21 dd 3e
       0.37855038 0.29459983 0.42060515 0.43189278
000210 e9 a3 86 3b 30 2e e3 3e 1e 6b 9e 3b ff 12 92 3c
       0.004108895 0.44371176 0.0048345467 0.017831324
000220 38 43 ef 3e 8b 91 c2 3e aa a9 00 3f 3c f2 54 3e
       0.4673097 0.38001665 0.50258887 0.2079553
000230 c4 7b ea 3e 33 f3 22 3e e5 9c 1f 3f 8f 23 83 3e
       0.4579755 0.15913086 0.6234878 0.25613067
000240 ab 41 13 3f ec 8b 52 3c b6 99 e7 3c 25 e4 03 3f
       0.57522076 0.012850743 0.028271537 0.51519996
000250 5e 44 6c 3c 6e 60 17 3c 21 0c f7 3e 4e a6 86 3e
       0.014420597 0.009239299 0.4825144 0.26298755
000260 c0 02 82 3e e4 e6 fa 3e 5e 88 d1 3e 3c 7f f1 3e
       0.25392723 0.4900428 0.40924352 0.47167385
000270 dd f3 c6 3a b3 76 b3 3d 4e 3a c1 3e 31 22 cb 3e
       0.0015178878 0.087628745 0.37739795 0.39674523
000280 f0 64 c8 3e 78 04 08 3f 00 62 e5 3e e6 f1 03 3f
       0.3913951 0.5313182 0.4480133 0.5154098
000290 e3 ee e0 3c 3f 24 62 3c 27 c8 a1 3e 78 c9 e0 3e
       0.02745766 0.013802587 0.31598017 0.43903708
0002a0 91 fd e7 3b 1b 5a f3 3e bc 1a d7 3e b4 95 c8 3e
       0.007079788 0.47529683 0.42012584 0.39176714
0002b0 42 e7 a4 3e 2f 2a b8 3a 55 6f 2a 3f a6 f8 f7 3e
       0.32207686 0.0014050658 0.6657613 0.4843189
0002c0 e4 bb 69 3e 0a 29 09 3f e6 fa 96 3d f7 5e 12 3f
       0.22825581 0.53578246 0.07372074 0.57176155
0002d0 03 8d cf 3e c3 37 a3 3c 1f a4 a4 3e 28 19 59 3b
       0.4053727 0.01992405 0.32156464 0.0033126567
0002e0 e7 8c fa 3a fd f6 37 3f 13 55 70 3e ea 5f aa 3e
       0.0019115478 0.7186125 0.23469953 0.33276302
0002f0 59 51 18 3f 37 63 fb 3e 8d a6 39 3f bf 63 9e 3e
       0.59499127 0.49099132 0.7251976 0.30935475
000300 b4 0d 00 3f 69 56 f3 3e 30 28 e6 3e d3 67 d3 3e
       0.5002091 0.47526863 0.44952536 0.4129015
000310 cb 97 c3 3e df fd bb 3c ee e6 a7 3e e7 d1 94 3e
       0.38201746 0.022948204 0.32793373 0.29066393
000320 4b ea 01 3f 9c 99 da 3e d8 90 af 3e b3 e3 80 3c
       0.5074813 0.4269532 0.34290195 0.015733575
000330 ec de fc 3e 11 af 75 3d 80 c6 d4 3c 60 1c fe 39
       0.49388826 0.05998141 0.025973558 0.00048467796
000340 d9 58 ff 3e 86 9e 01 3f 19 e5 f9 3e 17 d0 ff 3d
       0.49872473 0.5063251 0.488076 0.12490862
000350 ce 15 93 3c b1 78 35 3f 2e bb ae 3c 23 62 06 3f
       0.017954733 0.70887285 0.021329489 0.52493495
000360 92 b7 79 3a 07 2b d4 3e a0 3a 36 3c 5d 6b 33 3d
       0.00095259503 0.41439077 0.011122376 0.04380356
000370 fd f6 9f 3e d1 c2 28 3f 15 2c b9 3c 3b a9 40 3e
       0.31243125 0.65922266 0.022604028 0.18814556
000380 5b 12 8b 3c 12 00 d3 3e e9 b7 01 3f b0 b6 bf 3c
       0.016976526 0.4121099 0.5067125 0.023402542
000390 7e 65 48 3c e0 ea c0 3b 95 1f ed 3e 7c 19 01 3d
       0.012231229 0.0058873743 0.46313158 0.031518444
0003a0 b3 21 fc 3e a4 c0 d4 3b 66 56 b7 3e 89 88 16 3e
       0.4924446 0.006492691 0.35808104 0.14700522
0003b0 05 90 82 3e 6f b9 34 3c 5e 3a 5d 3e 8c c3 23 3f
       0.25500503 0.011030539 0.21604297 0.63970256
0003c0 84 da 6c 3c 81 04 f1 39 57 f8 c8 3e fe d8 e1 3e
       0.014456395 0.00045970458 0.39251968 0.44110864
0003d0 49 48 d6 3e fb 49 cb 3e a2 bb c5 3e f4 29 97 3c
       0.41852024 0.3970488 0.38619715 0.018452622
0003e0 59 5e 4a 3c 75 e6 0a 3c f0 5a e2 3e 9a 8e e9 3e
       0.012351596 0.008477797 0.44210005 0.4561661
0003f0 d2 d6 80 3b f1 b6 13 3c 80 e7 95 3c 4a 69 16 39
       0.0039318586 0.009015785 0.018298864 0.00014344338
